mobile/app/src/main/assets/sign_classifier.tflite (tflite, 277132 bytes, 6 tensors)

arith.constant f4 [128]
0.9619708 0.67982924 0.39555094 1.0154506 0.51526135 0.8455543 0.9981874 0.5617919
-0.12276542 -0.8579141 -0.06453603 0.75922424 0.790131 0.38776278 0.9198956 0.90996087
0.85969293 0.61591446 0.47761422 -1.1585491 0.74819666 0.22655515 -1.9644692 0.42647344
0.12460587 0.12802258 -0.2799194 1.1053149 -0.07217273 0.08545426 -0.9369946 -0.8011714
0.23420031 1.0452913 0.48612237 0.8089025 0.77938235 0.8701417 0.5035888 0.50219107
0.83386874 0.45055336 0.36531606 -1.516977 0.35710645 0.49310914 -0.10464741 1.2327188
-0.031799864 0.8968536 1.0897828 0.062092207 0.07172136 -0.1889773 0.8736499 0.20260267
0.26277685 0.476622 0.4381262 -0.9291476 0.4264592 0.95660347 0.24017583 0.33105588
0.95366406 0.26394412 -1.2514547 0.81759506 -0.8389522 -1.458958 0.0141744865 0.8135886
0.13262361 0.9778729 0.9034301 0.26407808 0.85483766 1.0869325 0.52708936 0.30487266
0.33271807 -0.6533706 -0.43019465 0.13658555 0.82347333 -1.2827119 0.11606261 0.111125074
0.7696322 0.2184367 -0.31238613 0.5619803 -0.057661116 0.51370996 0.32783717 0.3098017
0.3542937 0.32904038 0.11091229 0.37804303 -0.091445975 0.07500862 1.0702933 0.62644184
0.28933185 0.30769417 -0.009475987 0.32413176 0.18611357 0.4428757 0.9992926 -0.24593462
-0.10340272 0.79858816 1.2039825 0.29195812 -0.07257275 0.15426043 0.60787535 0.6821654
0.3383336 0.13694635 -1.1911491 0.42987415 -0.022024564 0.7187715 -0.591776 0.6653972
00000000: b843 763f 4a09 2e3f a785 ca3e 49fa 813f
00000010: 2be8 033f 3f76 583f 3689 7f3f 98d1 0f3f
00000020: 706c fbbd 42a0 5bbf 772b 84bd 855c 423f
00000030: 0646 4a3f d888 c63e 477e 6b3f 32f3 683f
00000040: d614 5c3f 92ac 1d3f da89 f43e 564b 94bf
00000050: d189 3f3f 13fe 673e ba73 fbbf ba5a da3e
00000060: 5d31 ff3d 5a18 033e 9851 8fbe f57a 8d3f
00000070: 4ccf 93bd a502 af3d e1de 6fbf 9219 4dbf
00000080: 35d2 6f3e 1bcc 853f 08e5 f83e 3c14 4f3f
00000090: 9a85 473f 9bc1 5e3f 32eb 003f 988f 003f
000000a0: 6c78 553f eeae e63e b50a bb3e 4d2c c2bf
000000b0: a8d6 b63e cd78 fc3e 6251 d6bd bbc9 9d3f
000000c0: 9340 02bd 3398 653f 017e 8b3f 6654 7e3d
000000d0: a6e2 923d 4483 41be 85a7 5f3f 1377 4f3e
000000e0: b08a 863e cc07 f43e 1452 e03e 9edc 6dbf
000000f0: dc58 da3e f7e3 743f a7f0 753e 2880 a93e
00000100: 5423 743f af23 873e ab2f a0bf e94d 513f
00000110: 92c5 56bf 23bf babf 1b3c 683c 5847 503f
00000120: 7cce 073e e155 7a3f 3247 673f 3e35 873e
00000130: a4d6 5a3f 9b20 8b3f 54ef 063f 4518 9c3e
00000140: 065a aa3e 4c43 27bf 7942 dcbe 15dd 0b3e
00000150: 26cf 523f e72f a4bf 3cb2 ed3d 8b95 e33d
00000160: 9e06 453f dfad 5f3e 13f1 9fbe f1dd 0f3f
00000170: 102e 6cbd 7f82 033f 46da a73e 549e 9e3e
00000180: fc65 b53e fb77 a83e fc25 e33d db8e c13e
00000190: 0748 bbbd 1f9e 993d 5fff 883f 7e5e 203f
000001a0: 4e23 943e 178a 9d3e 2c41 1bbc 99f4 a53e
000001b0: 8e94 3e3e 9bc0 e23e a4d1 7f3f 49d6 7bbe
000001c0: cec4 d3bd 4670 4c3f 191c 9a3f 897b 953e
000001d0: 06a1 94bd 72f6 1d3e b89d 1b3f 64a2 2e3f
000001e0: 103a ad3e aa3b 0c3e 9377 98bf 7718 dc3e
000001f0: dc6c b4bc 6901 383f a27e 17bf 7957 2a3f

arith.constant1 f4 [26]
0.4921455 -0.15681037 1.2404658 0.5048962 -0.40078038 -0.45205468 -0.25755647 -0.15923664
-0.7690037 0.43441203 0.17334247 -0.7887783 -1.7022523 -1.091931 0.44053012 -0.043895576
-0.88488305 0.77895224 -0.11933502 0.82349366 0.34682453 -0.041568402 -1.796192 0.19969262
0.2732455 0.8731258
00000000: 7ffa fb3e e692 20be 95c7 9e3f e140 013f
00000010: 1633 cdbe b673 e7be 71de 83be ee0e 23be
00000020: 6ddd 44bf 416b de3e b080 313e 60ed 49bf
00000030: 67e3 d9bf 65c4 8bbf 2a8d e13e d9cb 33bd
00000040: b287 62bf 6a69 473f eb65 f4bd 7bd0 523f
00000050: fc92 b13e a143 2abd 9fe9 e5bf 397c 4c3e
00000060: d6e6 8b3e 2c85 5f3f

arith.constant2 f4 [26, 128]
-0.23124515 -1.483762 -2.5484152 -0.731033 -0.40856445 -0.2739752 -0.76133156 -0.32384673
-0.4367176 -0.4609363 -0.027304286 -0.6038586 -0.7408053 -1.6535081 0.035238847 -0.058906104
-1.4656507 -1.1804354 -0.3009524 -5.226912 -0.3123906 -1.4285861 -0.6465692 -1.6109188
-2.1305602 -1.3921869 -1.7320168 -0.99027056 -2.1018593 -1.375334 -1.2638623 -0.4807994
-0.25958434 -0.19762294 -2.2024019 -1.0052457 0.21741769 -1.3046632 -1.443371 -2.1752362
-0.079787225 -0.94052637 -0.11516094 -0.4743265 -1.3390871 -0.3148197 -2.665053 -1.1024427
-1.0721571 -0.16093613 -1.1730033 -1.1244678 -1.0843493 -1.6143594 -0.45548806 -1.5499538
-0.4922692 -0.20214292 -1.3183368 -0.29542682 -0.7775454 -1.398343 -0.2504841 -1.496982
-1.6611893 -0.33440214 -1.1466128 -1.5291845 -0.48543334 -1.2573031 -1.3905286 -0.99109614
-1.2894194 -0.7706172 -1.5549967 -0.16874549 -1.1552261 -0.88613933 -1.1773031 -0.49336666
-1.4758296 -3.459954 -0.22683042 -1.7275038 -0.38806584 -0.2579252 -0.76874703 -1.825017
-1.4536009 -2.2984273 -1.4784261 -1.0927657 -0.3834844 -1.0074267 -0.29619065 -1.5015459
-0.2243139 -0.67165494 -0.20250104 -0.36590573 -0.34935492 -0.06397965 -1.5499033 -0.76419383
-0.5401762 -0.2621127 -0.8273797 -0.2505174 -1.2029618 -0.86088586 -0.43471706 -1.4780282
-0.7828661 -1.0297322 -0.75732666 -2.096501 -0.84992635 -0.8531289 -2.2838187 -1.5255241
-0.3918026 -0.29089016 -0.6155831 -0.6356984 -0.7959817 -0.18221849 -0.84264666 -1.5824789
-1.0209398 -0.91231346 -0.31990752 -0.64988846 -1.681565 -0.5205552 -0.48346165 -0.92906666
-0.4398532 -0.6922599 0.009077131 -0.89337003 -1.7288359 -2.4214146 -1.2507075 -0.48467454
-1.1695435 -0.95412123 -0.6693644 -0.6928893 -0.7908958 -2.4082026 -0.9737834 -0.84689265
-0.84131324 -0.79162955 -1.0759243 -0.3534855 -3.0861037 -1.0755857 -0.35533974 -0.7341599
-0.79710054 -0.35597003 -1.2947395 -0.23159117 0.06422127 -0.040190283 -1.3601025 -0.020639984
-0.74101937 -0.18533026 -0.13434562 -0.25312984 -0.53977805 -2.158023 -1.200128 -0.67412287
-0.6434549 -0.4149125 -1.5316055 -0.510797 -1.1298674 -0.13316193 -0.73248243 -0.30538103
-0.17454703 -1.2434558 -0.06322063 -0.3948867 -0.22070776 -0.74131936 -2.1228282 -1.2476159
-0.7308355 -0.25996333 -0.46099433 -1.1574894 -0.25841346 -1.6014338 -1.8193057 -0.2755155
-1.4614931 -0.8346015 -0.23070094 -1.5929109 -0.3373361 -0.83980834 -0.31953335 -0.6020304
-1.3780383 -2.2858727 -1.4878592 -1.1169872 -0.8570183 -0.69965875 -0.4421269 -1.5495765
-0.6258243 -1.563427 -1.2912384 -0.5572284 -0.5490161 -0.9237993 -0.648854 -0.5043892
-1.5162559 -0.41395718 -2.2426982 -1.5322033 -0.37548104 -0.5097993 -0.08349672 -0.054675836
-0.3256357 -0.26444724 -0.59036237 -1.486746 -0.6773538 -0.3281565 -0.18363868 -0.5291848
-0.53864574 -0.3365424 -1.0289618 -0.030108316 -1.0976887 -1.0360976 -0.6152786 -0.6064259
-1.4027734 -0.042788498 -0.47946802 -0.3019678 -0.16703032 -1.3551981 -1.3318042 -0.90863615
00000000: 87cb 6cbe eaeb bdbf 3c19 23c0 fb24 3bbf
00000010: 5c2f d1be 7a46 8cbe a0e6 42bf 3dcf a5be
00000020: 7399 dfbe d8ff ebbe 3dad dfbc 7a96 1abf
00000030: 6ba5 3dbf 27a6 d3bf 9c56 103d 8747 71bd
00000040: 719a bbbf 8218 97bf 6f16 9abe dd42 a7c0
00000050: a9f1 9fbe e9db b6bf 8f85 25bf 9632 cebf
00000060: 195b 08c0 2e33 b2bf bab2 ddbf 5f82 7dbf
00000070: dd84 06c0 f20a b0bf 3dc6 a1bf 572b f6be
00000080: 3de8 84be ab5d 4abe 27f4 0cc0 e4ab 80bf
00000090: bea2 5e3e 34ff a6bf 62c0 b8bf 1237 0bc0
000000a0: 7c67 a3bd 56c6 70bf 80d9 ebbd ecda f2be
000000b0: 3567 abbf 0c30 a1be 3a90 2ac0 d81c 8dbf
000000c0: 723c 89bf 71cc 24be f924 96bf 90ee 8fbf
000000d0: f5cb 8abf 54a3 cebf bb35 e9be e364 c6bf
000000e0: b50a fcbe 8efe 4ebe 43bf a8bf 2f42 97be
000000f0: 370d 47bf e7fc b2bf 743f 80be 1b9d bfbf
00000100: daa1 d4bf c236 abbe 35c4 92bf 51bc c3bf
00000110: b88a f8be 4fef a0bf d7fc b1bf 7ab8 7dbf
00000120: b20b a5bf 2b47 45bf 220a c7bf 9ecb 2cbe
00000130: 73de 93bf 07da 62bf deb1 96bf 8e9a fcbe
00000140: fce7 bcbf e36f 5dc0 3c46 68be d81e ddbf
00000150: 91b0 c6be c60e 84be 9bcc 44bf 289a e9bf
00000160: 980f babf 6f19 13c0 113d bdbf bfdf 8bbf
00000170: 1158 c4be 5cf3 80bf 4da6 97be a832 c0bf
00000180: 8bb2 65be 94f1 2bbf 6f5c 4fbe ff57 bbbe
00000190: a6de b2be c307 83bd 3b63 c6bf 35a2 43bf
000001a0: fd48 0abf a333 86be 28cf 53bf d143 80be
000001b0: a7fa 99bf 0463 5cbf 3c93 debe 0730 bdbf
000001c0: ea69 48bf 44ce 83bf 29e0 41bf 132d 06c0
000001d0: c694 59bf a866 5abf 162a 12c0 6044 c3bf
000001e0: 5a9a c8be 8eef 94be db96 1dbf 21bd 22bf
000001f0: 75c5 4bbf 7c97 3abe b1b7 57bf ab8e cabf
00000200: 28ae 82bf 608d 69bf ebca a3be 175f 26bf
00000210: 863d d7bf 1b43 05bf 4988 f7be 50d7 6dbf
00000220: 7034 e1be f237 31bf 3fb8 143c e6b3 64bf
00000230: 7f4a ddbf 75f8 1ac0 2f17 a0bf 4327 f8be
00000240: 9ab3 95bf 4a41 74bf 775b 2bbf 3161 31bf
00000250: 2678 4abf fe1f 1ac0 de49 79bf f5cd 58bf
00000260: 4e60 57bf 3ca8 4abf e3b7 89bf 0dfc b4be
00000270: b982 45c0 cbac 89bf 17ef b5be e7f1 3bbf
00000280: c80e 4cbf b441 b6be 06ba a5bf 3c26 6dbe
00000290: 7186 833d 919e 24bd d717 aebf 2f15 a9bc
000002a0: 72b3 3dbf 37c7 3dbe e691 09be 3c9a 81be
000002b0: e52e 0abf 0d1d 0ac0 cb9d 99bf 5193 2cbf
000002c0: 76b9 24bf 696f d4be a60b c4bf 98c3 02bf
000002d0: 7f9f 90bf 9a5b 08be f883 3bbf e75a 9cbe
000002e0: 75bc 32be 8f29 9fbf d179 81bd 972e cabe
000002f0: 3701 62be 1bc7 3dbf 6bdc 07c0 e1b1 9fbf
00000300: 0918 3bbf ea19 85be 7307 ecbe 9d28 94bf
00000310: c54e 84be c8fb ccbf 02df e8bf 5e10 8dbe
00000320: 3512 bbbf 72a8 55bf de3c 6cbe 81e4 cbbf
00000330: 51b7 acbe aefd 56bf e099 a3be aa1e 1abf
00000340: 8f63 b0bf bd4b 12c0 2c72 bebf 70f9 8ebf
00000350: 8d65 5bbf d61c 33bf 755e e2be 8658 c6bf
00000360: 0536 20bf 601e c8bf 4d47 a5bf 85a6 0ebf
00000370: 528c 0cbf 1c7e 6cbf 4c1b 26bf a71f 01bf
00000380: ac14 c2bf 32f2 d3be 5e88 0fc0 3d1f c4bf
00000390: 0d3f c0be 3582 02bf 5400 abbd c5f3 5fbd
000003a0: b9b9 a6be a165 87be fd21 17bf b14d bebf
000003b0: 0f67 2dbf 2104 a8be c70b 3cbe a878 07bf
000003c0: b0e4 09bf 494f acbe 05b5 83bf b7a5 f6bc
000003d0: 1081 8cbf d99e 84bf e682 1dbf ba3e 1bbf
000003e0: 148e b3bf fe42 2fbd d57c f5be 869b 9abe
000003f0: ff09 2bbe 2277 adbf 8f78 aabf 619c 68bf

arith.constant3 f4 [128, 256]
-0.6781116 0.6846532 0.17292283 -0.6169001 -0.30877274 0.009051689 -0.6348626 0.093227066
0.08431527 -0.010154143 -0.35631573 0.01338312 -0.020595634 -0.02423695 -0.025556006 -0.067568086
-2.7795715 -0.007809676 -0.13507806 0.9007591 -0.13417345 0.042502336 0.62283605 -0.022392392
0.117581114 0.11322532 0.15618369 0.52306306 -0.0041095316 -0.78685224 0.18287073 -0.026866654
0.0021708475 0.00011793744 -0.47595417 -0.09387727 -0.34304202 0.09770455 -0.552126 0.067378595
0.37145254 0.058650322 -3.6980066 -0.72173804 -0.06592538 -0.07538681 -0.29285485 -0.062335987
-1.8828901 0.08095518 -0.022535302 0.4240031 -0.958614 -0.04198741 0.0154332295 -0.24211851
-0.043793365 -0.09250519 -0.33390325 0.10540911 -0.38349932 -0.37076336 -0.3901106 -1.3931305
0.10056855 -0.02589951 0.6164409 -0.15809855 0.17779131 0.058368072 -0.061760712 -0.2303137
-0.0008956226 -0.026548877 0.095317245 0.07536033 0.56738144 -1.1245844 -0.041575175 0.19133505
-0.12908398 0.070688315 0.20576803 -0.5637774 -0.45751128 -0.02123845 -1.4400853 0.36115602
-1.8670555 -0.1284663 -1.3936113 -0.01791654 0.052785903 0.18031421 -0.16062039 0.4680117
-2.5836215 0.05732179 0.086437374 0.037254773 -0.079882264 -0.72485 -0.099242896 0.25298208
-0.2770903 0.105837196 -0.6543224 -1.8482177 0.18841234 -1.4877477 -0.16072735 0.013566479
0.26924804 -0.18868011 -0.08015329 0.10083192 -0.83144957 -0.12224751 -0.007968503 -0.033310246
0.06429541 0.75641966 0.22779746 -0.11009266 -0.662808 -0.25143164 0.18589894 0.27969244
0.063834816 -1.4116287 -0.11499736 0.09674883 0.47516602 -2.025212 -0.07462062 0.30828202
0.113784164 -0.12684792 -0.073874794 -0.042739663 0.12230837 -1.2183083 0.27977726 0.060816377
-0.077263206 0.095204264 -0.08468389 0.09631918 -0.23634288 0.11340359 0.29405123 -0.037530705
0.1964539 0.45370337 0.081724755 -1.8107122 -0.09381172 0.061201684 0.004705181 -0.24441673
-0.107861824 -0.043821227 0.065144 -0.2767602 -0.6611449 0.2635877 0.01771516 0.07013819
0.31954858 -1.6249802 -0.036581073 -0.1506087 -0.22954617 -2.5261128 0.030195259 0.07710132
-1.7789578 0.01055809 -1.1511346 -0.10593969 0.16812049 0.12013459 0.00520269 -0.15692985
-0.64677924 -1.9104047 0.06042143 -1.7331494 0.13308993 -0.011966923 0.026101135 -0.18701127
0.08427794 0.62144077 -0.1169714 -0.8346645 0.090459764 -0.21583547 -0.12178738 0.003405239
0.36755913 -0.06951028 0.17283905 0.06299885 -1.4754432 0.11263735 -1.695047 0.11647003
-1.4364965 0.3099842 -0.08120321 0.026062816 0.04610282 -0.009094057 -4.077071 -0.71506596
-0.21715914 0.10871369 0.09593171 0.07979187 -0.50127774 0.39223853 0.0067103207 0.05584541
-0.4973489 0.19124377 -0.42218092 0.07630196 -0.14837025 -1.5408279 -0.09075299 0.08074825
0.091242164 0.24697632 0.010583091 -1.3989844 -0.20370848 -0.12935567 0.011606334 -0.32196662
-0.10681954 -0.03847994 -0.026986152 -0.023481533 -0.24632317 -0.4218777 0.25382692 -0.17285994
0.12493711 -0.06422238 -0.22443667 0.02866159 0.2277837 -0.043680947 -1.9637797 0.008308422
00000000: b998 2dbf 6f45 2f3f af12 313e 2aed 1dbf
00000010: 7617 9ebe 894d 143c 5b86 22bf d5ed be3d
00000020: 7cad ac3d 905d 26bc 046f b6be e044 5b3c
00000030: 2db8 a8bc 918c c6bc d45a d1bc 2361 8abd
00000040: 80e4 31c0 50e8 ffbb e751 0abe 2698 663f
00000050: c464 09be ee16 2e3d 2f72 1f3f 4070 b7bc
00000060: 5ece f03d ade2 e73d 9eee 1f3e 76e7 053f
00000070: 40a9 86bb 266f 49bf 7742 3b3e 7517 dcbc
00000080: c744 0e3b 2e55 f738 44b0 f3be ba42 c0bd
00000090: 34a3 afbe 5319 c83d 2158 0dbf cafd 893d
000000a0: 072f be3e 523b 703d 24ac 6cc0 d3c3 38bf
000000b0: e303 87bd 6664 9abd 12f1 95be 0554 7fbd
000000c0: 8b02 f1bf d4cb a53d f49b b8bc ef16 d93e
000000d0: ba67 75bf fefa 2bbd a8db 7c3c eaed 77be
000000e0: ac60 33bd 5c73 bdbd 5ef5 aabe bbe0 d73d
000000f0: 065a c4be b2d4 bdbe 94bc c7be 1a52 b2bf
00000100: e2f6 cd3d 362b d4bc 12cf 1d3f 96e4 21be
00000110: ed0e 363e 5c13 6f3d cdf8 7cbd 5bd7 6bbe
00000120: 37c8 6aba 087d d9bc b035 c33d 8456 9a3d
00000130: e93f 113f 62f2 8fbf bb4a 2abd 56ed 433e
00000140: 972e 04be 09c5 903d dbb4 523e b753 10bf
00000150: eb3e eabe 42fc adbc b754 b8bf 71e9 b83e
00000160: adfb eebf ab8c 03be db61 b2bf b5c5 92bc
00000170: 0836 583d 4aa4 383e ac79 24be 3b9f ef3e
00000180: 0e5a 25c0 41ca 6a3d 1406 b13d 7698 183d
00000190: 5099 a3bd c58f 39bf dc3f cbbd de86 813e
000001a0: c8de 8dbe 2cc1 d83d ac81 27bf 6692 ecbf
000001b0: 2aef 403e 846e bebf b695 24be f045 5e3c
000001c0: e1da 893e 5c35 41be 6827 a4bd f780 ce3d
000001d0: e1d9 54bf e75c fabd 538e 02bc 5370 08bd
000001e0: 50ad 833d b8a4 413f bd43 693e 4378 e1bd
000001f0: c9ad 29bf a6bb 80be 4b5c 3e3e d933 8f3e
00000200: d4bb 823d 40b0 b4bf bc83 ebbd 4024 c63d
00000210: f648 f33e 139d 01c0 b2d2 98bd 24d7 9d3e
00000220: ac07 e93d 6ce4 01be ab4b 97bd c90f 2fbd
00000230: d07c fa3d 87f1 9bbf f73e 8f3e 981a 793d
00000240: 2c3c 9ebd 74fa c23d bf6e adbd fe42 c53d
00000250: de03 72be 2440 e83d e28d 963e ccb9 19bd
00000260: 362b 493e cf4b e83e 4f5f a73d 6bc5 e7bf
00000270: 5c20 c0bd 9eae 7a3d eb2d 9a3b 6148 7abe
00000280: a9e6 dcbd e37d 33bd 386a 853d 83b3 8dbe
00000290: cb40 29bf f8f4 863e 621f 913c 9da4 8f3d
000002a0: df9b a33e 5aff cfbf 09d6 15bd 2b39 1abe
000002b0: 270e 6bbe d5ab 21c0 0c5c f73c 4ce7 9d3d
000002c0: e4b4 e3bf d7fb 2c3c 6158 93bf e8f6 d8bd
000002d0: c727 2c3e 2009 f63d 547b aa3b 38b2 20be
000002e0: 5393 25bf 2488 f4bf 767c 773d d7d7 ddbf
000002f0: ba48 083e ea10 44bc 0cd2 d53c e27f 3fbe
00000300: ea99 ac3d be16 1f3f b48e efbd 93ac 55bf
00000310: f842 b93d f903 5dbe a96b f9bd 6e2a 5f3b
00000320: b630 bc3e 685b 8ebd b8fc 303e 8b05 813d
00000330: 53db bcbf 69ae e63d 4df7 d8bf d787 ee3d
00000340: 1edf b7bf 40b6 9e3e de4d a6bd b081 d53c
00000350: 50d6 3c3d 3dff 14bc 5e77 82c0 900e 37bf
00000360: f75e 5ebe 48a5 de3d d877 c43d ec69 a33d
00000370: bd53 00bf 7dd3 c83e 40e2 db3b 28be 643d
00000380: 84a4 febe 68d5 433e 1928 d8be 3444 9c3d
00000390: 5fee 17be d939 c5bf b4dc b9bd 575f a53d
000003a0: 2cdd ba3d 5ce7 7c3e b364 2d3c ec11 b3bf
000003b0: f598 50be d075 04be 7e28 3e3c cfd8 a4be
000003c0: 34c4 dabd 249d 1dbd 1012 ddbc 585c c0bc
000003d0: 243c 7cbe 5b00 d8be 9af5 813e 3202 31be
000003e0: 07df ff3d 0687 83bd bad2 65be b6cb ea3c
000003f0: 2140 693e cbea 32bd 225d fbbf 0c20 083c

sequential_1/dense_1/MatMul f4 [256, 126]
0.33009222 2.323566 -1.9274614 0.23871051 1.4627563 1.3268092 0.14098307 0.12932448
-0.64449054 0.24706794 -0.29950243 -2.4851496 0.605482 -0.83624583 -2.9197621 -0.43661523
-1.363418 5.4368362 -0.2594417 -2.1410482 1.7792596 -0.16380697 -0.51192355 -0.29584885
0.10474001 1.7161336 -0.62576586 -0.30668962 -0.90785253 3.8763907 0.095190674 -1.32293
2.6163232 -0.24422427 -0.41632596 1.375225 -0.7246683 -0.077436365 -0.19831496 0.17495166
-0.10596819 0.9421332 0.19615805 -0.6249008 1.8375679 -0.1403942 -0.7565504 0.72645146
-0.2892333 -1.1149794 -1.3187135 0.21336333 0.88246053 -1.3897675 0.08302877 0.22006845
-0.1635989 -0.06812652 -0.07971017 -0.8717188 -0.2573307 -0.4764906 -2.1704106 0.51625246
-1.3551606 1.1230923 -0.04819316 -1.1157721 3.3732345 -0.24826996 -0.5874885 1.2767947
-0.047495436 0.16830269 0.3511898 0.33974966 0.7433085 -0.21614273 -0.18813564 0.35440254
-1.951931 -0.03610418 0.53688365 -0.7953393 0.14120041 0.56190306 -0.225779 0.08956605
0.91496164 0.04835713 -0.07971409 0.507392 -1.6870283 -0.24885193 0.56943846 -0.20771348
-0.003664689 0.24204642 -0.40238228 0.18785678 0.108510695 -0.94265497 0.10377925 0.4441349
-0.6666127 -0.15703668 0.49491918 0.5073782 -0.033526298 0.34750473 0.9994728 0.047897834
0.47483605 1.220574 0.08796433 0.4557619 -0.16421637 0.08517007 0.14368166 0.49081776
-0.022329068 0.13297448 0.70622885 -0.17392097 0.08800705 0.8570052 -0.23220932 0.6282473
-0.21147113 -0.36072242 0.1915179 0.9572885 -0.4601696 -0.46506405 0.21881613 -0.44368356
-0.6314736 0.31532046 -0.08931504 -0.6335465 0.14641955 -0.47375858 -0.2927527 -1.7696916
-0.5152439 0.20113845 0.092291854 -0.1781424 -0.5621 0.39607066 0.17689109 -1.0715584
0.37110403 -0.304783 -0.17343989 -1.3524424 -0.21433997 0.065222636 1.3754824 0.133554
-0.08727162 1.5762662 0.33691278 -0.14707446 1.0945427 0.16956808 -0.38550183 -0.40160018
0.12297192 -0.65133345 1.7819483 0.3548786 -0.9528526 1.3193005 0.60064113 -1.4230028
0.013238525 0.20725048 -0.36717024 0.6473435 0.562601 -0.31319728 1.6232629 0.41874063
-0.047076717 1.2001084 0.67955357 -0.09344445 0.7972666 -0.17705905 -0.16500248 0.07386583
-0.11261686 -0.22756843 -0.17922401 -0.29694664 -0.15152664 -0.12522203 -0.13137445 -0.27302003
-0.18013948 -0.20212422 -0.23368804 -0.083135664 -0.27061525 -0.19720481 -0.16031343 -0.26405245
-0.10576461 -0.12580845 -0.098352686 -0.24107721 -0.20417121 -0.16182053 -0.18239388 0.00022466003
-0.1482945 -0.14572339 -0.10975248 -0.15688065 -0.21537822 -0.2035842 -0.27008307 -0.11600268
-0.038905162 -0.10850671 -0.077389896 -0.23812744 -0.3256627 -0.17160197 -0.14201446 -0.23260435
-0.28789622 -0.2072841 -0.086357765 -0.0772207 -0.14632486 -0.24737045 -0.25565395 -0.10510353
-0.07943967 -0.08561403 -0.011692209 -0.30754647 -0.10700209 -0.18684824 -0.21570556 -0.23862594
-0.015127918 -0.15840279 -0.25672293 -0.055597417 -1.4869272 0.28994223 0.2156611 -0.9002529
00000000: d901 a93e 4eb5 1440 0eb7 f6bf 8770 743e
00000010: 993b bb3f e2d4 a93f de5d 103e a36d 043e
00000020: 55fd 24bf 61ff 7c3e 6258 99be b10c 1fc0
00000030: de00 1b3f 3514 56bf 62dd 3ac0 088c dfbe
00000040: 7b84 aebf 90fa ad40 8bd5 84be ef06 09c0
00000050: c7be e33f 04bd 27be 6c0d 03bf 8079 97be
00000060: ee81 d63d 44aa db3f 3132 20bf 6c06 9dbe
00000070: 0669 68bf c916 7840 54f3 c23d c555 a9bf
00000080: d771 2740 ed15 7abe ad28 d5be 5f07 b03f
00000090: dd83 39bf f596 9ebd 1413 4bbe 8726 333e
000000a0: da05 d9bd a42f 713f a8dd 483e 80f9 1fbf
000000b0: 6d35 eb3f 7fc3 0fbe 49ad 41bf b9f8 393f
000000c0: 6316 94be a5b7 8ebf 9bcb a8bf eb7b 5a3e
000000d0: efe8 613f e7e3 b1bf fd0a aa3d a059 613e
000000e0: 7886 27be eb85 8bbd 163f a3bd f728 5fbf
000000f0: d9c0 83be 93f6 f3be 02e8 0ac0 1f29 043f
00000100: e775 adbf 7dc1 8f3f 3166 45bd 9fd1 8ebf
00000110: 13e3 5740 7b3a 7ebe a565 16bf 026e a33f
00000120: 938a 42bd 8a57 2c3e 26cf b33e abf3 ad3e
00000130: 7749 3e3f 8554 5dbe a1a6 40be 4074 b53e
00000140: e0d8 f9bf fae1 13bd 3571 093f 5b9b 4bbf
00000150: d796 103e e1d8 0f3f 9c32 67be 686e b73d
00000160: ed3a 6a3f 2012 463d 2441 a3bd 71e4 013f
00000170: 8bf0 d7bf 0ad3 7ebe b8c6 113f d8b2 54be
00000180: 472b 70bb 04db 773e 0d05 cebe 875d 403e
00000190: db3a de3d d651 71bf 378a d43d a665 e33e
000001a0: 21a7 2abf 39ce 20be 0c66 fd3e 8ae3 013f
000001b0: df52 09bd 24ec b13e 73dd 7f3f 8530 443d
000001c0: b61d f33e c53b 9c3f a526 b43d a059 e93e
000001d0: 5628 28be a56d ae3d 4921 133e 774c fb3e
000001e0: 73eb b6bc 762a 083e 6acb 343f 5718 32be
000001f0: 0a3d b43d b164 5b3f 48c8 6dbe d1d4 203f
00000200: e38b 58be 9cb0 b8be 451d 443e dc10 753f
00000210: 5a9b ebbe e01c eebe 5611 603e 7e2a e3be
00000220: 41a8 21bf af71 a13e ceea b6bd 1a30 22bf
00000230: 02ef 153e 7c90 f2be afe3 95be 4185 e2bf
00000240: 06e7 03bf 3df7 4d3e 8303 bd3d f66a 36be
00000250: c9e5 0fbf c6c9 ca3e f022 353e d328 89bf
00000260: 5901 be3e 840c 9cbe 3a9a 31be d51c adbf
00000270: f07b 5bbe 7293 853d cf0f b03f 61c2 083e
00000280: 77bb b2bd 17c3 c93f d57f ac3e b09a 16be
00000290: fa19 8c3f 41a3 2d3e 7f60 c5be 8a9e cdbe
000002a0: b4d8 fb3d cabd 26bf e216 e43f a6b2 b53e
000002b0: 26ee 73bf d7de a83f 9ec3 193f f524 b6bf
000002c0: 66e6 583c 7839 543e bdfd bbbe 4eb8 253f
000002d0: 9e06 103f 655b a0be 14c7 cf3f 2c65 d63e
000002e0: 84d3 40bd 279d 993f 39f7 2d3f ce5f bfbd
000002f0: aa19 4c3f f84e 35be 69f6 28be f846 973d
00000300: aba3 e6bd b307 69be 8086 37be 6409 98be
00000310: cd29 1bbe 343a 00be 0687 06be 48c9 8bbe
00000320: 7c76 38be a7f9 4ebe eb4b 6fbe 0843 aabd
00000330: 158e 8abe 0ff0 49be 3429 24be e231 87be
00000340: 1e9b d8bd eed3 00be 226d c9bd f2dc 76be
00000350: 4212 51be 48b4 25be 76c5 3abe b892 6b39
00000360: 83da 17be 8338 15be e9c5 e0bd 52a5 20be
00000370: 1c8c 5cbe 6078 50be 5448 8abe d092 edbd
00000380: 055b 1fbd c438 debd 987e 9ebd aed7 73be
00000390: 43bd a6be 6db8 2fbe 3d6c 11be d62f 6ebe
000003a0: 2267 93be 4842 54be 57dc b0bd e325 9ebd
000003b0: 2fd6 15be ae4e 7dbe 13e5 82be 8540 d7bd
000003c0: 44b1 a2bd 6956 afbd ae90 3fbc bb76 9dbe
000003d0: e923 dbbd 2555 3fbe ebe1 5cbe 5c5a 74be
000003e0: 16db 77bc 5734 22be 3071 83be 1eba 63bd
000003f0: a153 bebf 4f73 943e 43d6 5c3e f976 66bf

sequential_1/dense_1/Relu;sequential_1/dense_1/BiasAdd f4 [256]
-0.029454611 1.2882956 0.77249044 -2.1222177 -0.27583688 0.10672286 -0.46940178 -0.5693704
-0.0059652156 -0.017377397 -2.1125307 -0.018646253 0.2343086 0.34946027 -0.6160272 -0.41078916
0.44604477 -0.9890776 -0.0242016 0.29990163 -0.028950265 -0.015772842 0.6344636 -0.03478177
-0.012344045 -0.001311277 0.8498997 -1.0499144 -0.013669047 -0.0963569 -0.76734275 -0.031059802
-0.013502866 -0.013892885 -1.6982961 -0.09773366 -0.7075985 -0.20890474 0.4198476 -0.014796604
0.38440087 -0.27029037 -0.14862025 -0.07650946 -0.07076835 -0.8212649 -0.2291274 -0.06214783
0.2903347 -0.010835572 -2.0455139 -0.3146621 0.23833169 -0.019962726 -0.012463045 -0.45063224
-0.34202984 0.0 -0.8265632 -0.7255182 0.24971236 0.4260446 -0.41007346 0.20839816
-0.15573616 -0.018601043 0.22711006 -0.75707096 -0.34135467 -0.14332709 -0.01596064 0.36557502
-0.0796421 -0.012418339 -0.02266897 -1.7864584 -0.5583486 0.70035744 -1.1776886 -0.50647324
-0.037669618 0.6657452 -0.3271397 -1.5951715 0.3377698 0.41567487 0.6311815 1.2427057
0.38008788 -0.012491782 -0.42747617 -0.0113894455 -0.014338574 -0.46651274 -0.025744662 0.87171614
0.19424467 -0.4473551 -0.0065722773 -0.026713546 -0.010643001 -0.71324 -0.015752051 0.1284541
-0.5494714 0.0 -0.037800312 -0.18672119 0.22479644 -0.04504171 0.2206043 -0.03724876
-0.87093645 -0.6736147 -1.1857331 -0.09912021 0.14283927 -0.0057128724 0.2683209 0.25438493
-0.47135773 0.06989203 0.29629925 -0.12299142 -1.4953221 -1.1005969 -1.358067 -0.67937374
-0.00999326 0.11653884 -0.007291645 -1.5589838 0.97923803 0.03789723 -0.006105924 -0.02566047
-0.034897946 0.10541844 0.25636488 -0.027329555 -0.09438738 -0.86898494 0.36839825 -0.011649872
0.0 -0.022621134 -0.6586983 0.08436885 0.6118497 -0.014583389 -2.1635044 0.31051186
0.49282297 1.1649044 -0.08883317 -1.9351312 -0.43253884 -1.5537038 -0.023635138 -1.0440704
-0.7944833 0.32053447 -0.023945963 0.6594867 0.21862805 -0.31351134 -0.5423969 -0.07754621
-1.2060053 0.07272122 -0.0024096384 -0.5130823 -0.16440623 0.46982083 -0.021628687 1.3464496
-0.8178542 -0.024269182 0.36620107 0.0 -0.34663954 -0.008743642 -0.021321699 -0.14691187
-0.035136033 -0.21721043 -0.008272452 0.5755904 -0.010962887 -0.28146222 -0.005064688 -0.33655548
-0.015178995 0.50700605 0.20454527 -0.14745909 -0.019208075 -0.57374674 -0.0051548053 -0.46902242
-0.30884206 0.265035 -0.031016737 -0.71032816 -0.88468987 -1.4723281 0.38397604 0.36540827
-1.3969669 1.1820643 -0.766416 -0.0059934584 -0.02079451 0.007868081 -0.21076459 0.282384
0.039750244 -0.008131104 -0.011088661 0.054906253 -1.5308918 0.037093416 0.0 -0.012999856
-0.5227927 0.46907845 -0.45986748 -0.012572057 -1.141997 -0.6671286 -0.013666489 -0.00043003555
0.0 1.4360573 0.4939721 -0.2829237 -0.67139995 -1.780138 -1.1453643 -0.23607606
-0.0075929794 0.37538 -0.015762778 -0.31062952 -0.82415634 -1.4535959 -1.4153543 0.24208792
-0.015038048 -0.00750807 0.18362816 1.0908446 -0.8526971 -0.017295897 -1.310742 -0.2319753
00000000: cc4a f1bc dfe6 a43f efc1 453f 6ad2 07c0
00000010: 7e3a 8dbe 8491 da3d 6e55 f0be 42c2 11bf
00000020: db77 c3bb 0b5b 8ebc b433 07c0 07c0 98bc
00000030: 98ee 6f3e 75ec b23e f5b3 1dbf f552 d2be
00000040: fb5f e43e 3134 7dbf 6f42 c6bc b58c 993e
00000050: 1b29 edbc 0c36 81bc 356c 223f 5477 0ebd
00000060: ad3e 4abc 28df abba 0793 593f 9863 86bf
00000070: 23f4 5fbc c456 c5bd 9370 44bf 2071 febc
00000080: 203b 5dbc fc9e 63bc c461 d9bf 9628 c8bd
00000090: 2d25 35bf 20eb 55be 44f6 d63e 756d 72bc
000000a0: 31d0 c43e 8063 8abe e82f 18be feb0 9cbd
000000b0: ffee 90bd 6b3e 52bf 60a0 6abe b98e 7ebd
000000c0: c0a6 943e af87 31bc b3e9 02c0 641b a1be
000000d0: 390d 743e df88 a3bc cd31 4cbc 45b9 e6be
000000e0: 891e afbe 0000 0000 a599 53bf 90bb 39bf
000000f0: 99b4 7f3e 8522 da3e 26f5 d1be 5466 553e
00000100: 4d79 1fbe 3761 98bc 8a8f 683e 67cf 41bf
00000110: 0ac6 aebe 56c4 12be e3bf 82bc a62c bb3e
00000120: 661b a3bd 4a76 4bbc 47b4 b9bc abaa e4bf
00000130: efef 0ebf a04a 333f 80be 96bf 3ba8 01bf
00000140: 754b 1abd 476e 2a3f db7e a7be 942e ccbf
00000150: 2af0 ac3e 56d3 d43e 1c95 213f fb10 9f3f
00000160: e19a c23e 55aa 4cbc 28de dabe cc9a 3abc
00000170: 57ec 6abc c2da eebe 78e6 d2bc ca28 5f3f
00000180: 13e8 463e ba0b e5be 425c d7bb 5ed6 dabc
00000190: fb5f 2ebc e696 36bf 720a 81bc 7989 033e
000001a0: 28aa 0cbf 0000 0000 80d4 1abd d733 3fbe
000001b0: 0a31 663e a87d 38bd 18e6 613e 2892 18bd
000001c0: b1f5 5ebf 0372 2cbf 1ac6 97bf 89ff cabd
000001d0: 7544 123e 0c33 bbbb 5b61 893e be3e 823e
000001e0: cd55 f1be 8d23 8f3d 89b4 973e ede2 fbbd
000001f0: b766 bfbf 5ce0 8cbf 24d5 adbf 70eb 2dbf
00000200: c5ba 23bc eaab ee3d c0ee eebb c88c c7bf
00000210: 58af 7a3f 203a 1b3d 3414 c8bb e835 d2bc
00000220: 26f1 0ebd a0e5 d73d 4242 833e 3be2 dfbc
00000230: 2c4e c1bd cc75 5ebf b29e bc3e 1bdf 3ebc
00000240: 0000 0000 f54f b9bc 74a0 28bf 93c9 ac3d
00000250: 2fa2 1c3f 2bef 6ebc db76 0ac0 69fb 9e3e
00000260: 4b53 fc3e 961b 953f 2aee b5bd 61b2 f7bf
00000270: bb75 ddbe c4df c6bf 7a9e c1bc 19a4 85bf
00000280: 4263 4bbf 181d a43e 532a c4bc 1fd4 283f
00000290: 08e0 5f3e 8f84 a0be 86da 0abf 8cd0 9ebd
000002a0: 625e 9abf ddee 943d 06eb 1dbb 5d59 03bf
000002b0: 1b5a 28be 5b8c f03e a52e b1bc 7658 ac3f
000002c0: e55e 51bf 2ad0 c6bc b57e bb3e 0000 0000
000002d0: bd7a b1be 7e41 0fbc d8aa aebc 1170 16be
000002e0: cdea 0fbd 696c 5ebe 2e89 07bc e459 133f
000002f0: ae9d 33bc d11b 90be aff5 a5bb 0051 acbe
00000300: 52b1 78bc 26cb 013f 5174 513e 84ff 16be
00000310: 415a 9dbc 11e1 12bf a4e9 a8bb b523 f0be
00000320: 8c20 9ebe abb2 873e d016 febc 11d8 35bf
00000330: 097b 62bf 3f75 bcbf 8298 c43e cb16 bb3e
00000340: d0cf b2bf e24d 973f d733 44bf c664 c4bb
00000350: 4059 aabc 20e9 003c acd2 57be a394 903e
00000360: 27d1 223d 5238 05bc 37ad 35bc 61e5 603d
00000370: 43f4 c3bf 44ef 173d 0000 0000 59fd 54bc
00000380: bed5 05bf 0d2b f03e c073 ebbe 07fb 4dbc
00000390: f52c 92bf f1c8 2abf 69e9 5fbc 6576 e1b9
000003a0: 0000 0000 bad0 b73f e9e9 fc3e 60db 90be
000003b0: dee0 2bbf 90db e3bf 4c9b 92bf ecbd 71be
000003c0: 87ce f8bb cf31 c03e f120 81bc d50a 9fbe
000003d0: e9fb 52bf 6e0f babf 542a b5bf e5e5 773e
000003e0: 2562 76bc 4206 f6bb 0509 3c3e cca0 8b3f
000003f0: 5b4a 5abf 20b0 8dbc 65c6 a7bf ef8a 6dbe
