ai/models/sign_classifier_word.tflite (tflite, 233864 bytes, 7 tensors)

arith.constant3 f4 [40, 64]
00000000: d13d 80be f0be 31bf 78a1 083e 3f4f e03d
00000010: 050f 2a3b 853b fbbe d6c0 fe3d 61ce 133e
00000020: b85c a03d 93c7 57bf 884b 8cbf edef 7f3d
00000030: 4bff 243d e2a8 86be ccd1 57bd b0b4 a7be
00000040: fffc 51bf 1e41 163e 6bd1 eabd 09ee 6b3d
00000050: 50de a9be acd4 c03d 8981 79be e32e 80be
00000060: b845 c3bc 48c6 acbd 624b a2be 7b0a 3e3e
00000070: a666 f53d 130b 8e3d e56c ba3e 5e50 533e
00000080: 8c66 0f3e 139f c0be d753 9eba ba9d d0bc
00000090: ebdc 7dbf d691 c93d 3499 20bf 83ac 063e
000000a0: 3d38 993d 00fb 0ebf 792e 90bf 515d 293e
000000b0: 0a80 2c3e 96d2 4dbf 4226 c43d b916 adbd
000000c0: 90b5 74bd 8c20 17bd b432 3c3e 0229 cbbe
000000d0: 4512 6bbf 6430 a83a 852c 583e 0cc6 0abf
000000e0: ffd4 163e d7d1 31bf d50e b3bd e77c 26bf
000000f0: 83ac 4ebf 9caf 28bf 7be6 713e e8c3 4abe
00000100: 8eeb 7fbe 6dde 14be 7d70 d73d 490e 67bd
00000110: 3cdf 913d 9f67 99be 3403 f83d 98cd 133e
00000120: 354e 333e 2572 45bf aa3d 08bf b82d f33d
00000130: c70b 1f3e ce23 c03d 0447 89bd 144d 8a3d
00000140: ac3a d7be 393e 0a3e c8b1 cc3d 9f51 12be
00000150: 4c3e 8fbe 6b80 89bd ebfa d8bd 4ca1 95be
00000160: 6c66 af3d 02f7 033e 435e 34bf e49d 533d
00000170: f5a3 bd3d 304d 773d 5173 063e 4b92 063d
00000180: 2507 3f3e 815d 303e 9277 4bbd 72eb 97be
00000190: d8d1 56bf 80eb 083e f560 d2be c5ba c4bd
000001a0: 17a9 2bbd 961b c63d 0d4b f9be 49fb 063e
000001b0: ed42 1a3e 70ae f1be b51f 36bf dd54 ccbe
000001c0: 4c01 cbbe b81b 8cbe fd69 193e 99f5 383d
000001d0: 6877 37bf 20a0 71be 41d6 883e c591 383e
000001e0: 7bbf b73c 55f0 ecbe d715 e7be b06f 80bf
000001f0: d422 72bf e284 58bf be8a 5d3e 072b 07bf
00000200: ccc4 55bb 3379 ddbc 1220 93be e2d8 4e3c
00000210: 3af2 943d e312 f7be 40b7 26bf 7e3f f53d
00000220: 2f94 413e ac36 133d 93ce 0f3e d537 e6be
00000230: fb2f e9be 5def 37be 4c44 57bf 87bc 343e
00000240: 7db4 65be d34c f03c 0a78 5ebe 3e34 47bf
00000250: 0d67 96be 4860 e93d f3cb 5ebe c0e3 99be
00000260: bfe8 81be 5646 babe ccec 20bf 6eb0 823d
00000270: d134 b13d 833a 003e e5a6 5e3d 4265 2c3e
00000280: 2b1c 1d3e 0503 06bf 1264 c5bc 7f61 43be
00000290: ddeb 0a3e 15b1 87bd 49e0 3b3e 11f9 02bf
000002a0: 2a17 073e 7e51 07bf bdfa 76bf 4620 8ebe
000002b0: a547 b1be b43a de3d ca6b 613e b7e0 12be
000002c0: 8dda c0be a3fa 6dbf 906b 35bf a283 8e3d
000002d0: ddb7 b93d 52cc a3be 2970 b2be 7087 243e
000002e0: 7348 523e 6ec1 333e 1654 33bf f69c 90bf
000002f0: d472 21bf 0fa1 46bf e573 78be 72f6 293e
00000300: 7559 2c3e ef49 b6be de23 edbc 88fb 94be
00000310: e9af 063d 5835 00bf 5053 213e 019e 103e
00000320: 1435 243e 3879 5ebe cff7 26bf 3e84 dbbd
00000330: 623f 8bbd 0211 fe3d 7066 08be 0143 00be
00000340: b7d2 6dbe 62a0 023d dafb 813e 3335 87be
00000350: 4bc3 c8bd 625b 283e 546e 25be 4f84 1f3e
00000360: 7db4 a13d 9f8d e2be 98c7 0abf 3e77 bcbc
00000370: 7b17 c53d fad5 9e3c 0041 a9be 7211 acbe
00000380: aa81 1a3e 66f7 11bf 4673 4dbe b97a ec3d
00000390: 1766 1ebf 72a9 e43d 9df6 e0be b679 9dbe
000003a0: d650 b2bd 9d7c 023e c4e9 94bf 2969 6c3e
000003b0: 3de5 50be f1e0 943d 92aa af3d cfe9 113a
000003c0: 5fd0 ccbe cb61 53bf 27c0 4e3d 5ab5 953d
000003d0: 0493 2fbf 35c2 c5bc c670 a03a 8d43 5fbe
000003e0: 0d95 4a3e 6866 70bf 919b d6be f604 81bf
000003f0: d4b1 84bf c6aa 8bbf 95fa 5cbd 765e 02bf
-0.25047162 -0.6943197 0.13342845 0.10952615 0.0025948894 -0.49068847 0.12439124 0.14434196
0.07830185 -0.842889 -1.096055 0.06248467 0.04028253 -0.26300722 -0.052690312 -0.3275504
-0.82026666 0.14673278 -0.114657246 0.057600055 -0.33177423 0.09415564 -0.2436582 -0.25035772
-0.023836955 -0.08436257 -0.31698138 0.18558685 0.11982469 0.06935706 0.36411205 0.20636126
0.14003962 -0.37621364 -0.001207943 -0.025465835 -0.9916522 0.09842269 -0.6273377 0.13151745
0.0748143 -0.55851746 -1.1264182 0.16539504 0.16845718 -0.80399454 0.095776096 -0.084516
-0.059743464 -0.036896273 0.18378717 -0.39679724 -0.9182475 0.0012831804 0.21110733 -0.54208446
0.14729689 -0.69460815 -0.08743063 -0.65034336 -0.8073198 -0.6589296 0.23623078 -0.19801295
-0.249922 -0.14537974 0.10519502 -0.056410108 0.07122657 -0.2996187 0.12109986 0.14433897
0.17510302 -0.77127296 -0.5321909 0.118739545 0.15531836 0.09381829 -0.06702998 0.06752983
-0.4203695 0.13500299 0.099948466 -0.14288948 -0.27977216 -0.06713947 -0.10594734 -0.29224622
0.08564457 0.12887195 -0.7045633 0.051664248 0.09259788 0.060376346 0.13129927 0.03285436
0.18655069 0.17223169 -0.049674578 -0.29671818 -0.83913946 0.13371086 -0.41089597 -0.09605936
-0.041909304 0.0967323 -0.48690072 0.13181795 0.15064593 -0.47203398 -0.7114213 -0.39908496
-0.39649427 -0.27364898 0.14981838 0.045156095 -0.71666574 -0.23596239 0.26725963 0.18024357
0.022430172 -0.4627711 -0.4513385 -1.0034084 -0.94584394 -0.84577763 0.21634957 -0.5280003
-0.003261852 -0.027035331 -0.28735405 0.012624951 0.072727636 -0.48256597 -0.6512337 0.11975001
0.18904184 0.03594081 0.14043646 -0.4496447 -0.4554442 -0.17962404 -0.8408859 0.17650042
-0.22432132 0.029333508 -0.21725479 -0.7781409 -0.29375497 0.11395317 -0.21757488 -0.30056572
-0.25372884 -0.36381787 -0.62861323 0.063813075 0.08652652 0.1252232 0.05435838 0.16835502
0.15342776 -0.5234836 -0.024095569 -0.1908016 0.13566537 -0.066255726 0.18347277 -0.51161295
0.1319243 -0.5285872 -0.96476346 -0.27758998 -0.34624973 0.108510405 0.22013775 -0.14343534
-0.3766674 -0.92960566 -0.7086725 0.06958701 0.09068272 -0.31991822 -0.34851196 0.1606729
0.2053545 0.17554256 -0.7005018 -1.1297901 -0.6306584 -0.77589506 -0.2426296 0.16597918
0.16831 -0.35603282 -0.028947767 -0.29098153 0.032882605 -0.50081396 0.15754437 0.14122774
0.16035873 -0.21725929 -0.65221876 -0.107185826 -0.06799199 0.12405588 -0.13320327 -0.1252556
-0.23224913 0.031891234 0.2538746 -0.26407775 -0.09802874 0.1644111 -0.16155368 0.15577815
0.078957535 -0.44248673 -0.54210806 -0.023006078 0.09623619 0.019389141 -0.33057404 -0.3360706
0.15088525 -0.57018125 -0.20063505 0.11546845 -0.61874527 0.11165132 -0.4393815 -0.3075692
-0.087068245 0.12742849 -1.163384 0.2308699 -0.20399947 0.07269467 0.085774556 0.0005566151
-0.40002725 -0.82571095 0.05047622 0.07309981 -0.68583703 -0.024140457 0.001224064 -0.21803112
0.19783421 -0.9390626 -0.41915563 -1.0079639 -1.0366769 -1.0911491 -0.05394991 -0.50925386

arith.constant4 f4 [64, 64]
00000000: 1d7c b7bc 7a8d 9dbc 3bee 05be fccf 8abe
00000010: 4993 35bd 9fe3 63bf 4aa1 f8bd d775 893c
00000020: e80a e83e 9508 45be 5a56 00bd a154 26be
00000030: a36c c33e 14c5 dcbe b8f6 1bbb 61f1 22be
00000040: 51b7 10be 2f93 5d3b e0bc 033f da59 9f3d
00000050: 6808 91bc c579 dfbd d66b 0b3e d405 2dbe
00000060: d0c3 f13d 0435 a53e 9193 603d 4ed3 303e
00000070: 9624 293e 1727 373e 9204 db3d 8fcc e23d
00000080: bafc e5bc 44a0 bd3e 91f0 43be b306 19be
00000090: 449d cebd 5419 803d 7a98 9cbe a283 05bc
000000a0: 3479 8bbc c170 e03e 48dc 723e 7295 d1be
000000b0: 7e80 8dbd 9853 ad3d 731b 743b 074d 713e
000000c0: 771b 133f 03cb f6bd 1188 bc3c f908 073e
000000d0: 7c70 943c e211 7c3e dd20 1f3f c0a5 e83d
000000e0: 94f1 e4bc 386e d7be 433c 263e a598 bebe
000000f0: 1566 963d 17f3 cb3d c568 e7be 4ce3 473a
00000100: c22b 193e 739b 2cbe f1d8 e7be e967 0ebe
00000110: 4a33 713d ffbe a63c 6baa 5f3e 73c2 1fbd
00000120: 7607 6b3e 2f8e 9fbe 0c95 d03d 8cb1 81bc
00000130: 859a 063d 3a7e 64bd 5f40 14bd 9788 683e
00000140: bda2 58be 6bd9 0abe 9d36 70be 46e1 163f
00000150: c3e8 17bf 5254 113e 5026 2e3e 04dc 403e
00000160: f73c dbbd e974 c6bd ecc0 5ebe 7ff1 1cbd
00000170: fc7e 41be 7b15 52be fa5f 6c3e 9cf6 183d
00000180: 751b a3bf b336 0bbd 978b 9d3e 2eab 933c
00000190: 63a9 acbc e43e 1e3d 4add 2bbd 1a54 d3bc
000001a0: 11d3 193b d655 763d 7ed9 0bbf f44a 373e
000001b0: eaa3 89bd db2b 82bf c243 5dbf 6ea7 45bd
000001c0: 26f3 543d 9d04 85be 4bae 58be 2a52 75bf
000001d0: e8dc 2fbd 513e 19bf 8818 dbbd a9af bbbe
000001e0: 2474 78bd 2f90 673e 1806 133d 4015 c73e
000001f0: e837 9dbe 5d31 5f3e 5a03 7a3e 0479 60be
00000200: c949 cbbc cdb7 09bd 9c70 683d aa34 ff3d
00000210: ef1a 89be 98ae 1bbd 378d b2bd 18ad ddbc
00000220: d940 8bbe 7feb 153f 0330 c3bb d3f6 393e
00000230: c2b2 773e 9c5b 5f3e 7403 463d c1c8 e6bc
00000240: 4cb4 1abd 4fca 833e 5018 943e 670a 5f3e
00000250: f61a 81be 3c1a 2a3d e700 19bf a828 30bd
00000260: 7bfe 19bf e9c6 7bbe 6a55 03bd 659d 5e3e
00000270: 30de 533d 1640 87be 271a 01bf 3d7b ddbd
00000280: 8096 21bc 5842 fcbe 99f7 913c b8a5 be3d
00000290: 8709 3bbd 5011 11bd abf9 a63d 5894 213f
000002a0: 4d50 2fbd 1525 27be 9c91 49be 1644 14bd
000002b0: 2c85 99bc e6e5 81bd 8c71 283d f186 a8bc
000002c0: 4d5e 8abe f6b1 99bd cd1b 6f3d 45ff 4e3d
000002d0: 653a 133f 510d c43e aeb1 753e bd05 c8bd
000002e0: d16a 353d f836 d5bc 63e7 803e 94ed e13e
000002f0: 6f21 1a3e 4e2c 19bf 131e ae3d cef0 2e3d
00000300: 361f cdbd 7f95 d9bd 23e0 9b3d 68e0 bbbd
00000310: 4ff9 9fbd 23e5 26bd 9660 d3bc a4c9 0abf
00000320: 36c3 9e3e e363 68bc 9ab2 ec3c e3e6 c0bd
00000330: 7130 d73d 5a3b 353f ee54 533f bb4a 363d
00000340: c7ee 9f3c de22 613c f3e7 94bc d7d5 203e
00000350: 1f7d 763d b2b9 98bd 0f70 efbd d021 883e
00000360: 5222 f739 fae8 69be 0a97 1c3e 44e0 b03e
00000370: 6646 67be 0bf4 373e 63da 303e cfed adbd
00000380: 1fab a23e 6b5c aebe d91e f13e 034f c2be
00000390: f4e3 e13d c8f5 c3bd 52a4 98be 6418 363e
000003a0: 67ac 123e fc5a 103c 9a09 95be 2ad6 693d
000003b0: 5651 91bd 8b20 cdbe aa49 5b3e 62e5 bebd
000003c0: 3c24 563e 017f 9ebc 9973 10bd a3a5 03bd
000003d0: 04a4 8ebd 655c bc3c 50bf a9be 463f 953d
000003e0: 3703 283d 2212 0f3f 180b 993e e42f fc3d
000003f0: 167a 223e d458 8e3d b946 a5bc 7934 193d
-0.022398049 -0.0192325 -0.13079159 -0.27111804 -0.044329915 -0.890192 -0.121401384 0.016779823
0.4532082 -0.19241555 -0.03133235 -0.16243221 0.3816882 -0.4311911 -0.002379818 -0.15912391
-0.1413243 0.0033809652 0.51460075 0.0778081 -0.017704204 -0.109118976 0.13615355 -0.16896755
0.118049264 0.3226701 0.05482823 0.17268106 0.16517863 0.17886005 0.10694231 0.11074173
-0.028074611 0.37036335 -0.19134738 -0.14943962 -0.1008859 0.06254831 -0.3058508 -0.0081490595
-0.017025568 0.43836024 0.23716843 -0.4093433 -0.069092736 0.0846321 0.0037247806 0.2356454
0.57463783 -0.1205044 0.0230141 0.13187017 0.018120043 0.24616197 0.6215952 0.11359739
-0.027947225 -0.42076278 0.16233926 -0.37225834 0.07343689 0.09958475 -0.4519712 0.00076251174
0.14958099 -0.16856174 -0.452827 -0.13906826 0.058886804 0.020354746 0.21842353 -0.0390038
0.22952065 -0.31163165 0.101846784 -0.015831731 0.032862205 -0.05578444 -0.0361942 0.22708355
-0.2115583 -0.13559501 -0.23458333 0.5893749 -0.5933954 0.14192322 0.17006803 0.1883393
-0.107049875 -0.096902676 -0.21753281 -0.038316246 -0.18896097 -0.20516007 0.23083487 0.03734456
-1.2742754 -0.033987712 0.3077056 0.01802596 -0.021076864 0.038634196 -0.041959085 -0.025796939
0.0023471753 0.060140453 -0.5462874 0.17899686 -0.06720717 -1.0169634 -0.86431515 -0.048255377
0.051989697 -0.25980082 -0.21160237 -0.958285 -0.042935282 -0.5986071 -0.10698038 -0.36657456
-0.060657635 0.22613595 0.035894483 0.388834 -0.30706716 0.21796174 0.24415341 -0.21921164
-0.024815457 -0.03362255 0.056748018 0.12461217 -0.2677836 -0.038008302 -0.08718341 -0.027060077
-0.27197912 0.58562464 -0.005956651 0.18160562 0.24189284 0.2181229 0.048343137 -0.028171899
-0.0377696 0.25740287 0.289248 0.21781312 -0.25215882 0.041528925 -0.59767 -0.043007523
-0.6015393 -0.24587597 -0.03206388 0.21739729 0.051725566 -0.2641608 -0.5043053 -0.108145215
-0.009862542 -0.49269366 0.01781826 0.09308952 -0.045663383 -0.0354169 0.08153089 0.6311698
-0.04280119 -0.1632274 -0.19684452 -0.036197744 -0.01874026 -0.06342678 0.04112391 -0.020572158
-0.2702507 -0.075046465 0.058376122 0.050536413 0.5751098 0.3829141 0.2399356 -0.097667195
0.04429132 -0.026027188 0.25176534 0.4412657 0.15051816 -0.5983323 0.0850183 0.042710118
-0.10015719 -0.10624217 0.0761111 -0.091736615 -0.07811224 -0.040745866 -0.025802892 -0.5421393
0.3100831 -0.014183971 0.028893758 -0.09419038 0.10507286 0.7079369 0.8255147 0.044504862
0.019523038 0.013741223 -0.018177008 0.15706573 0.06017792 -0.074572936 -0.11691295 0.26588297
0.00047137082 -0.2284278 0.15291992 0.345461 -0.22585449 0.17964189 0.17270808 -0.08492624
0.3177118 -0.34054884 0.47093847 -0.37950906 0.11029807 -0.095683634 -0.29812866 0.17782742
0.14323579 0.008810755 -0.29108888 0.05708901 -0.07095592 -0.4006389 0.2141482 -0.09321095
0.2091226 -0.01934767 -0.035266493 -0.032140385 -0.06964877 0.022993276 -0.33153772 0.07287459
0.04101869 0.55887043 0.29891276 0.12313822 0.15866885 0.06950536 -0.020175325 0.037403557

arith.constant5 f4 [64]
00000000: 0e6b 0bbe a376 9b3e a3df 073f f685 cabe
00000010: 221c 023e a526 aa3f 5132 713e e7c1 b93e
00000020: 416b 143e 9fef 15bf 0798 00bc ceff 683f
00000030: c8aa b33e ee26 bf3e b3bd 4b3e 05bd 8fbe
00000040: 64ff f63d 3c4f aabe 1a49 0d3e 8724 293e
00000050: f5b0 aabe 3c14 573d 9802 d5be 60e8 acbe
00000060: 68a3 2abe a23d 8a3d 5044 363f 4190 35be
00000070: 0aff 82be 75b5 253e 4b06 9cbe 6a6f 983e
00000080: f420 873e 7644 e23e d232 86bd 149a e83d
00000090: 880b 4b3e cbb0 8c3d 6fe3 bb3e 110f f83e
000000a0: 131b 8d3e 6590 0fbe 1b2d c93e d00a a0be
000000b0: ef58 f43d 4532 403e a65e 583e df17 c53d
000000c0: 1ab0 de3e 7918 fc3d bc38 b9bc 1e70 753e
000000d0: b074 ad3e 0d37 883d 238e 7b3e ce07 293f
000000e0: 9392 c7be f240 f83e 0f63 1b3f 15be 34be
000000f0: 4cf9 bd3e 331c fc3d 8c1b 29bf b03d 0e3f
-0.13615057 0.3036395 0.5307562 -0.3955533 0.12706044 1.3293043 0.2355435 0.36280748
0.14494039 -0.5856876 -0.007848746 0.91015327 0.35091233 0.37334388 0.19896583 -0.28073898
0.12060431 -0.33263576 0.13797417 0.1651784 -0.33338133 0.05250953 -0.4160354 -0.33771038
-0.16663897 0.06750037 0.71197987 -0.1773081 -0.25585204 0.16182502 -0.3047355 0.29772502
0.2639233 0.44192857 -0.06552662 0.11357513 0.19828618 0.06869658 0.36696956 0.48448995
0.27559718 -0.14019926 0.39292225 -0.3125825 0.11931025 0.18769176 0.21129856 0.09623694
0.4349373 0.12309355 -0.02261006 0.2396855 0.33878088 0.06651125 0.2456594 0.66027534
-0.38979015 0.4848705 0.60698026 -0.17650636 0.3710426 0.12310066 -0.6605766 0.5556288

arith.constant6 f4 [40]
00000000: b80b 14bd 3075 2ebe 0f26 b63d 8f07 3a3f
00000010: d171 afbf fa3b dbbe 2e52 9dbe 63d3 403e
00000020: 8452 dd3e 6702 f63e bfa4 f43e 8485 393e
00000030: fad1 1e3f a9b3 0dbf 5ae4 e13e 7e3d febe
00000040: ce3f 2dbe f09b 613e 0c7a 9f3e 42b6 093f
00000050: abc3 953f 60ae 70be dad6 0ebf 3608 0abe
00000060: 75e5 42bd b209 28bf bfae 80bf b74d 12bf
00000070: 8ed3 82bc 610f 57be 0ca1 65be e157 503c
00000080: 4ae3 e43d 2aca a8bd 26ab 46be 7c5c 47be
00000090: b38d c83e f7c1 3e3f 9943 f0be 6c6e 49bf
-0.03614399 -0.17036891 0.08893978 0.72667783 -1.3706609 -0.42819196 -0.3072676 0.18830638
0.43227017 0.48048708 0.4778194 0.18117338 0.6203915 -0.55352265 0.4411953 -0.4965629
-0.16918871 0.22032142 0.31147802 0.5379373 1.1700338 -0.23504019 -0.5579659 -0.13479695
-0.04758211 -0.65639794 -1.0053328 -0.57149833 -0.015970018 -0.2100196 -0.22424716 0.012716264
0.111761644 -0.08241685 -0.19401225 -0.19468874 0.39170608 0.74514717 -0.46926573 -0.78684115

arith.constant19 f4 [256, 126]
00000000: 7c68 bf3d 9841 1dbd 7c87 e93d b480 ba3d
00000010: 7f17 f8bd 1eec f3be 16ab 9abb dd35 40be
00000020: 0e2d f2be c496 b43d a6bb 26bd ec43 f3bd
00000030: ee5d c23d ba11 86be 46de c63d d1ce bb3d
00000040: ff68 b5bb 9850 26bf 8573 5b3c b814 4d3d
00000050: 2ec5 9dbe f890 873d 8c1f cebd 1ef4 2ebd
00000060: 9931 e03d 4578 09be b55e 7cbd 73d8 15bc
00000070: 2779 773c 1a18 66be ebb2 123d 1341 14be
00000080: 72f7 5abd c7ac b23d 1da8 45bd 587d c1ba
00000090: a153 f13c 24a5 03be 6c00 5fbd 547d 23bd
000000a0: 3b35 f9bd 44c8 853c aa2e fbbc 0ae0 02be
000000b0: a2da 5c3e f3b0 c53d 1455 bbbd dc62 05bd
000000c0: a896 2d3e 119d 1abe 6c54 e0bd dba8 8e3d
000000d0: ce9e 943d b0bc 383e 7cad a4bc d237 bcbd
000000e0: 1880 953e 09c5 403e 0269 abbd de88 9ebc
000000f0: 8dea 5ebd 0e60 c5bc 9b84 88bd 789a e6bc
00000100: 6996 b1be ef46 373e 689f 383e e2ad 9abe
00000110: f869 50bf f4a4 103d 2a76 eabe 29b5 d2be
00000120: cee3 63bd 08bc e5be cd80 a8be 535d c3bc
00000130: 1d6c bcbe 6c00 efbd bb2f de3d 0ca4 4abe
00000140: c116 c3be 68e5 1c3c dab8 6bbe cafa d1bd
00000150: c173 3e3d 64ed 50be c9cc 6a3d d493 c93d
00000160: 0dbf aabd 4be8 843c 4e3b d4bc 4cf7 40be
00000170: 5e92 53be 717a 123e 8db9 7ebe 2819 e23d
00000180: 45d9 ef3d 4013 48be 6b9a f13d 647d 823d
00000190: a826 9dbe 6ef5 6c3e 13ed 9a3d 4890 87be
000001a0: 0558 883e 3d1f 3b3c beb7 92be aa0a 023f
000001b0: cfdd 4d3d f27f a9be 5f5e 353e 3131 1b3e
000001c0: 2429 91be 07d7 ac3e 3efe 3d3e 389a 72be
000001d0: 4960 2c3f 09ea 83bd 2f3e c0bd cd2f 063f
000001e0: 89a8 183d 7df1 92be 6326 d83e f4c2 0d3e
000001f0: 19e9 90be 2f27 903e 510b 40bc 52f9 12bc
00000200: 95b2 1ebe 0525 173e 4b6c 7d3c 7201 3440
00000210: f9e5 8dbd bce1 a7bd 26d6 2840 5b38 413d
00000220: 80b4 8fbd e0e9 1140 1b76 b83d 8050 32be
00000230: 083d f93f c5b8 a0bd b6ea 3cbe 720b e53f
00000240: f532 9dbd 4d71 b0bc 0ead a63f 2db9 ef3d
00000250: 9cec 24be f9a9 893f a03b 47bd 32a3 4bbe
00000260: 4ca0 5a3f 3e03 403d 9cc5 66be b6d6 7c3f
00000270: 48f1 e9bb c5b4 febd 8a27 483f a245 aaba
00000280: 6348 5ebe 8b73 443f 7fb8 0abe 2893 94be
00000290: e422 143f 83be 983d 8824 e0bd 0295 3b3e
000002a0: 0967 9c3d f4e6 e3bd 7c0e f03e 858b 133d
000002b0: f314 fabd 589a 2a3f 23f3 953d 63e6 3cbe
000002c0: 8552 1c3f 97d6 afbc 84e3 363d ab7d dabd
000002d0: 27fa c13d fd95 b0bd 7776 273e 73d1 fa3c
000002e0: bd66 a7bd f187 983e 8c44 97bd 2023 e8bd
000002f0: 57b9 b63e 916c 27bd 35cb c13d 89a1 0a3e
00000300: 2764 8abd d07c 06be 0e14 c43f e40e 103d
00000310: b994 abbd d556 e03f 9e9e 9fbc a336 12be
00000320: e871 f23f bd6b 7b3d 7ab1 5fbe c95a d53f
00000330: 8eff 9f3d 1ea3 b3bd 6fc5 593f a6ad 093e
00000340: dd4f f6bd 12ee 673f 5b91 4a3d 19bd 36bd
00000350: 9707 7c3f 1bbd 033e f2ac 80be c645 483f
00000360: 7d16 cf3d 0dae 02be 7cfb 663f 37a7 4fbc
00000370: 767c f3bd 2910 673f c065 f0bc ff38 83bd
00000380: 287e 5e3f 1336 6fbd 5591 64be 34a0 1c3f
00000390: 95c3 583d daae 1ebe d3f1 143f d96d a9bd
000003a0: 8f52 77bc bb60 e73e 69a7 7e3d e387 6bbe
000003b0: 56ee 0a3f 0dbb 013e 0528 84bd eb0c 193f
000003c0: f39b a2bd 1532 b3bb 4742 b63e ba37 f43c
000003d0: d44a 44bd d256 ee3e e37e 50bd 57dd 6fbd
000003e0: 112e c43e 00a3 b2bd ba69 05bd 5bf5 a03e
000003f0: 42de 103d 68ca 15be 6144 343e 81e6 243d
0.09346101 -0.038392633 0.11402795 0.091065794 -0.121138565 -0.4764108 -0.004720102 -0.18770547
-0.473 0.08817819 -0.0407063 -0.118781894 0.09490572 -0.261854 0.09710364 0.091703065
-0.005536198 -0.64966726 0.013394241 0.050068587 -0.308145 0.066194475 -0.10064611 -0.042713277
0.1094696 -0.13424785 -0.061613757 -0.009145844 0.015104569 -0.22470132 0.03581516 -0.14477949
-0.05345864 0.08724361 -0.04825603 -0.0014762087 0.029458823 -0.12855965 -0.05444376 -0.039914444
-0.12168356 0.016330846 -0.0306619 -0.12780777 0.21567777 0.09652891 -0.09147087 -0.032564983
0.16952002 -0.15098979 -0.10953602 0.069658004 0.07256852 0.18040729 -0.020102255 -0.091903344
0.2919929 0.18825163 -0.08369638 -0.019352373 -0.054422904 -0.024093654 -0.066659175 -0.028149828
-0.34685066 0.17898153 0.18029559 -0.30210787 -0.81411695 0.03531356 -0.45793277 -0.4115384
-0.055637173 -0.4487002 -0.32910767 -0.023848211 -0.36801234 -0.11670002 0.108489476 -0.19789141
-0.38103297 0.009576179 -0.23019734 -0.10252912 0.04649711 -0.20403057 0.057324205 0.09842649
-0.08337221 0.016224047 -0.025907185 -0.18844336 -0.20661303 0.1430452 -0.2487547 0.110399544
0.11711363 -0.19538593 0.11797031 0.063715726 -0.30693555 0.23140499 0.075647496 -0.26477265
0.26629654 0.011421022 -0.2865581 0.5079752 0.05026036 -0.33105427 0.17711781 0.15155484
-0.283517 0.33757803 0.18554017 -0.23691642 0.6733442 -0.06441123 -0.093868606 0.5241669
0.037270103 -0.28699866 0.42216787 0.138439 -0.2830284 0.28154895 -0.011721448 -0.008970575
-0.15497811 0.14760216 0.015467714 2.8125882 -0.069286294 -0.08197352 2.6380706 0.047172885
-0.070168495 2.2798996 0.09006902 -0.17413521 1.947175 -0.07847742 -0.1844891 1.7894118
-0.07675735 -0.021538401 1.3021562 0.11705241 -0.16105884 1.0754997 -0.048640847 -0.19886473
0.85400844 0.046878092 -0.2253632 0.9876512 -0.0071393587 -0.12436823 0.7818533 -0.0012990723
-0.21707301 0.76738805 -0.13546942 -0.2901852 0.5786574 0.07458212 -0.10944468 0.1831856
0.0763684 -0.11128035 0.4688605 0.036021728 -0.12211027 0.6664176 0.07321765 -0.1844726
0.61063415 -0.02146463 0.04465057 -0.106685005 0.09471541 -0.08622358 0.16353785 0.030617451
-0.08173893 0.29791215 -0.07386121 -0.113348246 0.35688278 -0.04087502 0.09462587 0.13538183
-0.06757384 -0.1313355 1.531862 0.03517045 -0.08377976 1.7526499 -0.019484814 -0.14278655
1.8941011 0.061382044 -0.21845046 1.666833 0.07812415 -0.087713465 0.85066885 0.13445148
-0.120269515 0.9059764 0.049455028 -0.04461393 0.9844908 0.12865107 -0.25131947 0.78231466
0.10111711 -0.12761708 0.90227485 -0.0126741445 -0.118889734 0.90259033 -0.029345393 -0.064073555
0.8691125 -0.05840118 -0.22321065 0.6118195 0.052920897 -0.15496388 0.58181494 -0.08272905
-0.015095367 0.45190987 0.062171374 -0.23001055 0.5426992 0.1266901 -0.064529456 0.59785336
-0.07939901 -0.0054686167 0.3559744 0.029811729 -0.047922924 0.46550614 -0.05090226 -0.058560695
0.38316396 -0.08722496 -0.03257153 0.3143719 0.03536821 -0.14627993 0.1760421 0.04025889

arith.constant20 f4 [256, 64]
00000000: bc58 05be 8483 c73e cf31 633e e80b f53d
00000010: 9f0d 20be 9c2f 133d 91ea b6bd 80f1 b9bd
00000020: ba7a 3bbb e03b c23e 6d7b 883e f865 2b3f
00000030: 74ca 2ebc 9e91 eebd 0933 363e 5a16 83bd
00000040: 833b 8d3e 6db1 bb3d 614c 9ebd 3f77 243d
00000050: 3a34 b9bc 410c 783e 7cf2 093e 0b7d bd3d
00000060: 4bf8 0bbe ee31 aebd 8b69 5fbd d7cd 513e
00000070: 613f 873d 043e 0bbe 647b 023e 6d3b 81be
00000080: a6fc 09bd d993 533d e5be 6dbb db40 f93e
00000090: 8938 b4bd 2e10 3a3d e53a e43b 6a12 f6bd
000000a0: 91ff c13e 17ef 203f 3312 653d a941 b43c
000000b0: db52 8fbd 46b3 78bd 5c38 d9bb 57b8 903e
000000c0: 0b8d 033f 242d 153e 4841 1c3e 2662 c73d
000000d0: 7a3d 153e 9bcd cdbe 0232 e3bd 9216 ce3d
000000e0: 7480 533e d215 95bd ba55 d03e ae45 c4be
000000f0: bde7 b8bd 8d32 103e 3578 31be 5555 46bc
00000100: 55bb 51be 7842 8e3e 4159 af3d 55a4 d23e
00000110: 84a2 3c3c d815 78be 9577 c4bb 6e21 903c
00000120: f78e ee3d a17a 953e f4e7 e6bd fc6c 783d
00000130: f41b 233d 4b63 453e e738 0bbd 9eb7 8ebc
00000140: b716 ee3d 727a 143d f818 493d 5844 b53d
00000150: f9c4 e63c cac4 50be d34f debd 8402 86be
00000160: bbc7 8abd bc52 73bc 5554 1fbe 9d68 483e
00000170: f62b 893e c456 eb3d 8394 f0bc e5c1 743d
00000180: 0172 7dbe d12b d4bd 9bb5 693e 60c9 b6b7
00000190: 2383 b53d 97f1 653d 92fa 8c3e 47c7 bebc
000001a0: e212 203d e335 fc3d 26b6 aa3e 3379 37be
000001b0: c090 3a3d e857 953d a989 993c 49f7 0d3e
000001c0: a800 c43d bbc9 e13d a10b f13c bacd 2b3d
000001d0: efd2 fcbd f722 0e3d af83 ed3d 2bf6 6a3d
000001e0: 429c 9ebd 5b07 13be 2d37 203e 419e ae3d
000001f0: 9950 993d 890e 62bb 279a d53d 54c6 463d
00000200: 8d0d 14be 2093 5d3e 1ee9 07be 834b 83be
00000210: e545 49be 3086 143e 97bc 3cbe 2900 72be
00000220: 822c 6cbd 5bd5 813e b96e 76bd 4a8a e4bc
00000230: dac6 44be 95d4 903d 0b37 a8be b346 c8bd
00000240: 3863 e23c fc3b 4d39 f556 2e3e 396f 12be
00000250: 930b 9d3c 8122 343e 807a cfbd 9bbb 7ebb
00000260: 8cc0 dbbd f8de b8bd ecd5 993e b712 e5bc
00000270: 3250 72bd 2105 1dbc b49b a93b 742c dabd
00000280: e86d a8be 7b2d fcbd 8eb3 acbc eb18 ecbd
00000290: 35f5 e3be 2f8d 80be 20ee c33d 75f8 d13b
000002a0: 6644 16bd 2c78 a9bd 8d13 43bd b131 103e
000002b0: bc65 fcbd dcb8 18be 4d38 95bd a09b 1cbd
000002c0: 0ad9 afba 87c8 8ebd bcc9 6b3d 9484 4d3b
000002d0: cefa 5f3e cdb2 033e 7201 82bd 98d1 463e
000002e0: eb71 5e3e 1539 14be 6505 9a3c 932a 98bd
000002f0: a462 0dbe 6610 32bd 401d 823e ec8d 55be
00000300: dbeb 64be ba7e 35be 60f4 a73e 1e06 f93a
00000310: 919e 0dbe 79ec af3e f45b d2bd 36f9 223c
00000320: 1062 8d3b efaa 173e cc24 31be 6f72 a8be
00000330: 297f 803e 3400 163e 0272 b9be 60ac debb
00000340: 51a1 9dbe b961 9dba be70 2b3e b4bb c7bd
00000350: 0c3a 343e 418f 4fbd a2e7 70bd 1f9d 56be
00000360: 98fb bb3d eb4d 5bbe 1dcf 95bd 960a 233e
00000370: dafa 6b3d de11 2a3d 90c1 2dbe 9dc3 b9bb
00000380: 4ed0 493e 4cf5 be3d cb3b 64be 47f6 57be
00000390: 2965 28bd fe24 543d 40c4 4a3e 2dc0 d3bd
000003a0: d12d 30be 28a6 3cbd 3c32 1f3d 595e 28bc
000003b0: 77c4 1e3d 6b1c 133d 7356 85bd 9446 af3d
000003c0: 8a21 52be 45e9 243e fe3a b93d 92e2 b9bd
000003d0: b468 efbe e53a 943e 679e 473e 549a 14be
000003e0: 3287 433e 8727 46be 76d5 303e cfee 323e
000003f0: d019 04be 270d fbbd 4b47 443e 5968 7cbe
-0.1302213 0.38967526 0.22186969 0.119651616 -0.15630196 0.035934076 -0.08931459 -0.090792656
-0.0028607086 0.37936306 0.26656666 0.66952467 -0.010668386 -0.11648868 0.17792906 -0.064007476
0.27584466 0.09164701 -0.07729412 0.040152784 -0.022607911 0.24223424 0.13471407 0.09252366
-0.13668935 -0.08505617 -0.054544013 0.20488678 0.066038854 -0.13597876 0.12742382 -0.2524065
-0.03368821 0.05165467 -0.0036277112 0.48682293 -0.08799846 0.045425586 0.0069650286 -0.12015231
0.37890294 0.6286482 0.05592556 0.022003965 -0.06998225 -0.060717843 -0.006629033 0.2826564
0.5138709 0.14568001 0.15259278 0.09735517 0.14574233 -0.40195927 -0.110935226 0.10062899
0.2065447 -0.072795525 0.40690404 -0.3833441 -0.090285756 0.14081784 -0.17331012 -0.012105306
-0.20481618 0.27785087 0.08561946 0.41141 0.011513356 -0.24227083 -0.0059957006 0.017594066
0.11648362 0.2919512 -0.1127471 0.06065081 0.03982158 0.19276159 -0.033989813 -0.01742154
0.11625426 0.036249585 0.049096078 0.08850926 0.028170096 -0.20387569 -0.10855069 -0.26173794
-0.06776377 -0.014851268 -0.15559514 0.19571157 0.26791352 0.114911586 -0.02936769 0.059755225
-0.2475052 -0.1035992 0.22823183 -2.1789863e-05 0.08862903 0.0561386 0.2753492 -0.023288382
0.039080508 0.123149656 0.33342093 -0.17917328 0.0455482 0.072921574 0.0187424 0.13863863
0.09570438 0.11024805 0.02942449 0.041944243 -0.1234492 0.034701314 0.11597382 0.05736367
-0.077446476 -0.14358275 0.15646048 0.08526278 0.07486076 -0.0034493527 0.10429793 0.048528984
-0.14458294 0.21638155 -0.13272521 -0.25643548 -0.19655569 0.14504313 -0.18431316 -0.23632874
-0.057659633 0.2535809 -0.060164187 -0.027897973 -0.19216481 0.07071797 -0.32854494 -0.0977911
0.027635202 0.0001957267 0.17025359 -0.1430024 0.019170558 0.17591287 -0.10130787 -0.0038869146
-0.10730085 -0.09026903 0.30046022 -0.027963025 -0.05915851 -0.009583742 0.005176032 -0.1065301
-0.32896352 -0.12313362 -0.021081712 -0.1152819 -0.44523016 -0.25107715 0.09566903 0.006407792
-0.036686324 -0.08274874 -0.047626067 0.14081456 -0.12324092 -0.14914268 -0.07286129 -0.038234353
-0.0013416123 -0.06971841 0.057565436 0.003135954 0.21873018 0.12861176 -0.06347932 0.19415891
0.21723144 -0.144749 0.0188014 -0.074299954 -0.1380716 -0.04347267 0.2541294 -0.2085492
-0.22355597 -0.17724124 0.3280363 0.0018999015 -0.1383002 0.34360102 -0.10271445 0.009947112
0.0043146685 0.148113 -0.17299193 -0.32899806 0.25097016 0.14648515 -0.36219794 -0.006795451
-0.30787137 -0.0012007273 0.16742226 -0.097525984 0.17600268 -0.050673727 -0.058814652 -0.20958374
0.09178847 -0.21416442 -0.07314894 0.15922007 0.057612278 0.041520946 -0.1696837 -0.005669071
0.19708368 0.093241304 -0.22288434 -0.21090041 -0.0411121 0.05179309 0.19801426 -0.10339389
-0.17204978 -0.046056896 0.038866267 -0.0102764005 0.038761582 0.035915773 -0.065106295 0.085583836
-0.20520607 0.1610461 0.09044455 -0.09076418 -0.4675957 0.28951183 0.1949402 -0.14511997
0.19094542 -0.19351016 0.17268929 0.17473911 -0.12900472 -0.12258368 0.19167821 -0.2464918

sequential_1/lstm_1/while/lstm_cell_1/add_1/ReadVariableOp f4 [256]
00000000: 45f4 7a3d 1e4f 7b3e 3181 093d db48 323d
00000010: cbbd aebc 207f 22bd 6ef8 87bd 8ce3 14bd
00000020: 143e 603d d038 843d 732d 8f3d 8132 633e
00000030: 39d8 5e3d fd0b 0e3e 5a91 b0bd 531d 1ebe
00000040: f0fe 0abd c052 9bbb d70b 193d cacf 3b3e
00000050: ea88 8abd 7ea8 ee3c 097a 5f3d 5144 36bc
00000060: 1182 bd3c 0135 abbd 78a3 2e3e c6d9 9fbd
00000070: 2a79 61be bb38 853d 434a 7f3c fe98 e3bd
00000080: d02f 933d 9509 aa3d ae70 be3d e846 013e
00000090: 137a 82bc 5355 323d 7abc c1bc 947f d53d
000000a0: da63 ae3d b57c 50bd 4052 133c 9715 19bb
000000b0: 2758 d1bb 7e25 77bd 9112 42bd 1ea9 863d
000000c0: 3063 5fbd ba07 3a3e 1793 063e e3bd ec3c
000000d0: cba4 313e 24b4 743d efac 0e3d 5863 123e
000000e0: fec0 9b39 614e ab3c 0c9a 91bb 8516 c13c
000000f0: b04b 66bc 5ab3 bd3c 86c4 f83c 3103 e3bd
00000100: 35ad 713f 04d2 9a3f 18c7 843f c1c4 803f
00000110: d966 8b3f 3d17 843f 4923 613f 896f 6d3f
00000120: 4c3b 793f f2e6 713f ccda 843f e2f3 9c3f
00000130: 17be 823f bff7 863f 02ad 603f d283 6c3f
00000140: 4425 643f da3f 7a3f ce47 7b3f 1563 8b3f
00000150: 14d9 7a3f 60e0 923f 6c48 863f 801e 703f
00000160: 02c2 7f3f 7344 773f 6a14 8f3f 9687 833f
00000170: dd16 5d3f b567 823f df8f 633f bf35 723f
00000180: 59d8 893f 946e 803f 9d98 8c3f 6e2c 5f3f
00000190: 6fc0 6d3f 9a7c 7a3f 7020 6c3f 97fb 703f
000001a0: e97b 8b3f f066 6a3f b782 8e3f f943 713f
000001b0: c2d1 7d3f 76ae 6f3f 96a7 863f 0e8e 903f
000001c0: aa44 943f 8b06 993f 6b4a 923f de2d 7f3f
000001d0: 651b 933f 94f6 923f 7b44 763f 0383 a13f
000001e0: b17d 823f 9cd9 863f e9b5 983f a304 7f3f
000001f0: 748e 823f 9b9d 7e3f 5489 833f 4e5a 4e3f
00000200: 28e1 cdbd 6caf a63d 616d 0abd eac3 30bd
00000210: 24f1 52bb c32a 703c d5e6 06be 7ec5 a8bd
00000220: 8a8c ffbc a424 9f3c 0436 513d 800d 213e
00000230: 3e69 b1bb cd2f 243e 1e87 c7bd 6208 29be
00000240: 6ca7 11be a9d6 86bd 7af9 f9bb f298 37bc
00000250: c35f 0fbd e534 143e 602a 243d f5f6 0fbe
00000260: 8def c8bd 4a00 b7bd 6740 8b3e ae59 a03d
00000270: 2164 1ebe 023e 023e 86c5 09bd 5e3f edbd
00000280: 3600 f53c f2c5 3a3c 0efb b23c cece 023d
00000290: 52c6 20bd 8b8a 21bc b65d 92bd 266c 44bd
000002a0: ed66 c93d 0998 9fbd eeab 3d3e 26de bfbd
000002b0: f6e9 b2bd da36 26bd e713 9dbd 91ee a03d
000002c0: 43cc 7fbd cedf 9a3d f673 203e 7f4c 27bc
000002d0: 88de a33d 9f27 ff3d c664 a53c 6f01 5f3e
000002e0: 25d3 083e 5704 80bd 76ee 76bd 2b9a 873d
000002f0: a5a0 7bbc 78d1 6dbc a240 c7bc 99f9 43be
00000300: 1950 1a3c 6ef4 273e a323 d83c ea2a ec3c
00000310: 6d24 6cbc dbff ff3c 1284 95bc a320 9dbd
00000320: 5e52 c23b e701 5abc 18a8 923d 0434 ef3d
00000330: b00a 4e3d 294b 90bd e9fd 05be 3766 20be
00000340: 8422 37bc db4b 82bd cb5c 0bbe 3d58 a03b
00000350: 13aa 66bd 8723 ad3c 550b a43d 278c d8bd
00000360: bbdd 94bc a2db 083c 220d d43d 82ab 83be
00000370: d6a7 86be 31a2 fc3d 889e 363c dd23 31bd
00000380: 56b5 db3d f461 f03c 6526 e23d 7fdb ef3c
00000390: 627c 1c3c a993 653c b8d4 373c 9314 4a3d
000003a0: 2147 943d abed de3d 0cd4 5abc 2c79 0bbd
000003b0: 4585 933c 718d 15be 4edb 8c3c 600d 8fbc
000003c0: ecd4 31bd ef02 c03d 2e1b 3d3e 4ed8 883d
000003d0: 44f4 e43d 1bd3 8e3d 3feb 803d 6f55 733e
000003e0: 58a5 87bc 046a 973d ecf4 13ba 15d3 80bd
000003f0: 4e89 e4bb bbb1 923d fe91 a63c 6644 7abd
0.06126811 0.245419 0.033570472 0.04352651 -0.021330735 -0.039672017 -0.06639181 -0.036349818
0.054746702 0.064561486 0.069910906 0.22187234 0.054405425 0.1387176 -0.086214736 -0.15440874
-0.033934534 -0.004740089 0.037364807 0.18340984 -0.067643955 0.029133078 0.05455974 -0.011124686
0.02313331 -0.08359719 0.17054546 -0.07805209 -0.22018877 0.06504961 0.01558167 -0.11113165
0.07186854 0.08302609 0.09298836 0.12624705 -0.01592735 0.043538403 -0.023649443 0.10424724
0.08515139 -0.05090018 0.008991778 -0.0023358816 -0.0063886824 -0.06033849 -0.047380988 0.06575225
-0.054537952 0.1816701 0.13142048 0.028899139 0.1734802 0.059742108 0.03483289 0.14295709
0.00029707694 0.020911397 -0.0044434126 0.023570308 -0.014056131 0.02315681 0.030367147 -0.11084593
0.9440492 1.2095342 1.0373259 1.0060045 1.0890762 1.0319592 0.87944466 0.92748314
0.97356105 0.9449302 1.0379272 1.2261927 1.0214261 1.0544356 0.8776399 0.9238864
0.8911936 0.9775368 0.9815644 1.0889612 0.97987485 1.1474724 1.0490851 0.9379654
0.9990541 0.9658882 1.1178105 1.0275753 0.8636301 1.0187899 0.88891405 0.9461326
1.0769149 1.0033746 1.0984074 0.8717717 0.92871755 0.97846377 0.92236996 0.94133896
1.0897189 0.9156332 1.1133641 0.94244343 0.9914819 0.9362558 1.0519893 1.1293352
1.1583455 1.1955122 1.142896 0.9967936 1.1492735 1.14815 0.9619824 1.2618107
1.0194608 1.0535159 1.1930515 0.9961645 1.0199723 0.99459237 1.0276284 0.80606544
-0.10052711 0.08138928 -0.033795718 -0.04315559 -0.0032187188 0.014658633 -0.13173993 -0.08240794
-0.031194944 0.019426651 0.051076904 0.15727806 -0.005414157 0.1603386 -0.097425684 -0.16507104
-0.14224023 -0.06583912 -0.007628617 -0.011205899 -0.035003435 0.14473303 0.040079474 -0.1405905
-0.09811316 -0.08935602 0.27197573 0.07829605 -0.15467884 0.12718967 -0.03363564 -0.11584352
0.029907327 0.011399733 0.021848228 0.031935506 -0.039251633 -0.009859691 -0.0714678 -0.0479547
0.09834085 -0.0779267 0.18522617 -0.09368543 -0.08736031 -0.040579654 -0.07669812 0.07858003
-0.06245066 0.075622186 0.15669236 -0.010211109 0.08001429 0.12458729 0.020189654 0.2177789
0.13361795 -0.06250828 -0.060286008 0.06621202 -0.015358125 -0.014515273 -0.024322812 -0.19138183
0.009418511 0.16401836 0.02638418 0.028829057 -0.014412981 0.031249931 -0.018251453 -0.076722406
0.005930229 -0.013306118 0.071609676 0.11679843 0.05030316 -0.07045586 -0.1308514 -0.15663992
-0.011177663 -0.063621245 -0.13609616 0.0048933313 -0.05631454 0.021135105 0.08009974 -0.10573607
-0.018172136 0.008353146 0.103540674 -0.25716788 -0.26299924 0.12335623 0.011146195 -0.043247093
0.107279465 0.029343583 0.110424794 0.029279469 0.00955114 0.014012256 0.01122015 0.049336027
0.07240129 0.10885175 -0.01335622 -0.034051105 0.018007884 -0.14604737 0.017194416 -0.017462432
-0.04341595 0.093755595 0.184674 0.06681882 0.111794025 0.06973859 0.0629487 0.23763059
-0.016558334 0.07393268 -0.0005644101 -0.06290261 -0.006974376 0.07162806 0.020333286 -0.061100386
