ai/models/sign_classifier_word.tflite (tflite, 233376 bytes, 5 tensors)

arith.constant3 f4 [40, 64]
000000 17 5a ed bd 10 a5 dd bd 26 c0 51 3e 10 ed cd 3c
       -0.11589449 -0.10822499 0.20483455 0.025137454
000010 ac 86 ba 3d e0 26 3b 3e 26 8b 53 3e 18 94 0a bd
       0.09107718 0.18276548 0.2065855 -0.03383264
000020 08 db 0d 3d 1e f9 b8 bd a5 ad 72 be 66 30 00 3e
       0.034632713 -0.0903189 -0.23699053 0.12518463
000030 98 91 2d 3d 2e 83 52 be fb 34 f9 bd 84 d4 46 bd
       0.042375177 -0.20557854 -0.12168308 -0.048542514
000040 40 3e fd bb 60 1f 3d 3d 1a ec 4b 3e 00 d7 04 3e
       -0.007728368 0.0461725 0.19914284 0.12972641
000050 ba 93 2d be 98 f3 5c 3d 50 2a ec bc a2 16 d3 bd
       -0.16950884 0.053943247 -0.02882877 -0.10307051
000060 48 3d 6f 3e 6a d4 2f 3e f2 19 42 3e 88 1f 65 be
       0.2336322 0.17170873 0.1895521 -0.2237531
000070 c0 30 4d be d2 e9 30 be 0a 70 d7 bd d2 26 21 be
       -0.20038128 -0.17276695 -0.10519417 -0.15737465
000080 88 7b 27 be 3e 59 25 be 76 31 a0 bd e0 b2 b3 3d
       -0.16355717 -0.16147324 -0.07821934 0.08774352
000090 40 34 b1 3c 68 5a e5 bc 48 31 90 bd d4 0c 70 bd
       0.02163136 -0.02799721 -0.0704065 -0.058605984
0000a0 ec f9 f6 bd 62 08 43 3e 0c 55 65 3e 70 ea 31 3d
       -0.120593876 0.19046167 0.22395724 0.043436468
0000b0 5e 2a 06 3e 1c df 85 3d b0 5b d7 bc 94 d7 9c 3d
       0.131021 0.06536695 -0.026288837 0.07658306
0000c0 d6 50 c0 bd a2 1c 67 3e 34 ee 77 bd 80 9b ce 3d
       -0.09390418 0.22569516 -0.060529903 0.10088253
0000d0 9e b0 0e 3e e4 bc 0c bd c4 6f f1 bd e0 42 f7 3d
       0.13934562 -0.034359828 -0.11788896 0.12073302
0000e0 f2 ed 50 3e 6c 6b 9b 3d 3e 57 4f 3e 94 39 c9 3d
       0.20403269 0.075888485 0.20248124 0.09825435
0000f0 c4 8c b2 3d 82 72 20 3e e0 db 63 3c aa e5 34 be
       0.08718255 0.15668681 0.013907403 -0.17665735
000100 72 29 2d be 40 7a 40 3d 4e 2f 0b 3e 1c 85 80 bd
       -0.16910341 0.046991587 0.13592264 -0.062753886
000110 24 9a 9f bd c8 78 b7 3d fc 5e eb 3d fe 5f da bd
       -0.07793072 0.08958584 0.11492726 -0.1066284
000120 d0 b8 a8 bd 60 49 4b 3d 48 d1 26 be 20 4e e2 3c
       -0.08238375 0.049630523 -0.16290772 0.027625144
000130 80 0e e7 3a 5c 94 21 3e 5f f8 19 be a8 ec 43 be
       0.0017628223 0.15779251 -0.15036152 -0.19133246
000140 1e 56 2a be 30 5d fb bc bc 4e e4 3d 99 d8 6e be
       -0.16634414 -0.030684084 0.1114783 -0.23324813
000150 e4 4c d0 3d 20 fb 89 bb 88 45 47 bd 4c 76 73 be
       0.10170916 -0.0042108446 -0.048650295 -0.23775595
000160 a6 f5 2c 3e 20 5b 48 3d 60 10 99 3c c0 5e 57 3d
       0.16890582 0.04891503 0.018684566 0.052580595
000170 3c 5f fc 3d a3 71 29 be 48 f8 ef 3d 8e ca 3a 3e
       0.12322852 -0.16547255 0.11717278 0.18241331
000180 56 bb 09 3e e8 af 21 3d 50 a2 d8 bd 54 cf ca 3d
       0.13450369 0.039474398 -0.10577834 0.09902826
000190 8c 94 10 bd 8c c1 a6 bd 0a 8a 64 3e ce 2d 84 bd
       -0.035297915 -0.08142385 0.22318283 -0.06454049
0001a0 36 91 20 3e 28 c4 0c 3d 72 67 25 be c0 a9 13 3d
       0.15680394 0.034366757 -0.16152743 0.036050558
0001b0 1e 7d 42 3e ac 5a 95 3d e0 b8 6f be 6c 0a f4 bd
       0.18993041 0.07292685 -0.23410368 -0.1191605
0001c0 90 10 00 bc 1c d6 01 bd fa 4a c8 bd b0 4e 68 3d
       -0.007816449 -0.03169833 -0.09779926 0.056715667
0001d0 a3 a8 4b be 38 ff 02 be a8 42 86 bc ea 25 c1 bd
       -0.19888549 -0.1279267 -0.016389206 -0.0943106
0001e0 20 f2 66 bd 98 5a 48 3d 50 9b 89 3c 1c 91 6d be
       -0.056383252 0.048914522 0.016797692 -0.23199886
0001f0 50 f6 b1 bd 5c 23 d5 bd f1 75 47 be 98 91 da 3d
       -0.086895585 -0.10407135 -0.19478585 0.10672301
000200 fe 85 93 bd 14 f2 15 3e 8c 9c e0 3d 0c b4 59 3e
       -0.07203291 0.14643127 0.10967359 0.21260089
000210 58 75 7d 3d 8a ee 27 be 88 04 1f be 4c d7 61 bd
       0.061879486 -0.16399589 -0.15529072 -0.055136964
000220 40 9a f7 bc 96 0c e2 bd 68 c3 16 bd 2a b9 66 3e
       -0.03022492 -0.11037557 -0.036807448 0.22531572
000230 b0 92 88 3d 14 60 0a 3e 80 8c ee bc 0c ef 20 be
       0.066686034 0.13513213 -0.02911973 -0.15716189
000240 8c 45 12 3e 90 11 61 bc 70 37 0f 3c 44 0f 1b be
       0.14284343 -0.013737097 0.008741245 -0.15142542
000250 e8 65 45 3e 9e b4 2d 3e 30 52 c2 3d e2 30 53 be
       0.19277155 0.16963431 0.09488332 -0.20624116
000260 66 d7 e8 bd 20 4d 71 bc b4 7d f5 3d 9d 77 1b be
       -0.11369209 -0.014727861 0.119868666 -0.15182348
000270 d8 d8 cc 3d 48 dc 3d be 06 c3 09 3e 4c 87 37 be
       0.10002297 -0.18541062 0.13453302 -0.17922705
000280 00 2c d2 39 e9 ee 39 be 6a d9 b2 bd 00 62 b9 3d
       0.00040087104 -0.18157543 -0.08732875 0.09051895
000290 e8 f2 bc 3d 20 2c 76 3d a8 47 cb bd 8a 6b 2f 3e
       0.09226018 0.060100675 -0.09925777 0.17130867
0002a0 2c 1c 21 3e 44 91 3e be f0 07 b0 3c c6 7f 5b be
       0.15733403 -0.18610102 0.02148816 -0.2143546
0002b0 c0 5c d8 bb 28 33 1a be 88 13 ff 3d ca 26 12 be
       -0.0066028535 -0.15058577 0.12454897 -0.1427261
0002c0 54 0c db bd 30 67 f7 3c 60 57 26 3d 3c b9 68 3e
       -0.10695711 0.03020057 0.04061067 0.22726911
0002d0 72 ba 3a be a6 17 4a 3e c4 df 1c 3e a6 09 37 3e
       -0.18235186 0.19735584 0.15319735 0.17874774
0002e0 80 64 58 3d 10 d5 28 3e 10 31 13 3d 60 17 9e bb
       0.05283022 0.16487527 0.03593546 -0.004824564
0002f0 bc a1 a3 bd 34 6f 23 bd c0 78 b9 3c 98 06 d5 3d
       -0.07989833 -0.039900973 0.022640586 0.10401648
000300 70 71 df 3c d5 1c 38 be 69 36 4b be 84 ae 18 3e
       0.02727577 -0.17979749 -0.19844975 0.14910322
000310 14 36 3f 3e 17 80 3c be 24 a4 21 be 7c 96 d0 3d
       0.18672973 -0.18408237 -0.15785271 0.101849526
000320 dc 60 bc 3d 6a 98 08 be b6 07 2c 3e c0 c3 52 3b
       0.09198162 -0.13339391 0.16799816 0.0032160133
000330 18 47 83 bc b0 48 12 be 68 e1 d1 3d c0 70 4e 3c
       -0.016025111 -0.1428554 0.10248071 0.012600124
000340 5c 7b 5d 3e c0 d2 eb 3d cc 21 54 3e a2 ee 6b 3e
       0.21629089 0.11514807 0.20716017 0.2304025
000350 d8 5f 3a be f6 01 aa bd 14 a7 3c 3e b4 bd 1d 3e
       -0.18200624 -0.08301155 0.1842311 0.15404397
000360 01 d3 37 be 7c a9 f4 3d f6 5c 61 be c2 31 5f 3e
       -0.17951585 0.11946389 -0.22008118 0.21796325
000370 d4 20 07 3e d1 50 56 be 30 8b 03 bc 74 a0 22 bd
       0.13196117 -0.20929267 -0.00802879 -0.0397038
000380 c0 4d 16 3b bc de 36 bd 52 ec 6c be 8e 28 cf bd
       0.0022934526 -0.04464601 -0.23137024 -0.10115157
000390 e4 86 d7 3d 14 6a 03 3e 48 30 12 3d 00 c4 da bd
       0.10523775 0.12833434 0.035690576 -0.10681915
0003a0 00 03 e0 3d 50 4e de bc 42 0d 66 be d0 ef e0 3c
       0.10938072 -0.027136952 -0.22465995 0.027458102
0003b0 02 07 04 be 90 52 b9 bd 28 05 40 3d 14 e0 b2 bd
       -0.12893298 -0.09048951 0.046879917 -0.08734146
0003c0 7c 03 58 3e b6 d5 6b 3e ac 85 e6 bd 64 6c e6 bd
       0.21095079 0.23030743 -0.11255965 -0.112511426
0003d0 3c 4c 40 bd 2e ec 27 3e d6 ac df bd 64 4f 32 3e
       -0.046947703 0.16398689 -0.10921638 0.17413098
0003e0 40 f5 f1 3b 00 03 37 3e d8 30 e7 3d bc 89 bc 3d
       0.0073839724 0.17872238 0.11288613 0.09205958
0003f0 96 34 16 be a6 c2 66 3e ce b2 34 be 67 78 53 be
       -0.14668497 0.2253519 -0.17646334 -0.20651399

arith.constant4 f4 [64, 64]
000000 00 aa 17 be 7e 42 e7 3d e7 0d 56 3e e8 b3 07 3d
       -0.14810944 0.11291979 0.20903741 0.033130556
000010 50 6b d8 3c 1e 51 ae 3d 8e 43 b2 3d 40 a4 8b bb
       0.026418358 0.085115656 0.08704291 -0.0042615235
000020 1a dc 8a 3d 34 f9 5f 3d f4 65 09 bd 06 d5 9f bd
       0.06780262 0.054681018 -0.033544496 -0.07804303
000030 76 60 f6 3d d0 b2 92 bd b2 f2 0f be ec 32 97 bd
       0.12030117 -0.07163012 -0.14057425 -0.073827595
000040 f6 73 e5 3d 50 b1 2a bd 60 9d d3 3b a5 cc 37 3e
       0.112037584 -0.041673005 0.0064579695 0.1794916
000050 05 b3 3c 3e 77 28 05 be 99 da 3e 3e fa 15 9c 3d
       0.18427666 -0.13003717 0.18638076 0.07621379
000060 3c c0 d0 bd e6 74 e5 3d f2 8b 99 bd e8 13 5b bd
       -0.10192916 0.11203937 -0.074973956 -0.05348578
000070 f3 b4 02 3e 85 b1 06 3e ce 76 f8 bd d9 d0 07 3e
       0.12764339 0.13153656 -0.12132035 0.13263263
000080 82 23 11 be 34 bc 53 bd ff f1 47 be 24 ee 38 3d
       -0.14173701 -0.051693156 -0.19525908 0.045148984
000090 7f ba 2e be 92 3b a8 3d 8e 4e 0f be 0a 4b fb 3d
       -0.1706333 0.08214487 -0.1399481 0.12270172
0000a0 c2 56 22 be 98 80 ad bc eb d7 29 3e 4d 0a 4b 3e
       -0.15853408 -0.021179482 0.16586272 0.19828148
0000b0 cd 99 30 be 30 2f 20 bc 58 87 e9 bc 26 ce 37 be
       -0.1724617 -0.009776875 -0.02850692 -0.17949733
0000c0 c3 0e 0b 3e 64 54 56 3d 0b c5 34 3e 0b be 46 3e
       0.1357985 0.052326575 0.17653291 0.19408433
0000d0 10 a7 64 3c 5f f2 34 be 00 47 f7 bb 72 c6 8a bd
       0.013955846 -0.17670582 -0.0075463057 -0.06776132
0000e0 7a fb dd 3d 7c b8 09 bd 6a 14 e9 3d b2 fa d6 bd
       0.10838981 -0.033623204 0.11380847 -0.10497035
0000f0 b5 aa 07 3e d6 8a aa 3d 4e fe 93 3d 7f d5 31 3e
       0.13248713 0.08327262 0.07226239 0.17366599
000100 87 48 47 3e 00 3d 42 3c 82 27 90 bd 52 03 a3 3d
       0.1946126 0.011855364 -0.070387855 0.07959618
000110 ec fb 40 3d cb 58 18 3e 2b 18 28 3e 26 8e 06 be
       0.04711525 0.14877622 0.1641547 -0.13140163
000120 fc 4e 42 3d 4e 24 ac 3d 1b 69 00 be ea 1d b8 3d
       0.047438607 0.08405362 -0.12540095 0.08990081
000130 4b 5e 29 be 16 5f ac 3d d3 4c 56 3e f1 4c ca bd
       -0.16539876 0.08416574 0.20927744 -0.09877957
000140 71 46 2d be 1c 4a 05 3d 05 6a 45 be d2 cf 92 3d
       -0.16921403 0.03254138 -0.19278724 0.07168545
000150 50 b9 bf bd 8f ab 5b 3e e4 00 aa bd 48 b2 f1 3c
       -0.093615174 0.21452163 -0.08300951 0.029503956
000160 e0 49 a4 bd 7f 01 53 3e 1e 61 ff 3d 3d 31 f0 bd
       -0.08021903 0.2060604 0.124696955 -0.117281415
000170 6e 96 8b bd 68 06 f2 bd aa ab 99 3d de 14 09 be
       -0.068158016 -0.11817628 0.075034454 -0.13386866
000180 00 9e 08 be 05 e3 c5 bd d1 a4 02 3e 80 25 f9 bb
       -0.13341522 -0.09662441 0.12758185 -0.0076033473
000190 74 a5 5b bd f4 c1 2e 3d 46 9c f3 3d 40 1a 59 bc
       -0.053624585 0.042665437 0.11895041 -0.013250887
0001a0 b5 89 59 3e 00 fe 36 bb 4d cc 21 3e d6 b3 fb bd
       0.21243937 -0.0027922392 0.15800591 -0.1229016
0001b0 4c d9 4c 3d 6a c0 4e be e8 b3 43 be d8 8e 05 3d
       0.050011918 -0.20190588 -0.19111598 0.03260693
0001c0 62 ac b2 3d f4 2e 74 3d 90 63 ac bc 71 25 4a be
       0.08724286 0.05961509 -0.021043569 -0.19740845
0001d0 7a 37 f5 3d 0a ab c7 bd 8b 7e 03 be 3f 19 30 3e
       0.11973472 -0.0974942 -0.12841241 0.1719713
0001e0 7c ee b0 bd 8f a4 23 3e 51 a4 3e 3e 38 bd 8a bc
       -0.08639237 0.15980743 0.18617369 -0.01693593
0001f0 ca 74 c2 bd c0 57 b5 3b 57 1c c3 bd 1e 3e af 3d
       -0.09494932 0.0055341423 -0.0952689 0.0855677
000200 4c 41 29 3d 83 14 54 be 4b 3e 44 3e 54 44 0b 3d
       0.041322038 -0.2071095 0.19164388 0.03400071
000210 a5 0e 02 3e 0b 5f 01 3e 8f 7a 0a 3e 6d be 15 3e
       0.12700899 0.12633912 0.13523315 0.14623423
000220 2b e2 4d 3e 26 73 93 3d 5b b9 51 3e 06 0e 1f be
       0.20105807 0.07199697 0.20480864 -0.15532693
000230 d2 ab 86 bd 03 91 e0 bd af 87 d2 bd 5c 1f 1d bd
       -0.06575741 -0.10965159 -0.10279786 -0.038359985
000240 70 40 03 bd 95 8d 5a be 11 24 5b 3e 84 d5 64 3d
       -0.032043874 -0.21343072 0.21400477 0.055867687
000250 f0 53 21 be 94 8e 41 3d 68 94 29 be c6 05 25 be
       -0.15754676 0.047255114 -0.16560519 -0.16115484
000260 52 f1 03 be bd 03 11 3e 60 61 ea 3c f0 08 95 bd
       -0.12885025 0.14161582 0.028610885 -0.07277095
000270 a4 8a 4e be 5a 83 9e 3d 30 08 02 be 6a b8 d4 3d
       -0.20170075 0.07739897 -0.12698436 0.10386737
000280 48 0f ae bd 63 22 0d 3e 3f cf 0d 3e d7 c9 33 3e
       -0.084990084 0.13782649 0.1384859 0.17557465
000290 1c 70 76 bd 10 19 05 bd 59 c9 47 3e 42 0f de 3d
       -0.06016551 -0.032494605 0.19510402 0.10842754
0002a0 f8 7a 75 bd 5f eb 35 3e 46 c4 51 be 38 a1 97 3c
       -0.059931725 0.17765568 -0.20485029 0.018509492
0002b0 99 fc 12 3e a0 e8 c3 bc 74 ca 71 3d c2 ed e7 3d
       0.14354171 -0.023914635 0.059030965 0.113246456
0002c0 b8 84 9c bc 80 ff d1 3a f8 a5 ab bd b9 46 4b 3e
       -0.019106254 0.001602158 -0.083812654 0.19851197
0002d0 78 ae 8e 3c 1b da 2e be 2d 7b bf bd 52 af 5d be
       0.017417178 -0.17075388 -0.09349666 -0.2164891
0002e0 dc c3 15 bd 9d 8c 0a 3e a3 a7 5b 3e ae 36 30 be
       -0.03656374 0.13530202 0.21450667 -0.17208359
0002f0 04 5b 40 bd b8 1a c3 bc f8 e5 d8 3c 50 98 08 bd
       -0.0469618 -0.023816451 0.026476845 -0.03334838
000300 71 3e 2a 3e 3c f5 16 be 6c c1 3d be 28 68 e8 3c
       0.16625382 -0.14741987 -0.18530816 0.028369978
000310 fb 6c 5c 3e 48 0f c6 bc c0 60 b3 bd 7b 90 31 3e
       0.21525948 -0.024177209 -0.08758688 0.17340271
000320 0a 30 85 bd f4 2f 13 be 0e 17 c3 3d ef 60 06 3e
       -0.06503303 -0.14373761 0.09525882 0.13122915
000330 5e 98 3d be 14 79 de bd 00 8a 0f bd 00 63 63 3a
       -0.18515155 -0.108629376 -0.035043716 0.0008674115
000340 85 cb dd bd 27 78 46 be 6a 55 38 be 2a a2 ca 3d
       -0.10829834 -0.19381772 -0.18001333 0.098942116
000350 52 33 0d be a2 8b a7 3d 94 cf da bd 78 50 d8 3c
       -0.13789108 0.0818093 -0.10684124 0.026405558
000360 c8 02 c2 3c 61 c0 0f 3e 6e 38 dd bd fb 3f 45 3e
       0.023682967 0.1403823 -0.10801779 0.19262688
000370 20 8a bd 3b f7 a3 21 be 80 6a 26 bb 28 2f 3f be
       0.005784288 -0.15785204 -0.0025393069 -0.18670332
000380 b6 17 ac bd 5c 5a 1b be f4 2f 09 be f6 64 1e be
       -0.0840296 -0.15171188 -0.13397199 -0.15468201
000390 20 ec 12 3c b4 12 45 3d c4 57 82 bd 4e 47 86 3d
       0.008967429 0.04811354 -0.06364396 0.06556569
0003a0 36 cd ab bd 52 46 a5 3d be 87 86 bd f1 67 46 be
       -0.0838875 0.08070053 -0.065688595 -0.19375588
0003b0 7f 54 0d 3e c4 c5 60 3d 86 6c fe bd 94 b7 c6 bd
       0.13801764 0.054876104 -0.12423043 -0.097029835
0003c0 48 96 d1 bc d8 bb 6e bd 53 ba 4e 3e 5a 66 93 3d
       -0.025584355 -0.05828461 0.20188265 0.071972564
0003d0 49 09 52 3e c0 66 b4 bc 82 ce e9 3d 9d 50 3e be
       0.20511355 -0.022021651 0.11416341 -0.18585439
0003e0 e6 6f 93 3d 42 54 49 be 7e 31 1f be 51 3c 4e be
       0.07199077 -0.19661048 -0.15546224 -0.20140196
0003f0 a8 3e c9 3c 02 b5 a8 bd b3 3c 15 3e f9 15 01 be
       0.02456601 -0.082376495 0.14573936 -0.12606038

arith.constant17 f4 [256, 126]
000000 58 2a ea 3d a8 97 03 3d 84 0d f6 bd a0 4e ba 3c
       0.11433858 0.032127053 -0.12014297 0.02274257
000010 80 19 64 3c 7c a8 90 3d 4c 1b 40 3d 60 a0 c1 bc
       0.013922095 0.07063386 0.046901032 -0.023636043
000020 e2 02 93 bd 02 a1 55 bd dc fd ef bd f0 81 98 3c
       -0.07178284 -0.052155502 -0.11718342 0.018616647
000030 28 49 1b 3d dc 97 4f bd 88 77 9b 3c 12 8f b5 bd
       0.037911564 -0.050681934 0.018977895 -0.08865179
000040 c0 20 d6 bd 60 97 d9 3d 6c 75 b2 bd 00 6f 83 bb
       -0.10455465 0.106245756 -0.08713803 -0.004011035
000050 44 80 18 3d 54 45 8b bd 28 cc 4a bd 50 5b a5 3c
       0.0372317 -0.06800333 -0.049511105 0.020185143
000060 80 ba 0c bd 44 f0 f5 bd ac 29 f4 3d 74 bc 98 3d
       -0.034357548 -0.12008718 0.11922011 0.074578196
000070 52 d4 e9 3d 2c c4 e0 bc c0 9a ad 3c c8 9b 7c bd
       0.1141745 -0.027437292 0.021191955 -0.061672002
000080 1c a5 79 3d f4 83 27 3d 54 da 19 3d a8 71 c0 3c
       0.060948476 0.040897325 0.03756173 0.023491696
000090 5e ec bf bd 54 8d 4a 3d bc 8a fe bc 00 84 88 39
       -0.09371255 0.049451187 -0.031072013 0.0002603829
0000a0 c0 43 d1 3c a0 78 5a 3d 0a 3c 88 3d 54 88 56 3d
       0.025545001 0.053337693 0.066520765 0.052376106
0000b0 16 a8 cc bd 51 53 d3 bd 7c 3b a2 3d 69 36 a5 bd
       -0.09992997 -0.10318626 0.07921502 -0.080670185
0000c0 52 83 c8 bd a4 73 ef 3d c2 b7 aa bd 20 60 a3 bc
       -0.09790672 0.116919786 -0.0833583 -0.019943297
0000d0 d5 1f 89 bd c8 b8 1a 3d d8 e4 41 3d a8 96 97 3d
       -0.066955246 0.037773877 0.047337383 0.07401782
0000e0 50 8f ad bd 56 83 73 bd 44 56 03 bd a8 3c 5b 3d
       -0.084746 -0.059451424 -0.03206469 0.053524643
0000f0 0d 39 b5 bd f8 d7 13 bd 6a b0 ed bd 38 2f fc 3c
       -0.08848772 -0.036094636 -0.11605914 0.030784234
000100 b9 92 a3 bd d0 e9 4e 3d 3a ee 86 bd dc 63 b7 3d
       -0.079869695 0.05051595 -0.06588407 0.089545935
000110 9b a3 f7 bd 50 34 db 3c 08 98 b8 bc 68 c9 b2 3c
       -0.12091752 0.026758343 -0.022533432 0.021824554
000120 7e 68 bb bd b0 f7 35 bd 6f e2 b8 bd 78 87 b2 3d
       -0.0915079 -0.044425666 -0.09027564 0.08717245
000130 64 dd 52 3d 3b b2 e3 bd a0 5c 5a bc ba 1d d2 3d
       0.051480666 -0.11117979 -0.013327748 0.10259576
000140 90 a9 48 3c 48 d9 e3 bc 00 fe ae 3d 10 b2 cd bb
       0.012247458 -0.027813569 0.085445404 -0.00627733
000150 30 0c ef 3c d4 0f 69 3d 0e d5 7f bd 26 ff bb bd
       0.029180616 0.05689986 -0.062459044 -0.09179525
000160 8c 14 52 3d ac 5f f2 bc 84 90 1c bd 80 00 d1 bd
       0.051289126 -0.029586636 -0.03822376 -0.102051735
000170 c0 b6 ba bd c0 15 ec bd 00 96 68 bc d4 e5 53 3d
       -0.09116888 -0.11527586 -0.014195919 0.051732853
000180 a8 db f9 3c 48 3b ba 3d a0 aa 73 3c 18 65 b3 3d
       0.030500248 0.09093338 0.014872223 0.087595165
000190 3e 9d af bd 22 91 d4 3d c2 81 d1 bd 0e c7 e5 bd
       -0.085749134 0.103792444 -0.102298275 -0.11219607
0001a0 66 e5 b4 3d b4 03 2f 3d 12 71 83 3d c0 da 4f bb
       0.08832817 0.04272814 0.06418051 -0.0031716079
0001b0 40 11 e4 ba f2 a2 88 3d 40 c1 90 3c 8e db a9 3d
       -0.001740016 0.06671704 0.017670274 0.0829383
0001c0 6a 72 f0 bd b0 87 f6 3c 12 03 00 be 68 29 7e 3d
       -0.11740573 0.030093998 -0.12501171 0.062051207
0001d0 c8 50 00 bc 0e c4 e0 3d 03 d0 bb bd e6 d8 f0 3d
       -0.00783176 0.109748945 -0.091705345 0.1176012
0001e0 b3 0a ad bd 00 1f 4d ba 0a 04 31 bd b0 a8 91 3d
       -0.08449306 -0.0007824749 -0.043216743 0.07112253
0001f0 e8 5d 9b 3c 78 bd bd 3d c2 59 ec 3d 2c 19 ae bd
       0.018965676 0.09264654 0.115405574 -0.08500895
000200 96 9a 99 3d 8b 09 df bd 86 a1 b2 3d 92 bc 62 bd
       0.07500188 -0.10890492 0.087222144 -0.055355616
000210 50 db e2 3c 32 fb 87 3d c4 ff f3 3d 40 21 a5 3b
       0.027692467 0.066397086 0.11914018 0.005039364
000220 07 59 e7 bd 7c fa 22 3d 28 15 74 3d 3a 7b ce 3d
       -0.112962775 0.03978966 0.05959049 0.10082097
000230 3b 44 80 bd ea 20 b7 3d a4 82 c9 3d 34 86 c8 bd
       -0.06263014 0.08941825 0.09839371 -0.09791222
000240 c2 9d 8f bd 61 06 00 3e 2c 8e 62 3d 93 54 ef bd
       -0.07012512 0.12502433 0.055311367 -0.11686053
000250 fc b7 08 3d f0 26 0c 3c 38 82 69 bd 3e bb 9a 3d
       0.033378586 0.008554205 -0.057008952 0.07555245
000260 b4 a1 93 bd 54 46 8f bc a0 0e 85 3b b5 fb c9 bd
       -0.07208577 -0.01748959 0.0040605813 -0.098624624
000270 f0 a5 6b bc 60 2c a5 3c 48 49 02 bd 60 66 09 bd
       -0.014382824 0.020162761 -0.031808168 -0.033544898
000280 18 75 7f 3d 76 4e 56 bd e9 bd cf bd a4 28 96 bd
       0.06236753 -0.05232092 -0.10143644 -0.0733197
000290 64 44 34 3d c0 0e 64 3b e8 ed 95 3c 00 1d d6 ba
       0.044010535 0.003479883 0.01830192 -0.0016335547
0002a0 a0 f3 3c 3d f6 03 ae 3d 5a 8f 8e bd 58 a6 e3 bc
       0.046130776 0.08496849 -0.06960936 -0.02778928
0002b0 b8 56 99 3c 30 d6 b4 3d 1c 63 bd bc 0a 91 d4 3d
       0.018718109 0.088299155 -0.023118548 0.103792265
0002c0 7a b6 e3 3d 78 f9 0e 3d a4 fe ef bc c0 2b ce bd
       0.11118789 0.03490588 -0.029296227 -0.100669384
0002d0 5e 17 b2 3d fc 54 7d 3d ec f1 4e bd 35 6b c5 bd
       0.08695863 0.061848626 -0.050523683 -0.09639589
0002e0 36 3e ed 3d 90 9a bd bc 86 d8 07 bd a0 1f 82 bb
       0.115841314 -0.02314499 -0.033165477 -0.003971055
0002f0 3a b8 55 bd 95 74 d9 bd b0 1f 42 3c 4e bd a6 3d
       -0.052177645 -0.106179394 0.011848375 0.08141576
000300 b0 aa 99 3c 68 df e4 3d b0 ed 35 3c 30 3c 40 bc
       0.018758148 0.11175424 0.011104032 -0.0117331
000310 a0 46 de bb 8e 30 a7 3d f9 c3 bd bd fa f6 db 3d
       -0.0067833215 0.08163558 -0.092658944 0.107404664
000320 1e ec 81 3d 49 d6 e1 bd a8 3d fe 3d 2a 50 85 bd
       0.06343864 -0.110272 0.12414104 -0.06509431
000330 ac 91 97 bc 6c ca b0 3d 54 e7 f3 3d d9 2d b9 bd
       -0.018502079 0.08632359 0.11909357 -0.09041948
000340 34 df 4a 3d 70 03 81 bc 92 96 80 bd 08 9a b9 3c
       0.04952927 -0.01574871 -0.06278719 0.022656456
000350 98 82 93 bd e0 11 ce 3d 7c f9 47 3d c5 c3 f3 bd
       -0.07202643 0.10062003 0.04882191 -0.119025744
000360 20 df b1 3d 16 3d 28 bd 88 51 55 bc 1c f3 c5 3d
       0.08685136 -0.04107388 -0.013019927 0.0966551
000370 84 1a 0e 3d 98 b7 3f bc 52 69 c2 3d 30 6d c6 3d
       0.034693256 -0.011701487 0.094927445 0.096887946
000380 44 25 7a bd 4c 69 b2 bd f4 d0 b0 3d d0 e4 69 3d
       -0.061070696 -0.0871149 0.08633605 0.05710298
000390 2a 4a ed bd cc ed 1d 3d 64 36 2b 3d f0 ad f2 3d
       -0.11586411 0.03855686 0.041799918 0.11849582
0003a0 d4 ed 44 3d 00 9d f6 3d 04 56 f6 3d 9a 82 0e bd
       0.048078373 0.12041664 0.12028125 -0.03479252
0003b0 64 e4 81 bc 40 5d 4e bc c4 66 ce 3d 4c e9 a6 bd
       -0.015855975 -0.012595475 0.10078195 -0.081499666
0003c0 cc e0 7b 3d 90 04 3d bc 80 35 91 bc c4 c3 08 bd
       0.06149368 -0.011536732 -0.017725706 -0.03338982
0003d0 5c dd a6 bd 50 ee c8 3c 37 68 9d bd 9a 0e c3 3d
       -0.0814769 0.024527699 -0.07685893 0.095242694
0003e0 c8 b4 46 bc 84 5b 60 bd 92 8b db bd d0 9e 8a bb
       -0.012128063 -0.054774776 -0.1071998 -0.0042303577
0003f0 ae 55 09 bd 20 f2 3c bc 60 6d 0d 3d ca a9 9e 3d
       -0.033528976 -0.0115323365 0.034528136 0.077472284

arith.constant18 f4 [256, 64]
000000 b0 3d c1 bd 88 f5 52 bd 98 6d 38 3c 7f 12 ec bd
       -0.09435594 -0.051503688 0.011256598 -0.11526965
000010 5c 00 fd bb 78 ef 75 bc e0 2d 8d bc bc 6d 90 3c
       -0.00772099 -0.015010707 -0.017233789 0.01763045
000020 fa 44 a9 3d 0c 77 4f bd b6 8e 69 bc 8e 5c c5 3d
       0.08265109 -0.05065064 -0.014255216 0.09636794
000030 98 42 92 3d 9b ad 70 3d f4 cd fe 3c b6 24 b1 3c
       0.07141608 0.058759313 0.031104065 0.02162395
000040 5e 9e 9c bd 60 e3 cf 3b 99 f7 a5 3d 60 75 b9 bb
       -0.07647394 0.006344244 0.08103866 -0.005659744
000050 34 6d dc bb 1d 16 d9 3c 2c 11 0f bd 34 f4 1c 3d
       -0.006726885 0.026499802 -0.034928486 0.038318828
000060 28 f9 52 3d 4b c9 1f 3e b5 05 7b 3d 38 91 a5 bb
       0.051507145 0.15604131 0.06128474 -0.005052712
000070 d0 57 2f bd 98 10 39 bc a8 85 cb 3c d1 a4 1c 3d
       -0.042808354 -0.01129546 0.024844006 0.03824312
000080 1d ac 52 3d 00 f3 ab 3d 1e 28 aa 3d c0 13 81 3d
       0.05143367 0.08395958 0.08308433 0.06302595
000090 31 2a 40 3d da e0 92 3d ce 85 de bc 98 8d 92 bc
       0.046915237 0.07171793 -0.027163412 -0.017889783
0000a0 d0 66 d7 bd a0 2e 90 3d 7a e3 9e bc d4 74 c4 bb
       -0.10517657 0.07040143 -0.019395579 -0.0059953723
0000b0 02 1f 42 bd 24 3a c1 3c 78 f4 0a bd 74 fd 93 bc
       -0.047392853 0.023587294 -0.03392455 -0.018065192
0000c0 7c 6e 78 bc 4d 6a 14 3d 57 8b 03 be ae 37 87 3d
       -0.01516306 0.03623419 -0.12846123 0.06602417
0000d0 13 b3 f8 3d 6c 21 94 bd 75 43 15 3c 7d 04 7a 3d
       0.12143531 -0.07232937 0.009110321 0.061039437
0000e0 8c 34 62 bd 22 88 a1 bc 4f ae d9 bc 53 ce 40 3d
       -0.055225894 -0.019718233 -0.026572375 0.047071766
0000f0 aa bd b9 bd 20 c9 da bb b4 4d ac bb 99 bd 0c be
       -0.09069379 -0.006676808 -0.0052582864 -0.13744201
000100 43 4f 87 bc 98 98 1e be 3f 43 b1 3d 4b 49 af 3c
       -0.016517287 -0.15487897 0.08655404 0.021397253
000110 0e fd c2 39 0d a0 cb bd d4 6e 39 3d 39 90 ab 3c
       0.00037191104 -0.09942637 0.04527171 0.020942794
000120 b8 b7 43 bd a6 1b b0 bd e0 f6 71 bd 05 da a2 3c
       -0.04778263 -0.085990235 -0.05907333 0.01987935
000130 51 b5 40 3d e7 fc f3 bc 9f d7 12 3d 1d 8a ff 3c
       0.047047917 -0.02978368 0.035850164 0.031193787
000140 f3 7a cc 3b 99 22 03 3d 52 d8 93 3b 32 85 1f 3d
       0.0062402426 0.032015417 0.0045118714 0.038945384
000150 2e 75 bc 3b 25 9d 42 3e 08 e4 a0 3d 87 5b c3 3a
       0.0057512736 0.19005258 0.078559935 0.0014904597
000160 3e 1d 28 bd cf 87 7b 3d c2 79 51 bd 0c 93 1f 3b
       -0.041043513 0.061408814 -0.051141508 0.0024349121
000170 98 91 7f 3d e4 ac 5c 3c 7c f2 92 bb 5b ce 46 3c
       0.06239471 0.013468955 -0.004484473 0.01213416
000180 d7 08 26 bd aa ac 3a bd c4 3c 12 bc 0a 98 8c 3d
       -0.040535774 -0.04557482 -0.0089256205 0.06864937
000190 bb b4 26 3d fc 66 99 bd 42 7a e9 bc e5 c2 ae 3c
       0.0406997 -0.07490346 -0.02850068 0.021333167
0001a0 0c d0 da 3c 99 9a 5a 3d c5 32 82 3d b6 c2 0b 3c
       0.026710533 0.053370092 0.0635734 0.008530309
0001b0 55 b7 c0 3d 5e 61 ae bc d1 15 64 3d 0a 69 da ba
       0.09409968 -0.021286663 0.05568487 -0.0016663384
0001c0 55 58 5a bc 7f 0c 68 bd 9a 40 e0 bd 8b a4 47 bd
       -0.013326724 -0.056652542 -0.10949822 -0.048740905
0001d0 23 fe 81 3d e5 0c 51 bc 18 a9 8d bc c0 cc f0 3d
       0.06347301 -0.012759422 -0.017292544 0.11757803
0001e0 0c fb 23 bd f0 ad 09 bd fa da e3 3c c5 7a 3e 3d
       -0.04003434 -0.033613145 0.027814377 0.0465038
0001f0 c0 bf dc bc 7d bc 3f 3d d2 34 dc bc a5 b2 9c bc
       -0.026946902 0.046810616 -0.026880655 -0.019128153
000200 38 38 5e bd 92 34 bc bd e0 0b 8f bd 07 0e 2f bc
       -0.054252833 -0.091897145 -0.06984687 -0.010684497
000210 6f 23 2c bd 7f 53 7f bd b7 54 39 bd 08 ac 47 3c
       -0.04202598 -0.062335487 -0.045246806 0.012187012
000220 d6 4b 57 bd e9 ec 62 bd ae 18 da bd e2 2b 8e 3d
       -0.052562557 -0.055401716 -0.106492385 0.06941964
000230 3a 04 4d 3b 61 35 25 3c f7 23 9e bd 58 d6 0b bd
       0.0031283037 0.010083527 -0.077217035 -0.03413996
000240 b8 66 c4 bd be c5 e3 bc 59 81 fa bd fc bd 2f 3d
       -0.095899045 -0.027804252 -0.12231702 0.042905793
000250 f7 df 84 3d 0c 74 39 bd 32 f0 3f 3d 60 4c 23 3a
       0.064880304 -0.045276687 0.046859927 0.00062293373
000260 89 ec c2 bd 18 26 49 bd cd 27 88 3d 9c 5f d7 bd
       -0.09517772 -0.049108595 0.066482164 -0.10516283
000270 9f 43 e8 3d 56 e9 7a bc 99 74 82 3d fa 75 0f 3d
       0.11341023 -0.015314421 0.063698955 0.03502462
000280 f2 6c ac 3d 32 11 70 3d 90 f9 11 3a 0a 8f df bc
       0.08419217 0.05861015 0.0005568499 -0.027289886
000290 0d e2 8a 3d fe 87 12 3d 56 46 41 3d 50 14 a6 3d
       0.06781397 0.035774224 0.04718622 0.08109343
0002a0 c9 ca 39 3b e4 3a 11 bd d8 02 39 bd e0 b1 52 bc
       0.002834963 -0.035456553 -0.045168728 -0.0128597915
0002b0 a4 33 5e 3d 6e 7d 67 3c 4e cd df bb 5f 82 de bb
       0.054248467 0.014129026 -0.006829894 -0.006790444
0002c0 90 83 52 3d f7 a6 cb 3d 2c 10 df bc 13 20 ab bd
       0.051395 0.099439554 -0.027229391 -0.08355727
0002d0 35 af ac 3d 24 a7 f9 3c e4 13 a8 bd d8 14 1c 3d
       0.084318556 0.030475207 -0.08206919 0.038105816
0002e0 ec 77 cf bd 9b da 11 bd 64 2f c8 3c b5 cf 14 3d
       -0.10130295 -0.03560887 0.02443666 0.036330897
0002f0 da b8 ba bd f6 8b e8 bc a2 ca c0 bc d5 cb e3 3d
       -0.09117289 -0.028387051 -0.023534123 0.11122862
000300 aa b7 12 3d 73 0e 9b bd ce 2e 13 3d 80 50 a8 3c
       0.035819687 -0.07571115 0.03593331 0.020546198
000310 61 b9 7f 3d f0 d1 63 bd 7c f7 c5 3c c6 cf 43 bb
       0.06243265 -0.055620134 0.024165861 -0.0029878481
000320 a7 1d 23 3d ac e2 4b bd 93 58 02 3d 8d b3 cd bc
       0.0398232 -0.049776718 0.031822752 -0.02511003
000330 18 90 5a bd 24 5b 0e be 59 ee ad 3b 74 f0 11 3c
       -0.053360075 -0.13901955 0.0053079543 0.008907426
000340 f7 f4 9f bd 50 a6 5d 3d 67 1f 3c bd 22 cb a3 3b
       -0.07810395 0.054113686 -0.045928385 0.0049985806
000350 e9 61 2a bd 3e 90 df bc b6 5e ad 3d bf 70 a5 3d
       -0.04159728 -0.02729046 0.0846533 0.08078145
000360 87 35 89 3c 51 fc e7 3d f2 55 64 3c e8 e6 79 3d
       0.016749157 0.113274224 0.013936507 0.061011225
000370 90 24 d3 bd b0 20 3b bc 6a b2 01 bd 5f 18 09 3d
       -0.10309708 -0.0114213675 -0.03166429 0.033470508
000380 19 fc 58 bd b7 93 34 3d d7 9d 91 3d 06 ce 28 bd
       -0.052974794 0.044086184 0.07110184 -0.041212104
000390 61 ea 42 3b f9 72 c3 3d df 79 04 3e e8 46 bd 3d
       0.0029741751 0.09543414 0.12937115 0.0924204
0003a0 7d 85 8a 3c 1d 34 97 3c f7 ee b0 bd 15 9c 91 3d
       0.016909355 0.018457467 -0.08639329 0.071098484
0003b0 4c a8 46 bc 42 77 d4 bd c8 dd 6e 3c f8 57 97 bd
       -0.012125086 -0.10374309 0.014579244 -0.073898256
0003c0 ba b4 f1 bb f4 6f e9 3d 71 13 8a 3d 41 5e db 3d
       -0.0073762806 0.113983065 0.067419894 0.10711337
0003d0 36 08 58 bc a9 5e ab 3c 9d 29 ea 3c cf aa ce 3d
       -0.013185551 0.02091916 0.028584296 0.10091173
0003e0 91 07 09 3e 6b 9b 69 3c ff cd ed 3c 48 c8 f9 3c
       0.13381793 0.014258246 0.02902889 0.03049101
0003f0 19 70 a7 bd e1 71 d9 3c 35 7e a4 bb 53 34 94 bd
       -0.08175678 0.02654356 -0.005019928 -0.072365426

sequential_1/lstm_1/while/lstm_cell_1/add_1/ReadVariableOp f4 [256]
000000 00 00 00 00 00 00 00 00 00 00 00 00 00 00 00 00
       0.0 0.0 0.0 0.0
000010 00 00 00 00 00 00 00 00 00 00 00 00 00 00 00 00
       0.0 0.0 0.0 0.0
000020 00 00 00 00 00 00 00 00 00 00 00 00 00 00 00 00
       0.0 0.0 0.0 0.0
000030 00 00 00 00 00 00 00 00 00 00 00 00 00 00 00 00
       0.0 0.0 0.0 0.0
000040 00 00 00 00 00 00 00 00 00 00 00 00 00 00 00 00
       0.0 0.0 0.0 0.0
000050 00 00 00 00 00 00 00 00 00 00 00 00 00 00 00 00
       0.0 0.0 0.0 0.0
000060 00 00 00 00 00 00 00 00 00 00 00 00 00 00 00 00
       0.0 0.0 0.0 0.0
000070 00 00 00 00 00 00 00 00 00 00 00 00 00 00 00 00
       0.0 0.0 0.0 0.0
000080 00 00 00 00 00 00 00 00 00 00 00 00 00 00 00 00
       0.0 0.0 0.0 0.0
000090 00 00 00 00 00 00 00 00 00 00 00 00 00 00 00 00
       0.0 0.0 0.0 0.0
0000a0 00 00 00 00 00 00 00 00 00 00 00 00 00 00 00 00
       0.0 0.0 0.0 0.0
0000b0 00 00 00 00 00 00 00 00 00 00 00 00 00 00 00 00
       0.0 0.0 0.0 0.0
0000c0 00 00 00 00 00 00 00 00 00 00 00 00 00 00 00 00
       0.0 0.0 0.0 0.0
0000d0 00 00 00 00 00 00 00 00 00 00 00 00 00 00 00 00
       0.0 0.0 0.0 0.0
0000e0 00 00 00 00 00 00 00 00 00 00 00 00 00 00 00 00
       0.0 0.0 0.0 0.0
0000f0 00 00 00 00 00 00 00 00 00 00 00 00 00 00 00 00
       0.0 0.0 0.0 0.0
000100 00 00 80 3f 00 00 80 3f 00 00 80 3f 00 00 80 3f
       1.0 1.0 1.0 1.0
000110 00 00 80 3f 00 00 80 3f 00 00 80 3f 00 00 80 3f
       1.0 1.0 1.0 1.0
000120 00 00 80 3f 00 00 80 3f 00 00 80 3f 00 00 80 3f
       1.0 1.0 1.0 1.0
000130 00 00 80 3f 00 00 80 3f 00 00 80 3f 00 00 80 3f
       1.0 1.0 1.0 1.0
000140 00 00 80 3f 00 00 80 3f 00 00 80 3f 00 00 80 3f
       1.0 1.0 1.0 1.0
000150 00 00 80 3f 00 00 80 3f 00 00 80 3f 00 00 80 3f
       1.0 1.0 1.0 1.0
000160 00 00 80 3f 00 00 80 3f 00 00 80 3f 00 00 80 3f
       1.0 1.0 1.0 1.0
000170 00 00 80 3f 00 00 80 3f 00 00 80 3f 00 00 80 3f
       1.0 1.0 1.0 1.0
000180 00 00 80 3f 00 00 80 3f 00 00 80 3f 00 00 80 3f
       1.0 1.0 1.0 1.0
000190 00 00 80 3f 00 00 80 3f 00 00 80 3f 00 00 80 3f
       1.0 1.0 1.0 1.0
0001a0 00 00 80 3f 00 00 80 3f 00 00 80 3f 00 00 80 3f
       1.0 1.0 1.0 1.0
0001b0 00 00 80 3f 00 00 80 3f 00 00 80 3f 00 00 80 3f
       1.0 1.0 1.0 1.0
0001c0 00 00 80 3f 00 00 80 3f 00 00 80 3f 00 00 80 3f
       1.0 1.0 1.0 1.0
0001d0 00 00 80 3f 00 00 80 3f 00 00 80 3f 00 00 80 3f
       1.0 1.0 1.0 1.0
0001e0 00 00 80 3f 00 00 80 3f 00 00 80 3f 00 00 80 3f
       1.0 1.0 1.0 1.0
0001f0 00 00 80 3f 00 00 80 3f 00 00 80 3f 00 00 80 3f
       1.0 1.0 1.0 1.0
000200 00 00 00 00 00 00 00 00 00 00 00 00 00 00 00 00
       0.0 0.0 0.0 0.0
000210 00 00 00 00 00 00 00 00 00 00 00 00 00 00 00 00
       0.0 0.0 0.0 0.0
000220 00 00 00 00 00 00 00 00 00 00 00 00 00 00 00 00
       0.0 0.0 0.0 0.0
000230 00 00 00 00 00 00 00 00 00 00 00 00 00 00 00 00
       0.0 0.0 0.0 0.0
000240 00 00 00 00 00 00 00 00 00 00 00 00 00 00 00 00
       0.0 0.0 0.0 0.0
000250 00 00 00 00 00 00 00 00 00 00 00 00 00 00 00 00
       0.0 0.0 0.0 0.0
000260 00 00 00 00 00 00 00 00 00 00 00 00 00 00 00 00
       0.0 0.0 0.0 0.0
000270 00 00 00 00 00 00 00 00 00 00 00 00 00 00 00 00
       0.0 0.0 0.0 0.0
000280 00 00 00 00 00 00 00 00 00 00 00 00 00 00 00 00
       0.0 0.0 0.0 0.0
000290 00 00 00 00 00 00 00 00 00 00 00 00 00 00 00 00
       0.0 0.0 0.0 0.0
0002a0 00 00 00 00 00 00 00 00 00 00 00 00 00 00 00 00
       0.0 0.0 0.0 0.0
0002b0 00 00 00 00 00 00 00 00 00 00 00 00 00 00 00 00
       0.0 0.0 0.0 0.0
0002c0 00 00 00 00 00 00 00 00 00 00 00 00 00 00 00 00
       0.0 0.0 0.0 0.0
0002d0 00 00 00 00 00 00 00 00 00 00 00 00 00 00 00 00
       0.0 0.0 0.0 0.0
0002e0 00 00 00 00 00 00 00 00 00 00 00 00 00 00 00 00
       0.0 0.0 0.0 0.0
0002f0 00 00 00 00 00 00 00 00 00 00 00 00 00 00 00 00
       0.0 0.0 0.0 0.0
000300 00 00 00 00 00 00 00 00 00 00 00 00 00 00 00 00
       0.0 0.0 0.0 0.0
000310 00 00 00 00 00 00 00 00 00 00 00 00 00 00 00 00
       0.0 0.0 0.0 0.0
000320 00 00 00 00 00 00 00 00 00 00 00 00 00 00 00 00
       0.0 0.0 0.0 0.0
000330 00 00 00 00 00 00 00 00 00 00 00 00 00 00 00 00
       0.0 0.0 0.0 0.0
000340 00 00 00 00 00 00 00 00 00 00 00 00 00 00 00 00
       0.0 0.0 0.0 0.0
000350 00 00 00 00 00 00 00 00 00 00 00 00 00 00 00 00
       0.0 0.0 0.0 0.0
000360 00 00 00 00 00 00 00 00 00 00 00 00 00 00 00 00
       0.0 0.0 0.0 0.0
000370 00 00 00 00 00 00 00 00 00 00 00 00 00 00 00 00
       0.0 0.0 0.0 0.0
000380 00 00 00 00 00 00 00 00 00 00 00 00 00 00 00 00
       0.0 0.0 0.0 0.0
000390 00 00 00 00 00 00 00 00 00 00 00 00 00 00 00 00
       0.0 0.0 0.0 0.0
0003a0 00 00 00 00 00 00 00 00 00 00 00 00 00 00 00 00
       0.0 0.0 0.0 0.0
0003b0 00 00 00 00 00 00 00 00 00 00 00 00 00 00 00 00
       0.0 0.0 0.0 0.0
0003c0 00 00 00 00 00 00 00 00 00 00 00 00 00 00 00 00
       0.0 0.0 0.0 0.0
0003d0 00 00 00 00 00 00 00 00 00 00 00 00 00 00 00 00
       0.0 0.0 0.0 0.0
0003e0 00 00 00 00 00 00 00 00 00 00 00 00 00 00 00 00
       0.0 0.0 0.0 0.0
0003f0 00 00 00 00 00 00 00 00 00 00 00 00 00 00 00 00
       0.0 0.0 0.0 0.0
