ai/models/sign_classifier_word.tflite (tflite, 620572 bytes, 7 tensors)

arith.constant f4 [128]
00000000: 0315 3bbe 24f2 1ebe beae edbc 7ae9 023e
00000010: ef78 613e ef1b 4a3e 9fa2 663e ee2a 5bbe
00000020: 9c90 9e3e f394 483f 7236 de3e e573 c43d
00000030: f545 113e 89d5 8f3e 0fed f33e cda7 363d
00000040: 4cb7 b43e 15cd 103a c89f 0abd 3524 a13d
00000050: 1594 733e 0b7a 133e 9b96 96bd 9e4f d03e
00000060: f3c8 e53d de1e ec3d 1a80 16be 1ba3 053e
00000070: 787f 023e f4bf 7a3e beeb 133e 43ac bfbd
00000080: d3d9 943e 90a2 d7be 1d4e 8e3d b955 dd3e
00000090: 8a9e b13e d7e1 d8bd 1610 60be 696f 663e
000000a0: 6a9c c43c 785b dabe 60f3 bdbc e79c 35be
000000b0: ab3d 0dbe cbd9 ef3e 52de 69be bf6d debd
000000c0: 011f 3e3e be56 813d 7440 8a3e d64d 543e
000000d0: 461a 23be 6bba f03e 2337 a83e 4c45 2d3d
000000e0: 6f82 353e 3402 be3e 887a c93d 02ba 433e
000000f0: c142 18be 9410 8e3e b4af 963c fe1e 9b3e
00000100: 4c2b 683d d79a 533e 2f00 233e abe1 9f3e
00000110: cb8d aa3e f0b3 d63e 960b 333e a0e7 043c
00000120: 3c4e d4be dd18 e4bd cdf8 4e3e aab1 1b3e
00000130: 48ac 3dbe 52f3 5d3d 9047 bbbe 35a7 4abe
00000140: a8e0 353e 3d38 103d b423 0a3f ada4 403d
00000150: d5a8 743e 8266 b9bd 1ddb 52be ca5c 563c
00000160: 90b7 d73e 75c2 e9bd f54d bd3e 99af 70be
00000170: ce94 373e a344 453d 2ea8 92be 87c1 88be
00000180: 52b4 85bd d9ad 47bb 9f39 6c3e e06a 1e3e
00000190: 346f 013e d6bf b83e e758 b83c 045b a2be
000001a0: 3690 a43d 0909 43be 913e 433e 1739 c5bd
000001b0: 4dab 653e 59ee 37bc 66e6 c0bd 62e7 853d
000001c0: 9601 0d3d cdfb 353e be84 b53e 062d 1e3d
000001d0: d68d c63d da86 803e f683 00be aaa9 c73e
000001e0: 2d4d c43e ef5c 8ebe 7fce ebbe c178 82be
000001f0: a383 06bd 9bbd 583e 3d0b c93e aef6 653e
-0.18269734 -0.15522057 -0.029013988 0.12784377 0.22018789 0.19737218 0.22522973 -0.21403095
0.30969703 0.7835228 0.43400913 0.09592418 0.14186843 0.28092602 0.476418 0.04459362
0.35296094 0.00055237237 -0.033843786 0.07868234 0.23786958 0.14402024 -0.073529445 0.40685743
0.11219969 0.11529325 -0.14697304 0.13050501 0.12743938 0.24487287 0.14445397 -0.09359028
0.29072437 -0.42116213 0.06948493 0.43229464 0.34691268 -0.105899505 -0.21881136 0.22503437
0.024000365 -0.4264791 -0.02318734 -0.17735635 -0.13793056 0.4684585 -0.22838715 -0.10860776
0.18566515 0.06315373 0.270023 0.20732817 -0.15927991 0.47017226 0.32854566 0.042302415
0.17725538 0.37111056 0.09837824 0.19113925 -0.14869215 0.27747023 0.018394329 0.30297083
0.056681916 0.20664535 0.15918039 0.31226858 0.33311304 0.41934156 0.17484888 0.008111864
-0.41465938 -0.11137555 0.20212097 0.15204492 -0.18522751 0.054187126 -0.36578035 -0.19790347
0.17761481 0.035209883 0.5396073 0.047032047 0.2389253 -0.09052755 -0.20591398 0.013083646
0.42132235 -0.11414043 0.3697354 -0.23504485 0.17927858 0.04816116 -0.28643936 -0.2671015
-0.06528534 -0.0030468612 0.23068856 0.15470457 0.12640077 0.3608386 0.02250333 -0.31710064
0.080353186 -0.19046415 0.19066836 -0.0963003 0.22428627 -0.01122626 -0.09418945 0.065382734
0.03442534 0.17771836 0.35452837 0.038617156 0.09695022 0.25102884 -0.12550339 0.3899663
0.3834013 -0.27805278 -0.46055982 -0.25482753 -0.032840382 0.21166079 0.39266387 0.22457382

arith.constant1 f4 [40]
00000000: 3a00 d2be f0b2 cabe 8640 7cbf fd36 bebe
00000010: 1fe7 9fbe f931 10bf 1c77 bcbe 0a67 6ebf
00000020: ebbc 93bd ee8e 99bd 076d 8d3e 9316 86be
00000030: 4820 0dbb aea3 0dbf b600 e7be 78e5 fcbe
00000040: a721 7fbe c5db 963e d235 283c 93c0 363e
00000050: 1563 943e df69 dd3e 317b b0be bb56 c03d
00000060: cbef 093f 6681 82be 2513 45bf 4ecf d6be
00000070: 07a6 e03d b36f 2dbe 4ebf 8abd f1af b03e
00000080: fe45 913e 7b84 88bd 5c38 8bbe 3488 bc3e
00000090: 625d 07be 6a60 973f 97de 8abd 9a37 5c3e
-0.41015798 -0.39589643 -0.98535955 -0.37151328 -0.3123102 -0.5632625 -0.36809623 -0.93125975
-0.072137676 -0.07497965 0.27622244 -0.26189098 -0.0021534134 -0.5532788 -0.4511773 -0.4939382
-0.24915181 0.29464546 0.010266738 0.17846899 0.28981844 0.43244836 -0.34468988 0.093915425
0.5388152 -0.25489348 -0.7698234 -0.41955036 0.10969167 -0.16937141 -0.0677477 0.34509233
0.28373712 -0.06665894 -0.27191436 0.36822665 -0.13219216 1.1826298 -0.06780737 0.21505585

arith.constant5 f4 [40, 128]
00000000: f2de f53d 7129 d53d 6c4e c4be 0240 2cbf
00000010: 4cb8 6a3d 5cb0 efbe 0c72 d0be 0aac 6c3e
00000020: 9aff 18bf 4bd9 37bf 757f 2bbf e4a4 2fbe
00000030: 20ab 05be 8cfc d2bf 9ec7 8fbf a6d9 2fbe
00000040: ec4a 18bf e731 653e 871b 0ebf 5477 ccbe
00000050: dd84 5e3e ed46 a0be 96e5 48be 9934 bfbe
00000060: 5a0f 55be 511c bb3d 694c aebe 49ae 3fbe
00000070: 8ee1 97bf dfd5 203e 8c67 f1be 81cb c4be
00000080: 502b 32bf c698 203e 1cf3 19bf 593a 4cbb
00000090: 089d b3be e104 e43d dd56 a1be 35fe 4cbd
000000a0: 72cd d43d 2463 193e 2b73 32bf 7d13 1a3e
000000b0: bcf0 44be 0d56 ec3d c6b9 22bf 216b 623e
000000c0: d972 42be 8b9a 213d 479d e13c 275f d7be
000000d0: 803b 1c3e 4d9a 01bf 2ab1 613e d254 22be
000000e0: 2c7b 44bf 2df0 abbd 1931 19bf d5d8 d83d
000000f0: c282 febe c378 f13c 0f92 cdbe 839a fdbe
00000100: bcb3 b2be 4051 eb3d 3326 1e3d 6c20 eabe
00000110: ce73 c1be e22f 1cbd 4736 893c fa3d 5cbd
00000120: 2717 843e 02ea 1fbf 6937 113e 4fdd 89be
00000130: 9047 ccbd 036b 2ebf 6eac 9dbe ab2a 0fbd
00000140: 98f1 393d 53a0 1cbd 2dba 17bf b6be afbe
00000150: 0508 49be 66b4 93bd 9928 bebe 8c08 453e
00000160: 4c6f d7be d011 f63d b5e4 81be 0c4a 6ebe
00000170: b2a1 73bf 3e3e 103d d532 393e a1fe 3a3e
00000180: c9b5 3a3e 45a3 243e 6eae 96bd acee 273e
00000190: a31f 11be a50a 6bbe 69a8 393e ebf5 81be
000001a0: a39e f6be 520d efbe 2d13 803d a0b2 883e
000001b0: 770c 09bf 75d0 853e c68e f93d 1a86 ad3e
000001c0: 760d ffbd ca6d 30be 4f71 18bf ea2c 54be
000001d0: f0d2 20bf 27ef 96bf e82e c73d 52fa 69bf
000001e0: 2c46 37be 1ded e43d 3606 283e 1cf5 62bd
000001f0: 9c50 bfbf b678 93be 1609 aebf 2f86 93be
00000200: 88be f73d c37d 703d 7450 a93c 54e1 c33d
00000210: b440 48bc 29ec 29bf c6ef a8be dfa7 533e
00000220: ca29 95bf e1ed adbe b26a 1bbf 9a9c b03d
00000230: 1b66 1abe f258 52be 67a9 75bf 2249 bd3d
00000240: bcfa 00bf 4870 463e 0a9e 20bd c594 a8bd
00000250: 19ed a63b fadc 95bd ed29 2fbf a823 08bf
00000260: 3a23 2cbd ad42 6cbd 851d 2c3d 7afa 30bf
00000270: d3be 38bf 73c2 34be a3d7 d6be bdde f33d
00000280: f009 8ebe 4338 593e 2aa3 8bbe e8ce e9be
00000290: 7c90 f8be 8638 9b3d 7c44 84be f8d2 dabe
000002a0: 9b2a 4d3d 034a b23d 61b8 1ebe 5c2f 82be
000002b0: e67b f0bd 503b 84be ac6b 28bf 8f75 6e3e
000002c0: 37e2 263e d0c7 88be 2450 d63d 8d03 87bd
000002d0: 7695 823e 7ea4 7abf 3fd5 ad3d 75d1 903e
000002e0: bb08 e93d 7681 e0be 8556 6dbf a257 73bd
000002f0: 1e1b 923d 854d 413e 2489 1bbe 7337 8bbe
00000300: 9fa7 a3bd 23a1 623e 0cb0 40be 894a 183e
00000310: 8297 84bf b67c 85be b34d bd3d 9651 5c3e
00000320: 4888 733e 462f 31bd 80eb a0be d3c8 9bbe
00000330: a104 54be 40ec 64be c5db 653e 8166 fa3d
00000340: 2af2 ca3d 07e3 41be 24bf 19be ef95 73be
00000350: bddf 95be 7995 af3c b475 e3bc c3b9 2a3e
00000360: c338 9cbe 516a e1bd 08b4 2bbe 2418 14bf
00000370: 8b96 bebe 0d04 c13d 9c62 313e 23ac 2d3d
00000380: 2704 143e 6561 943d eaa7 19bf 0522 06be
00000390: 87e0 9d3d 4eb1 a2be 07f8 423e a658 ad3a
000003a0: b75c 4abd 126f 8abd b615 093e 6931 223e
000003b0: 1b40 1cbf 70c6 8b3e 6c5d fc3d 0d4a e9bc
000003c0: f2d4 02bf 45d9 32bf 0d94 32bf 5e56 2fbe
000003d0: 090d 64bf 4043 81be 18d6 d8be d1fb 76bf
000003e0: 1667 8fbe a426 a73d 7bea ff3d e03c 84bd
000003f0: 0162 68bf cd4c 05be 99cf 96bf 476d adbe
0.12005414 0.10408295 -0.3834108 -0.6728517 0.057304665 -0.4681424 -0.4071201 0.23112503
-0.5976502 -0.7181594 -0.6699136 -0.17152745 -0.1305356 -1.6483321 -1.1232793 -0.1717287
-0.5948932 0.22382317 -0.55510753 -0.3993479 0.21730371 -0.31304112 -0.1961883 -0.37344816
-0.20806637 0.0913626 -0.3404267 -0.18718828 -1.1865709 0.15706585 -0.47149312 -0.3843651
-0.6959734 0.15683278 -0.6013658 -0.0031162708 -0.35080743 0.11133743 -0.31511584 -0.05004712
0.10390748 0.14979225 -0.6970698 0.15046497 -0.19232458 0.115398504 -0.6356472 0.22111179
-0.18989123 0.039454024 0.027540816 -0.42064783 0.15257072 -0.5062607 0.22040239 -0.15852669
-0.76750445 -0.08395419 -0.5984054 0.105882324 -0.49709135 0.029476529 -0.40150496 -0.49531946
-0.3490275 0.114901066 0.03861065 -0.4572786 -0.37783664 -0.038131602 0.016749514 -0.053770043
0.25798914 -0.6246644 0.14181294 -0.26926658 -0.09974587 -0.68132037 -0.30795616 -0.0349528
0.045396417 -0.038238835 -0.59268457 -0.34325188 -0.19631965 -0.07212143 -0.3714035 0.19241542
-0.420771 0.12015116 -0.25369802 -0.23270434 -0.951686 0.03521561 0.18085797 0.18261196
0.18233408 0.16077907 -0.073574886 0.1639964 -0.14172225 -0.2295328 0.1813065 -0.25382933
-0.48167905 -0.4668985 0.062536575 0.2669878 -0.53534645 0.26135603 0.12185435 0.33891374
-0.12453739 -0.17229381 -0.59547895 -0.20720258 -0.62821865 -1.1791734 0.097257435 -0.91397583
-0.17897862 0.11178038 0.1640862 -0.055409536 -1.4946475 -0.28803033 -1.3596523 -0.2881331
0.12096888 0.058713686 0.020668246 0.09564462 -0.012222458 -0.66375977 -0.32995433 0.20669506
-1.1653378 -0.3397055 -0.6070968 0.086236194 -0.15078013 -0.20541742 -0.9596161 0.092424646
-0.5038259 0.1937877 -0.039213218 -0.082315005 0.005094182 -0.073175386 -0.6842335 -0.5317941
-0.042025782 -0.057680774 0.04202034 -0.69132197 -0.72166175 -0.17652301 -0.41961393 0.11907718
-0.27741957 0.21212868 -0.27272922 -0.4566567 -0.48547733 0.0757914 -0.258335 -0.4273908
0.05008946 0.08705523 -0.15500022 -0.25426757 -0.11742382 -0.25826502 -0.65789294 0.23287033
0.16297232 -0.26714945 0.10464504 -0.06592474 0.25504655 -0.97907245 0.08487939 0.28284803
0.11378618 -0.4384877 -0.92710143 -0.059409745 0.071340784 0.18877228 -0.15189034 -0.27190742
-0.079909556 0.22131781 -0.18817157 0.14872183 -1.0358737 -0.2607171 0.092433356 0.21515498
0.23782456 -0.043257974 -0.31429672 -0.30426654 -0.20704891 -0.22355747 0.22447117 0.12226582
0.099094704 -0.1893426 -0.1501432 -0.23787664 -0.2927226 0.021433579 -0.027766086 0.16672425
-0.30512056 -0.11006606 -0.16767895 -0.57849336 -0.3722423 0.09424601 0.17322773 0.04240049
0.14454709 0.07245139 -0.6002184 -0.13098915 0.07708841 -0.31775898 0.19039927 0.0013225272
-0.049404826 -0.06759466 0.13387188 0.15839161 -0.6103532 0.27299833 0.12322506 -0.028477693
-0.5110618 -0.69862777 -0.6975716 -0.1712279 -0.8908239 -0.2524662 -0.4235084 -0.9647799
-0.28008336 0.08161667 0.124958955 -0.064569235 -0.9077454 -0.13017578 -1.1782104 -0.33872434

arith.constant6 f4 [128, 128]
00000000: 8dc6 333e 190e 8b3e bf38 18bd 2d23 61bf
00000010: 77f0 043e 8693 bbbd 74ad 0fbe 9f37 783d
00000020: d6e5 30bf c98f 2f3d 33f8 4c3e b3b4 1d3e
00000030: 6783 cf3e 70b3 423e 43a0 4ebe 743d 2d3e
00000040: a525 5ebf 91c7 36be e8ec 963d 761c 01be
00000050: 89ff 713e a9ca c5be e65f 6ebe ee97 743d
00000060: 8423 033f b3cb 3c3e a397 2fbe 89e1 acbd
00000070: ddf1 473e 9d0d 03bf ed70 b4ba fe45 543e
00000080: 0bc5 703e 7679 5cbe eaef c83d 5c71 cbbe
00000090: 3f66 76be 2762 cc3d b261 bd3e 436e 1e3e
000000a0: c63c 8a3e cc57 2f3d 4bb2 843d d177 7d3e
000000b0: 0df6 cfbe 4327 4bbc e847 4e3e 7870 a5bf
000000c0: 2ee6 65be f1a8 a23e 79ed c53d 43b2 d93d
000000d0: babb 033e 73ab 6c3e 53d7 c03d 034c f93e
000000e0: 47c4 41bd 2329 553d cbd6 3f3e 8924 66bd
000000f0: e703 38be 4ecb 8e3d 7f25 9a3d d22d d8bb
00000100: 9224 4dbf 02d5 833e 9655 2a3b 8e68 073f
00000110: 28d1 bcbe e952 dcbe b32d d63d 2db6 adbe
00000120: a3da 763d 60f3 173f f470 b7bd 96ce a6bd
00000130: 71da 24be 5b7f 08bf 1040 0abe 0eac ee3e
00000140: 1ea7 9dbe f406 f33d fc8f 8ebd f082 573e
00000150: 9e81 49bf c76a 6a3c 9529 4fbf 686e 14be
00000160: 315b 98bd 38c9 853d 6dea 8bbe 2dc8 243e
00000170: 94e8 99be 0c89 923d ff6a 10bf 8bb8 023e
00000180: 63ec 77bf ac5b 443e b002 7bbd 2455 d43d
00000190: 68ab 62be b282 c1bd c70d c1bc 58e6 80be
000001a0: e8be c93e 1c60 d5be 7525 29be bd33 cfbd
000001b0: 7c66 c2bd accb 473d 49e0 d0bd 7cad b0be
000001c0: bef0 1c3e 2784 143f 75ac 06bf e7a7 75bd
000001d0: a2fa 2f3e 8f38 6bbd 7cc8 463e 5f84 843e
000001e0: 2fa6 9dbe 6cea b63d 9022 c4be 5b71 92be
000001f0: c945 34bf 16ff 46be ecc8 53bf 7a59 e73d
00000200: 4f19 e9bc b917 c8be fcd9 d8bd afd1 fdbd
00000210: d543 4c3e e422 b83d 453f 69be 38af 43bf
00000220: 5bfa a43d d525 a9bd 56c5 38be 4969 f2be
00000230: 98c1 d53c 624f a5be 2ad0 96bd 6fd2 113f
00000240: bcbe 4c3e ef7d 9fbd b140 03be 37d6 053e
00000250: 517b c13e 1afa 313e a4a2 873c 8dbb 133e
00000260: 09cb d03e 9372 dd3e 5939 17bf 4e67 0f3d
00000270: 55f1 503e 9c20 423e 48dd fb3c a53e b53d
00000280: 2924 adbd 7fcf 283f bf95 0cbf e810 1d3e
00000290: ed8d 62bd c07c 04bf 726b 9dbc 592b 5abe
000002a0: 9642 35be 7bcf d9bd 66ef 59be de70 95be
000002b0: e4ba fd3b 855a 88bd f570 e6bb 42df 1fbc
000002c0: 7db6 39be 9cb4 0abe 6755 64be 4cbc 5dbf
000002d0: 4a53 f1bd fb92 54bd 9f7b 2bbe c5a1 a0bd
000002e0: 7d49 fa3c 74ac 95bf db00 2e3e b7a2 d4bd
000002f0: 30b7 e93d 29ee 5dbf 19e6 8fbd 9b4c 43be
00000300: 214f dcbe 2e68 403a 58bd 1fbe 6a98 e13d
00000310: f58d 883a 2c9c ebbe 01e3 6e3d ceb5 0c3e
00000320: 46fc ea3d ff47 24be afaa 873e 5f9f 62bd
00000330: 9019 dd3d d7ff 463d 5434 253e 74bb e03e
00000340: fbcf 1a3c 0ba1 d0bd 4ed4 b13e 7bb5 16be
00000350: eb18 66bd 1440 1cbe 25dd 833e 6710 383d
00000360: f227 3abd 0eb2 c23d 50d4 46bf 7096 8b3e
00000370: 98d7 18be 80e1 dbbc af75 753d d945 83bc
00000380: 10f1 433e f919 18bc 1bcf 1d3e 3c51 543e
00000390: 9fab 303d 3958 f63e d8ca e73d e69b 3cbd
000003a0: 96fe 583e 9288 85be 034d a0bd a938 b73d
000003b0: 7990 02bf 079d 253f e436 cfbd cda7 f33d
000003c0: 4d32 273d 957a 03be b34c f3be 986e 73bc
000003d0: fd9b 4bbf e8f8 663e 067a 38bd 7ea8 853e
000003e0: 5f2b 6f3e e458 febe a55c 17be d687 113e
000003f0: ce17 afbe 2e7a e1be 0289 353e 88b2 84be
0.1755621 0.27159193 -0.037163492 -0.879443 0.12982355 -0.09158997 -0.14031011 0.06059992
-0.691007 0.042861734 0.20016555 0.15400963 0.4052994 0.19013762 -0.20178322 0.16917974
-0.8677619 -0.17849566 0.07369405 -0.12608513 0.23632635 -0.3863118 -0.2327877 0.059715204
0.5122607 0.1843708 -0.17147689 -0.08441455 0.19525857 -0.5119265 -0.0013766565 0.20729825
0.23512666 -0.21530709 0.09811385 -0.39734924 -0.24062441 0.099796586 0.36988598 0.15471749
0.2699949 0.04280834 0.06479319 0.24752738 -0.4061741 -0.012399497 0.20144618 -1.2924948
-0.22451088 0.31769517 0.09664435 0.10629704 0.12864581 0.23112278 0.0941607 0.48690805
-0.047306325 0.052041184 0.18734281 -0.056187186 -0.17970239 0.06972371 0.07526683 -0.006597259
-0.80133927 0.2574845 0.0025990955 0.5289391 -0.36878324 -0.43032005 0.10457935 -0.33928052
0.060267102 0.59355736 -0.08957091 -0.08144872 -0.16098954 -0.5331933 -0.13501 0.46615642
-0.30791563 0.118665606 -0.069610566 0.21046042 -0.78713405 0.014307684 -0.80922824 -0.14495242
-0.074392684 0.0653252 -0.2732729 0.16091986 -0.30060256 0.07155046 -0.56413263 0.1276571
-0.9684507 0.19175595 -0.06128186 0.10367802 -0.22135699 -0.09448756 -0.02356614 -0.25175738
0.39403462 -0.41674888 -0.16518195 -0.1011729 -0.094922036 0.04877822 -0.10199029 -0.34507358
0.15326211 0.5801415 -0.526069 -0.059974577 0.17185453 -0.057426985 0.19412416 0.2588224
-0.3079085 0.08931431 -0.3830762 -0.28602108 -0.70418984 -0.19433245 -0.8272846 0.11296363
-0.02845445 -0.390806 -0.10588452 -0.123935096 0.19947751 0.0899103 -0.22778042 -0.7643924
0.08055564 -0.08259169 -0.18044028 -0.4734595 0.02609329 -0.32287127 -0.07363923 0.5696172
0.19994634 -0.07787692 -0.12817647 0.13069998 0.37789395 0.17380562 0.016557045 0.14427014
0.40779904 0.43251476 -0.5907188 0.03501063 0.20404561 0.18957752 0.030745164 0.08849839
-0.084541626 0.65941614 -0.54915994 0.1533848 -0.055311132 -0.51752853 -0.019216273 -0.21305598
-0.17701182 -0.10635277 -0.2128273 -0.29187673 0.0077432264 -0.0665789 -0.0070325085 -0.009757819
-0.1813602 -0.1354546 -0.22298203 -0.86615443 -0.11783464 -0.051897984 -0.16746376 -0.07843355
0.03055262 -1.1693254 0.16992514 -0.10382598 0.11411893 -0.8669153 -0.070263095 -0.19072191
-0.4302912 0.0007339743 -0.15599573 0.11015399 0.0010418283 -0.46017587 0.058321957 0.13741228
0.114738986 -0.1604309 0.2649741 -0.05532777 0.10795891 0.04858383 0.16133243 0.43893015
0.0094490005 -0.101869665 0.34732288 -0.14717667 -0.056176107 -0.15258819 0.25754657 0.044937517
-0.04544825 0.095066175 -0.77667713 0.27263212 -0.14925992 -0.026840925 0.059926685 -0.016024517
0.19134927 -0.009283536 0.15411036 0.20734113 0.04313242 0.48114184 0.11317986 -0.046047114
0.21190867 -0.26080757 -0.07827189 0.08946354 -0.510017 0.6469273 -0.101178914 0.1189724
0.040819455 -0.1283973 -0.47519454 -0.014857911 -0.79534894 0.22555888 -0.045038246 0.26105112
0.23356389 -0.49677193 -0.14781435 0.14211974 -0.3419785 -0.44038528 0.17728046 -0.2591746

arith.constant19 f4 [512, 126]
00000000: 8748 4bbd 4037 3ebe 83ad dcbd 0fbd ccbd
00000010: 8ac9 45be 6400 8ebe 00ee 1abe 8e52 1cbe
00000020: 1f8e 9abe 338f ddbd 48d4 bebd fa83 33be
00000030: a88d 84be 1895 f2bd 406b 0fbe d2b8 94bd
00000040: 27f1 bfbc c46d 973c 72ee 95bd 87d5 2dbb
00000050: 9ea7 163d 1dca 833c 8588 263d 03bb acbc
00000060: 273d 033b 736b 66bd d34c 84bd 575f 22be
00000070: 6e94 63bd 1321 3e3c c0c6 17bd 5dbf e2bb
00000080: 7710 ca3d f95a 363d f0ee 9abc b84a 453e
00000090: 5c64 a3bd 2145 85bc 48d0 3d3e 9ca9 e3bd
000000a0: 278d 52bc 12c6 0d3e 1be4 253d 90a0 14bd
000000b0: a44b ef3d fd74 41bd 6c6c efbd f9fd 88bd
000000c0: d3fb 043d ca68 2f3c 1d74 0ebe 1305 10be
000000d0: cc51 f73b 7194 4a3e 2b47 93bd abd3 fe3b
000000e0: 9fa2 013c b5cd 123d f44f c4bd 2269 f5bd
000000f0: eed9 3ebb cfc5 04be c637 01be 0eab 62be
00000100: 64c4 8cbd 01b3 5c3c 29c3 88be 2a69 89bc
00000110: 3ece 9c3e e05b 8dbe f2ce fcbd b828 7e3e
00000120: f418 89be 1c92 efbd 40f8 0f3e f25e cdbe
00000130: 7995 9d3c 3ef6 8b3e 66a3 65be 9ce7 8abd
00000140: 222c 2abd 9773 abbe c567 a43c a44f 50bd
00000150: 42cd 58be 51d1 9f3d f082 c93c b1ee d2be
00000160: a59f a63d 0223 c13b c135 91be 5991 a53d
00000170: b3ee d7bd dbbc 8bbe 652a cd3c 0c6d b03d
00000180: 1a2e 96be 1a2d e63c cd43 e03c 354c 91be
00000190: ed45 3e3d 4661 92bd 9453 febd 54db e1bd
000001a0: 0ddc b7bd e32d 6cbe 0807 8fbc 8c9d abbd
000001b0: afb8 a9be 282e 2cbd 6277 d1bd 3f4b 86be
000001c0: bfad 10bb 3e06 6dbe b8b4 26be 4625 b03c
000001d0: 57f3 02be 9069 0bbe 330f e23c 4f88 bdbd
000001e0: a25f 7fbe 6c01 e2bd 1fba 02be 3dbe 64be
000001f0: c9a0 4b3d 2de6 5cbe 3347 77bd b655 bfbd
00000200: 4bf2 bb3c 5b75 71bb 4895 113a db34 1b3f
00000210: 7567 7d3d 3fef a7bd 4c62 1b3f f5af ef3b
00000220: 1409 923b bec4 073f 2471 e03d 378d 513d
00000230: b87d 233f 272f 083e e666 11bd 3630 4f3e
00000240: e570 493e 4fad 293e f4f2 c63e 6763 423e
00000250: 83bf 173e 976d ab3e 85cc 643e d5e3 503e
00000260: 342b 043f 894d 113e 00df 133e 747a 913e
00000270: 2b37 853d c520 093e 6045 1c3f 1b70 4f3d
00000280: 54fa 443e fad7 ea3e 8a52 5f3e be98 683d
00000290: e5d2 b93e a707 393e 9561 033e 3e8e d53e
000002a0: 8069 b13d 5882 fc3d f323 263f 7244 673e
000002b0: c90d 49bd e5e3 ef3e 306e 793e ff79 ccbc
000002c0: c599 ec3e e1c4 073e 1800 6d3d 937b d03e
000002d0: fa39 663d 636e a1bd 7259 423f cc9c 423e
000002e0: 36f0 49bd 2080 043f 2b81 1d3e 1a82 40be
000002f0: 9b97 e83e ad30 59be 06d6 4ebc 3eed 703d
00000300: 924e 01be 96a9 26be a0b4 bd3d 02cb 1abd
00000310: 6f8a f5bd 431e bc3d da61 4ebe 58cb 5ebb
00000320: cc48 1a3d c3be 57be c20d 4cbc ec24 083e
00000330: dc73 17be 24ab 14be 412f 0a3e ca26 1dbe
00000340: 36f4 94bb f29d 4d3e 1b9d 09bd 2760 0cbe
00000350: afd4 983c e153 31bd fc5f b9bd b004 d73d
00000360: 2e59 91bd 2871 cebd 4657 0e3e 529b 92bc
00000370: 3e89 ccbd 4fe1 663e 3dfe 9bbd bdf3 f8bd
00000380: dbeb 9b3d 1812 15be 2e9e 0fbe 8cb3 443e
00000390: fb88 8dbd 9064 d4bc 3e5b f43d a66e 5dbd
000003a0: ecee fcba f192 333e e084 0bbe 1597 76bd
000003b0: c9df 273e 1de7 03bd 8eaf 85bb add9 4b3e
000003c0: 70a0 03be ab89 bfbd b0ca 593e 9a90 0dbe
000003d0: 259f 27be 0389 3d3e 7b17 1fbe 95ab cfbd
000003e0: a8be 693e 5871 e2bd 1166 04be d32b 8f3e
000003f0: eea3 bbbd 7522 8e3b 4654 803d dcd1 85be
-0.049629714 -0.18575764 -0.10775282 -0.099969976 -0.19315162 -0.27734673 -0.15129852 -0.15265867
-0.30186555 -0.10818329 -0.09317833 -0.17530814 -0.25889325 -0.118448436 -0.14005756 -0.07261814
-0.02343042 0.018484958 -0.073208705 -0.0026524977 0.036780946 0.016087586 0.04065754 -0.021085268
0.0020025463 -0.056254815 -0.064599656 -0.15856682 -0.055561475 0.011604565 -0.037054777 -0.006919785
0.09866422 0.044520352 -0.018912762 0.19266784 -0.079781264 -0.016268315 0.18536484 -0.11116335
-0.012851036 0.13845089 0.04050074 -0.036285937 0.11684349 -0.04723071 -0.11690602 -0.066890664
0.03246672 0.010706136 -0.13911481 -0.14064436 0.0075475927 0.19783188 -0.071913086 0.0077766976
0.007912307 0.03584071 -0.09585562 -0.11982943 -0.0029121595 -0.12966083 -0.12618932 -0.22135565
-0.06873396 0.013470412 -0.26711395 -0.016773779 0.306261 -0.27609158 -0.12344159 0.2482022
-0.2677685 -0.1169779 0.14059544 -0.401115 0.019236313 0.27336305 -0.22425613 -0.06782457
-0.041545995 -0.33486626 0.020069012 -0.0508572 -0.2117205 0.07803596 0.024598569 -0.41197732
0.081359185 0.005894066 -0.28361323 0.080843635 -0.10543575 -0.27292523 0.02504463 0.08614549
-0.29332048 0.028097678 0.02737608 -0.28378454 0.046453405 -0.0714746 -0.12418285 -0.11028162
-0.08977518 -0.2306438 -0.017459407 -0.08379659 -0.33148715 -0.042036206 -0.102278486 -0.26229283
-0.0022076217 -0.23146912 -0.16279876 0.021502148 -0.1278814 -0.13614488 0.027595138 -0.092545144
-0.24938825 -0.110354275 -0.12766312 -0.22338195 0.049713884 -0.2157218 -0.060370635 -0.0934252
0.022942683 -0.003684363 0.00055535557 0.60627526 0.061866242 -0.081999294 0.60696864 0.007314677
0.0044566486 0.5303458 0.1095908 0.051160064 0.63863707 0.13299237 -0.035498522 0.20233235
0.19671972 0.16570018 0.38857234 0.18983231 0.1481915 0.33482048 0.22343643 0.20399411
0.5162842 0.14189734 0.14440536 0.28413737 0.06504663 0.13391407 0.6104336 0.05064402
0.19236118 0.45867902 0.2180883 0.05678629 0.36293712 0.18069325 0.12830193 0.41710085
0.08662701 0.123295486 0.64898604 0.22584704 -0.049085412 0.46853557 0.2435844 -0.024960516
0.46211067 0.13258697 0.057861418 0.4071928 0.056207635 -0.07882383 0.7591773 0.19005126
-0.04930135 0.51758003 0.15381305 -0.1879963 0.45428166 -0.21209975 -0.012624269 0.05882
-0.12627628 -0.1627563 0.09262967 -0.03779126 -0.11989295 0.091854595 -0.20154515 -0.0033995714
0.03766708 -0.21068864 -0.012454452 0.13295335 -0.1479029 -0.1451841 0.13494588 -0.15346828
-0.004545714 0.20079783 -0.033597093 -0.13708554 0.018656103 -0.043292884 -0.09051511 0.10498941
-0.07097088 -0.100801766 0.1390048 -0.017896328 -0.09987114 0.22546886 -0.076168515 -0.121558644
0.07613345 -0.14557683 -0.14025185 0.19209117 -0.069108926 -0.025926858 0.119314656 -0.0540606
-0.0019297278 0.17536522 -0.13624907 -0.060202677 0.16393961 -0.03220283 -0.0040797656 0.19907255
-0.12854171 -0.0935243 0.21268725 -0.13824692 -0.16369303 0.18509297 -0.15536301 -0.101401486
0.22826636 -0.11056775 -0.1292956 0.27963123 -0.091621265 0.0043376037 0.06266074 -0.26136672

arith.constant20 f4 [512, 128]
00000000: 2708 c1be 350b 103c 082f 683d 576d 653e
00000010: 1bbf 473e 92fb a03e 1ad5 a1be 1e39 333f
00000020: 27a0 31be 8934 ca3e 2b50 0a3e f7fd 1fbe
00000030: 0100 3bbe a127 0f3f ca36 623d 8c13 77be
00000040: 0c6e 6ebe 4f93 b33e 9e46 72be ee3b a1bd
00000050: 0cf8 963d d430 82be f7bd 4d3e a07a d53d
00000060: c8b6 9ebd 912d 4f3d 726b fbbd 916e 123e
00000070: 5887 86bf ca60 eb3c 86b2 e6bd d6af 5dbc
00000080: ef78 8fbe f954 943e 7758 613d acf3 353e
00000090: 0755 e83d 11ef 543e 797e a13e 9738 403f
000000a0: 9614 b13e 1ff6 71bd e7de 3f3f 098a f7bd
000000b0: d045 173c a0ed 93be ab6b 88bd 0f16 0bbf
000000c0: cdf0 4f3e 4375 41be 3d2c 9839 ea60 3ebc
000000d0: abde 3c3e 197a edbd 3412 4ebe 7bf0 f2be
000000e0: ee93 17bf a53e 6b3e c3c4 49be 48e1 053f
000000f0: c454 ac3e a981 63be 9bec 02bf 6b0f 913e
00000100: 0861 d23e faf0 b0bd 8165 573f 1b0a febd
00000110: 5b89 33bd e6d5 323f 1238 50be 13e4 a9be
00000120: ec2c 8d3e 4d15 0f3e 45ab d23e 9302 203d
00000130: 0191 a53e b12b 02be c228 a73d b9c2 68be
00000140: bf90 8abe 3a8c 35be 0fa8 9b3e bd1d 673e
00000150: 4c65 f3be b076 a6bd 8f7f 913d 4b12 e83c
00000160: bd6d e2be 631c 0f3e 6b30 193f 9416 483d
00000170: c46a 8e3d daef 13bf 5b23 9cbe 120b 5ebf
00000180: 2dab 4cbe 5fa4 08be 2e33 d43e 6802 33bd
00000190: 1ff5 8ebc d6ad e33e 106e b43e 7a25 6a3e
000001a0: 8789 4f3e 7e80 c83c 9630 edbe 870b 6a3d
000001b0: ae64 47be 9fb4 29be e18b dbbc 1c30 203e
000001c0: f68c e33e c37e b7bc 1d85 7bbb 135d 24bd
000001d0: bf20 113e baf6 883d 05aa 2d3e 8880 343e
000001e0: 08c9 033f aa18 23be eb9f 0bbe f721 edbe
000001f0: 4530 b0be 5587 fe3e 6484 dabd 0f66 d23d
00000200: 0abc 3bbc 9854 a7be b611 b43e 0d31 b43e
00000210: 57cd 333e b440 07be dcd3 e63e 969a f6bd
00000220: 9397 f93c 0679 a5be cefe 823e c30b 8d3e
00000230: 26b3 6ebe 4de3 e7be 8106 783e 622d 403e
00000240: 4847 86bd bff8 9c3d f0f9 0a3d 7881 acbc
00000250: 8b42 613d ba2d 29be 7f37 493e 0d57 b1bd
00000260: c1b8 d0be 46ec 80bc dd16 6dbe d679 3ebe
00000270: d5fd 0dbe d8bd 703e 2a30 b43e f24d 863e
00000280: 4b79 7a3e 3680 6fbe 30dc b0bd f414 eb3d
00000290: 7fd3 87bd 4faa 933e 241e 93bd da22 49be
000002a0: 5551 f3be e2b7 8dbd 751e f93b 50eb 61be
000002b0: 703f c33d 55ff a4be 7593 063e fa70 82bd
000002c0: 1a6a 05bc f80e 25be ffa0 92bd 7220 0dbf
000002d0: 85a1 55be 54cc d1bd 3e4a 18be 9aab c73d
000002e0: 1ffc bfbb 1e16 4cbd 0fbb 42be 85b7 903d
000002f0: 21b2 e93d 3832 7dbe 35cc ffbd 1d29 f83d
00000300: 61f6 f43d bd07 b83d 4f89 f6be a330 a1bd
00000310: 9cdb e03d de23 963d 2b5c 393e 989d 3abd
00000320: 59f7 bc3e 2cfc 843e 0c87 823e 181d e1bb
00000330: 4c8f 433d 92dd 583c f4e8 1e3e 4e0e 793e
00000340: 6d6c 15be 2396 ab3e cc69 a9be 38c4 39be
00000350: eb3f 03bc 3796 95be a7a5 de3d bcc9 313d
00000360: 9f5f 5b3c 3ab3 8dbe f895 00be c5a8 0fbe
00000370: 55d2 783e 650c 8a3d 2ca2 48be 27ea 56be
00000380: 4ae8 1c3e 4d38 573d ea82 a63d b598 95be
00000390: 2535 23be aca9 07bc 99bf e33c f823 92be
000003a0: 86c3 ab3d e992 18be d092 41bd cf85 cfbd
000003b0: 594e 263e cfb9 a1bb 7747 553e 50ad 5cbe
000003c0: 5422 8abe 66b8 cfbc 4074 723d 4aa4 183e
000003d0: 9cb8 a6be bd9e 753e 27df 90bc b3bd bb3d
000003e0: 853e 61be 1f1f a1be 7e16 bdbe 41d6 cc3d
000003f0: 7036 d33c 641f 2cbe 51d2 413d 58c9 dc3b
-0.37701532 0.008791734 0.056685477 0.22404991 0.19506495 0.31441933 -0.31607896 0.7000903
-0.1734625 0.39493206 0.13507144 -0.15624224 -0.1826172 0.55919844 0.055228032 -0.2412855
-0.23284167 0.35073325 -0.23659751 -0.07872759 0.0737153 -0.25427878 0.20091997 0.104237795
-0.077497065 0.050580565 -0.12276353 0.1429999 -1.0510054 0.028732676 -0.112645194 -0.013530692
-0.28021953 0.2897108 0.055016007 0.17768735 0.11344343 0.20794322 0.31541803 0.7508635
0.34586018 -0.05907261 0.74949497 -0.12086875 0.009232953 -0.2889223 -0.06661161 -0.54330534
0.20306702 -0.18892388 0.0002902466 -0.011619786 0.18444316 -0.11595554 -0.20124131 -0.47449097
-0.592101 0.22973116 -0.19703965 0.52296877 0.3365842 -0.2221743 -0.5114228 0.28332075
0.41089654 -0.08639713 0.8413926 -0.12404271 -0.043832164 0.69857633 -0.20333889 -0.3318182
0.27573335 0.1397297 0.41146293 0.039064955 0.32337192 -0.1271198 0.08162071 -0.22730531
-0.27063558 -0.17729273 0.30401656 0.22569938 -0.4753822 -0.081281066 0.07104408 0.028329035
-0.4422435 0.13975672 0.59839505 0.048849657 0.06953958 -0.5778786 -0.30495724 -0.8673564
-0.19987173 -0.13343953 0.41445297 -0.043703467 -0.017450867 0.44468564 0.3524022 0.22865859
0.20267306 0.024475332 -0.4632613 0.0571399 -0.19472 -0.16572808 -0.026800098 0.15643352
0.44443482 -0.022399312 -0.0038378902 -0.040127825 0.14172648 0.06687684 0.16959389 0.17627156
0.51478624 -0.15927377 -0.13635223 -0.46314976 -0.34411827 0.49712625 -0.10669783 0.102733724
-0.011458406 -0.32681727 0.35169762 0.35193673 0.175588 -0.13208276 0.4508351 -0.12041204
0.030467784 -0.32318896 0.25585026 0.27548036 -0.23310527 -0.45290604 0.24221231 0.18767312
-0.065565646 0.07664632 0.033929765 -0.02105783 0.0549951 -0.1652135 0.19650076 -0.08659182
-0.40765956 -0.015737664 -0.23153253 -0.18601164 -0.1386636 0.2350992 0.35192996 0.26231343
0.24460332 -0.23388752 -0.086357474 0.11478606 -0.066321366 0.28840873 -0.07183483 -0.19642201
-0.4752299 -0.069198385 0.0076025077 -0.22062421 0.09533584 -0.32226053 0.13142188 -0.06369205
-0.008142972 -0.16118991 -0.07159614 -0.5512763 -0.20862396 -0.102440506 -0.14872071 0.09749527
-0.0058589126 -0.04982578 -0.1901667 0.070662536 0.114109285 -0.24726188 -0.12490121 0.12117217
0.119610555 0.08985851 -0.48151633 -0.07870605 0.10979387 0.0733106 0.18101566 -0.04556045
0.3690746 0.25973642 0.25493658 -0.0068699233 0.04774408 0.01323642 0.15518552 0.24321863
-0.14592142 0.33512983 -0.3308853 -0.18141258 -0.008010845 -0.29216167 0.108714394 0.04340528
0.013389497 -0.27675802 -0.12557209 -0.14029224 0.24298985 0.06740645 -0.19593114 -0.2098776
0.15322986 0.052543927 0.081304386 -0.2921807 -0.15938242 -0.008280199 0.027801322 -0.28543067
0.083869025 -0.14899792 -0.047259152 -0.10132944 0.16240825 -0.00493548 0.20828043 -0.21550488
-0.26979315 -0.025356483 0.059192896 0.14906421 -0.3256272 0.23986335 -0.017684532 0.09167042
-0.21996506 -0.31469056 -0.36931223 0.10001803 0.025782794 -0.1680885 0.047319714 0.0067378692

sequential_7_1/lstm_7_1/while/lstm_cell_1/add_1/ReadVariableOp f4 [512]
00000000: 80e9 f3bd 6c4c a7bb fc12 21bd 49ed 88bd
00000010: 1548 5ebe 2888 893d 3376 453e 8ea5 b33d
00000020: 2ccd 4f3d 0dd3 d3bd 7f3a 26be 1c27 4a3e
00000030: c6b2 2abe 45c2 85bc 1960 13be 16e6 ddbd
00000040: cd98 9a3c cab6 33be 11d8 26be 5bf0 2dbd
00000050: 9f8d 823d 5f12 e23a 2a32 d9bd 172f 0cbe
00000060: 6451 39bd dde8 9bbb e71d 79be 7546 1abc
00000070: 8cf9 883e 3101 7d3e 5620 26bd 524f 73bd
00000080: 090a 6abd 5f11 363a 24c2 00be fae2 cf3d
00000090: d1a3 3cbe d36c 9d3c f77c 09be f847 353e
000000a0: 594a c03c 5db1 69be f4a1 533d bbb9 013e
000000b0: 5b17 63be 5a35 133e bf88 69be 687c e83b
000000c0: 0b80 91be 9caa 43be bc00 1abe 0d15 5f3e
000000d0: 40e4 dfbc 6a44 073c 3004 3cbd e548 c6bc
000000e0: dbf7 b43d bfe9 fcbd 7270 a03d 05e3 6fbe
000000f0: 23d6 a83d 1757 5c3b 7623 593e 4157 1cbe
00000100: 3cdb 84bd 8243 e5bd 3a7e 52bd 8eac 0abd
00000110: 2b16 ae3d 41d3 e0bd 4c83 733e d406 1d3c
00000120: 0efa 143e 979a 593b c9be 6ebc c2d9 5bbe
00000130: ab85 95bd 8975 263b ce60 17bd 1a3f a8bd
00000140: 6c25 ce3d 1774 8cbe d916 0ebe 49ab 67be
00000150: 45c3 103e 0f4a c9bd b9e7 09be 8ea9 a2bd
00000160: ca15 343d 11d3 58be dfca f0ba c7e4 673c
00000170: 1def ebbc 55cd b43d 2d79 ac3d 4198 db3b
00000180: 94e8 a9ba 08cf cfbd 04cd 17bd 5984 ee3d
00000190: ec60 d4bb 386a a5bd 57ac 61bd be0f 16be
000001a0: 2dc9 e9bd 2fbb ccbb 35bc 793d 0f0e de3b
000001b0: 70ff fd3d 7316 813d 3e06 09bd 8371 773c
000001c0: 769e 80bd 4b1f 22be 1c47 80bc 5435 cb3c
000001d0: 6b8c 8ebc 94e7 06bd 46e4 85bc e62f 033e
000001e0: b326 ba3d 9497 c43b f1d0 833e 3c4a 643e
000001f0: 506f 04bd da8b 25bd bcef fd3d 1a98 89bd
00000200: 3b75 833f 1bf0 753f 6657 803f a56d 803f
00000210: 9810 793f 8ea7 6e3f 5498 693f 6650 403f
00000220: 0eea 733f 6dd8 6f3f 89ff 853f d4e6 7f3f
00000230: dc46 8e3f f112 8d3f e452 553f b4c9 723f
00000240: 146b 8f3f f069 5c3f 5744 853f 9f36 5a3f
00000250: b854 803f 8660 823f 44e3 783f f4b1 643f
00000260: 4356 763f 8f3f 703f 3ea5 2b3f 7809 853f
00000270: 9fa6 993f 6565 863f 3ddf 7b3f 54e3 753f
00000280: 7e2f 8d3f 915b 7b3f 7b97 6d3f 38ac 863f
00000290: 1b61 853f 05e5 6d3f f5f8 393f a796 6b3f
000002a0: acd4 5d3f f1d7 7e3f 6df7 753f 2025 793f
000002b0: 6df9 593f f6a0 9b3f a9ef 4f3f 4c30 8d3f
000002c0: 7630 363f 7fbe 5c3f 0ec1 453f 951f 9a3f
000002d0: f603 6e3f ccbb 583f a26b 5b3f a3f7 3c3f
000002e0: 4c3f 963f 4b95 573f 97d6 8a3f 5f28 423f
000002f0: 2a8f 6b3f a1b5 5b3f 3ce8 8c3f 3b5b 333f
00000300: a2ae 673f d2bc 653f 8130 733f 904d 893f
00000310: d215 943f dbd9 6e3f 28f0 8f3f 8a00 8b3f
00000320: f56e 5f3f 3c65 693f e0b2 6b3f b105 843f
00000330: 5625 663f d54a 6d3f ddf2 7b3f 54a1 4d3f
00000340: 27a7 823f 8ec8 a23f 3b87 853f 179b 823f
00000350: f614 a23f 2aa5 773f f772 753f 3ead 843f
00000360: 6c81 963f c323 6b3f bc8e 6b3f f135 553f
00000370: 8cba 4a3f 52aa 8f3f c7d9 ab3f 294c ac3f
00000380: 4426 693f dfee 403f ba63 803f c3b8 6f3f
00000390: 8ea7 5d3f 857b 563f 8836 4f3f bfe7 823f
000003a0: 2b30 443f 50eb 2d3f e817 713f db77 4a3f
000003b0: 6c4e 683f 2efa 553f 3ed7 473f 109c 8a3f
000003c0: 1ae0 733f 8d23 533f 95e9 873f decf 4e3f
000003d0: 7862 803f db4a 723f 3037 5c3f d9c5 793f
000003e0: e605 843f 3637 9e3f 88e6 a63f 50da 8c3f
000003f0: a5c5 8f3f 75de 523f e2c1 623f 3cc8 583f
-0.11909771 -0.0051055457 -0.039324746 -0.066858836 -0.21707185 0.06715423 0.1928337 0.087718114
0.050732777 -0.10342989 -0.16233252 0.19741482 -0.16669759 -0.016327986 -0.14392127 -0.10834901
0.01887169 -0.17550197 -0.1629336 -0.04246555 0.06374668 0.0017247907 -0.10605271 -0.13689838
-0.045243636 -0.004757984 -0.24327813 -0.009416212 0.2675289 0.24707486 -0.04055818 -0.059401818
-0.057138477 0.00069453375 -0.12574059 0.10150714 -0.18421866 0.01921693 -0.13426577 0.17703235
0.023472952 -0.22821565 0.051668122 0.12668507 -0.22176878 0.14375821 -0.2280607 0.0070949085
-0.28418002 -0.19108051 -0.15039343 0.21785374 -0.027330518 0.008256057 -0.04590243 -0.02420468
0.08836337 -0.12349271 0.07833947 -0.23426445 0.08243968 0.0033621246 0.21204934 -0.1526766
-0.06487128 -0.11194517 -0.05138991 -0.033855967 0.08500322 -0.109777935 0.23780555 0.0095841475
0.14548513 0.0033203715 -0.014571854 -0.21469787 -0.07300886 0.0025399646 -0.036957555 -0.08215161
0.100657314 -0.2743232 -0.13875903 -0.22623934 0.1413699 -0.09828579 -0.13467301 -0.07942496
0.043966092 -0.21174265 -0.0018371007 0.014153666 -0.028800542 0.088282265 0.0842155 0.0067014997
-0.001296299 -0.1014691 -0.037060753 0.11646337 -0.0064812806 -0.080769 -0.055095997 -0.14654443
-0.11415324 -0.0062479 0.060970504 0.0067765783 0.124022365 0.0630311 -0.03345322 0.015102747
-0.06280224 -0.1583225 -0.015658908 0.024805702 -0.01740094 -0.032935694 -0.0163442 0.1281124
0.090894125 0.005999515 0.25745347 0.22293943 -0.03233272 -0.040416576 0.12399241 -0.06718464
1.0270151 0.96069497 1.0026672 1.0033461 0.97290945 0.9322442 0.9124806 0.7512268
0.95279014 0.93689615 1.0468608 0.9996159 1.1115375 1.1021405 0.83329606 0.94839025
1.1204553 0.8609915 1.0411481 0.85239595 1.0025854 1.0185707 0.9722178 0.89334035
0.96225375 0.9384698 0.67049015 1.0393515 1.2003974 1.0499693 0.9838751 0.9605
1.1030118 0.98186594 0.92809266 1.0521307 1.0420259 0.9292758 0.72645503 0.9202675
0.86652637 0.9954825 0.96080667 0.97322273 0.8514622 1.2158496 0.8122507 1.1030364
0.71167696 0.86228174 0.77247703 1.2040888 0.92974794 0.84661555 0.8571111 0.73815364
1.1738067 0.8421218 1.0846738 0.7584285 0.92015326 0.8582402 1.1008372 0.7006108
0.90500844 0.8974124 0.94995886 1.0726795 1.1569159 0.9330117 1.1245165 1.085954
0.8727868 0.91170096 0.92069817 1.0314237 0.8990072 0.9269231 0.98417455 0.8032429
1.0207261 1.2717454 1.0431894 1.020358 1.2662647 0.96736395 0.9587855 1.0365369
1.1758246 0.91851443 0.9201467 0.83285433 0.791909 1.1223853 1.3425835 1.3460742
0.91074014 0.7536449 1.0030434 0.936413 0.86583793 0.83782226 0.80942583 1.0226973
0.76636 0.67937183 0.94177103 0.79089135 0.9074466 0.8358487 0.7806281 1.0828876
0.95263827 0.8247612 1.0618159 0.8078593 1.003005 0.9464547 0.8602171 0.97567517
1.03143 1.2360599 1.3039103 1.1004124 1.1232191 0.8237069 0.8857709 0.84680533
