ai/models/sign_classifier_word.tflite (tflite, 234108 bytes, 7 tensors)

arith.constant3 f4 [40, 64]
0	0xbe930d6a	-0.28721172
1	0x3d3820f2	0.044953294
2	0x3cad4207	0.021149648
3	0x3e16cdef	0.14726995
4	0xbcc82243	-0.0244304
5	0xbf11a18f	-0.56887144
6	0xbe34f548	-0.17671692
7	0xbf65f979	-0.8983379
8	0x3e32bef0	0.1745565
9	0x3dc5beb9	0.09655518
10	0x3e04655c	0.1292929
11	0xbe7d21d1	-0.24719931
12	0xbf2f7e59	-0.68552166
13	0x3deddfa4	0.11614922
14	0x3e5907bd	0.21194358
15	0xbdfe5b7b	-0.12419792
16	0x3e4919e9	0.1963879
17	0xbf6d7384	-0.9275439
18	0xbe08f133	-0.1337326
19	0xba64452d	-0.0008707818
20	0x3d3be7d8	0.0458754
21	0xbde32215	-0.11090485
22	0x3d5e9e8d	0.054350425
23	0x3c75a6e0	0.014993399
24	0x3e8b686c	0.27228105
25	0xbe1d10f4	-0.15338498
26	0x3e368ee5	0.17827947
27	0x3c51e60c	0.012811195
28	0x3d07dab9	0.033167575
29	0x3dfdd6f4	0.12394515
30	0x3dc6d8c0	0.097093105
31	0xbe1cfe77	-0.15331446
32	0xbdd8ee59	-0.10592336
33	0xbf105724	-0.56382966
34	0xbf3a738e	-0.7283257
35	0xbd3597d3	-0.044334244
36	0x3cde801d	0.027160699
37	0x3e1ec337	0.15504156
38	0xbeac6692	-0.33672005
39	0xbf138088	-0.57618
40	0x3e9e0ca0	0.30869007
41	0xbe970089	-0.29492596
42	0x3e1eed83	0.15520291
43	0xbe1deb76	-0.15421852
44	0xbddaf183	-0.10690596
45	0x3e83c8b1	0.25739053
46	0x3c9a718f	0.018852977
47	0xbf23ca5a	-0.6398064
48	0xbdee5da8	-0.11638957
49	0xbd52b3a4	-0.05144085
50	0xbe75acef	-0.2399175
51	0x3df9b503	0.12192728
52	0x3e020af6	0.12699494
53	0xbc8bdfd6	-0.017074507
54	0xbeb4a889	-0.35284832
55	0xbf5734b8	-0.8406482
56	0xbead5091	-0.3385053
57	0xbf11efb7	-0.570064
58	0xbcdf21a5	-0.027237723
59	0x3d216b88	0.03940919
60	0xbec18677	-0.377979
61	0x3deaf170	0.11471832
62	0x3e2028d2	0.15640572
63	0xbe9e48d2	-0.30914932
64	0xbf972fb4	-1.1811433
65	0x3e08cd6c	0.13359612
66	0x3e42eb19	0.19034995
67	0x3da6b09e	0.08139156
68	0xbef9ca26	-0.4878704
69	0x3caabded	0.020842517
70	0xbdcd363d	-0.10020111
71	0xbf36a6a7	-0.7134804
72	0x3e069bf0	0.13145423
73	0x3e041080	0.12896919
74	0xbeb2e416	-0.3493964
75	0xbf3bc5c6	-0.73348653
76	0xbd1c1012	-0.038101263
77	0x3dd55f5b	0.10418578
78	0x3dc8ddaa	0.09807904
79	0xbe8df7f3	-0.27728233
80	0x3e44c7d6	0.19216856
81	0xbf63c6ba	-0.8897511
82	0x3cb7177c	0.022350065
83	0x3df62b3a	0.120199636
84	0xbefdf14d	-0.4959816
85	0xbe2f5f0b	-0.171261
86	0x3e4a9f14	0.19787246
87	0xbeed71fe	-0.46376032
88	0x3e112a07	0.14176188
89	0xbe4c0ad6	-0.19926009
90	0x3e1ec691	0.15505435
91	0xbe924680	-0.28569412
92	0xbd30a96b	-0.04313032
93	0x3da296d4	0.079389244
94	0x3dff618f	0.1246978
95	0xbf18cc9b	-0.59687203
96	0x3cf12c55	0.029440084
97	0x3c72ad04	0.014811758
98	0xbba8e43b	-0.0051541603
99	0xbd00a248	-0.031404763
100	0xbf1042a0	-0.5635166
101	0xbe552f37	-0.20818792
102	0xbf4e7749	-0.80650765
103	0xbdacb988	-0.08433825
104	0xbe8e6fd3	-0.2781969
105	0x3dfce1a2	0.123477235
106	0x3da412c0	0.08011389
107	0xbe8512b5	-0.25990835
108	0x3e1436d5	0.14474042
109	0x3e939a1d	0.28828517
110	0xbefdcc44	-0.49569905
111	0xbf1a7384	-0.6033251
112	0xbdcc0ba9	-0.099631615
113	0xbce63b51	-0.028104456
114	0x3dbb5dea	0.09148772
115	0x3dfb1621	0.1226008
116	0x3e23349d	0.15938039
117	0xbd9b4e9d	-0.07583354
118	0xbefea63d	-0.49736205
119	0xbf040e02	-0.51583874
120	0xbe286356	-0.16444144
121	0xbed24a6b	-0.410724
122	0xbe037a0d	-0.12839527
123	0xbe9de03c	-0.3083514
124	0xbf5c79fb	-0.8612363
125	0x3d5e016c	0.054200575
126	0x3e11757f	0.14204977
127	0x3e28dc5f	0.16490315
128	0xbde3675a	-0.11103697
129	0xbca69c44	-0.020338185
130	0x3e169fa3	0.14709334
131	0xbdc3a91e	-0.09553741
132	0x3d840fe4	0.064483434
133	0xbf2803c7	-0.65630764
134	0xbe644bf9	-0.22294606
135	0xbf331a0e	-0.6996163
136	0xbf59da4c	-0.8509872
137	0x3df0f547	0.11765533
138	0xbe54dcf8	-0.20787418
139	0x3da34c43	0.0797353
140	0x3e533487	0.20625506
141	0x3dfc0a0e	0.12306605
142	0xbf30e3ec	-0.6909778
143	0x3dc226ca	0.09480055
144	0xbe41a2db	-0.1890978
145	0xbf281618	-0.6565871
146	0xbe987445	-0.29776207
147	0x3e08a780	0.13345146
148	0xbe82577c	-0.2545737
149	0x3e232982	0.15933803
150	0x3c5a330c	0.013317835
151	0x3ddaba95	0.10680119
152	0x3deef20e	0.11667262
153	0xbf0a825d	-0.5410517
154	0xbd98f37e	-0.074683174
155	0x3e410c61	0.18852378
156	0x3c19ff56	0.009399256
157	0x3d02cd42	0.03193403
158	0xbeaf8f1b	-0.34288868
159	0xbbf693f3	-0.007524961
160	0xbf27a4ed	-0.6548603
161	0x3de59828	0.11210662
162	0xbe78d7fa	-0.24301139
163	0xbe8b1a40	-0.27168465
164	0x3e055bcd	0.130233
165	0xbea599bd	-0.32343856
166	0xbf34a9a1	-0.70571333
167	0x3d8c13d1	0.06839717
168	0xbca2eead	-0.0198892
169	0x3e293a66	0.16526183
170	0x3d46971b	0.04848395
171	0xbe1b7c6b	-0.1518418
172	0xbe4e0dc8	-0.20122445
173	0x3e06c78d	0.1316206
174	0xbf398406	-0.72467077
175	0xbf237c4a	-0.63861525
176	0xbf005488	-0.50128984
177	0x3d5c4c6e	0.053783827
178	0xbf8983f4	-1.0743394
179	0x3dfb3716	0.12266366
180	0xbe1e4963	-0.15457682
181	0xbea25acc	-0.31709898
182	0x3df8db82	0.12151243
183	0x3d2994dd	0.041401733
184	0x3e79462e	0.24343178
185	0x3865e26a	5.480872e-05
186	0x3e1292d0	0.14313817
187	0xbf497bd0	-0.7870455
188	0x3c3e33bd	0.011609015
189	0x3e554ec3	0.20830826
190	0x3d429f39	0.047515128
191	0x3db6b5d8	0.08921403
192	0xbfaa1b81	-1.3289644
193	0x3d984cc8	0.0743652
194	0x3e40e64c	0.18837851
195	0x3e125a90	0.1429236
196	0x3d6232bd	0.05522417
197	0xbded808c	-0.11596784
198	0xbeb5eb81	-0.35531238
199	0xbf357aee	-0.708907
200	0xbeedb65b	-0.4642819
201	0xbd7f6924	-0.06235613
202	0xbe265f27	-0.16247235
203	0xbf9479a4	-1.1599622
204	0x3d83337e	0.06406306
205	0x3e7211e4	0.23639637
206	0xbe905253	-0.28187808
207	0xbe00e6a2	-0.1258798
208	0x3e50817d	0.20361896
209	0xbf09f824	-0.5389426
210	0xbe7eb7fe	-0.24874875
211	0x3e13b835	0.14425738
212	0xbf02ad2d	-0.51045495
213	0x3e42406d	0.18969889
214	0x3e1be3b9	0.15223588
215	0x3df940a1	0.1217053
216	0xbe1c1c92	-0.15245274
217	0x3e2773d8	0.16352785
218	0x3e560716	0.2090114
219	0xbf518cc7	-0.81855434
220	0xbf07b681	-0.53012854
221	0x3cce92ac	0.025216423
222	0x3e201bc8	0.15635598
223	0xbf59b36a	-0.8503939
224	0xbec1acb2	-0.3782707
225	0xbe62af61	-0.22137214
226	0xbdb29ff0	-0.08721912
227	0xbe10901e	-0.14117476
228	0x3cde5e86	0.027144682
229	0xbea110eb	-0.3145822
230	0xbebf16b5	-0.37322012
231	0xbefa3f99	-0.48876646
232	0x3d56a05a	0.052399017
233	0xbd551f9c	-0.0520321
234	0x3e3466f1	0.17617394
235	0xbee2b142	-0.44275862
236	0xbf00af9a	-0.50267947
237	0x3e32b473	0.17451648
238	0xbf3ace3e	-0.7297095
239	0xbf4e926e	-0.80692184
240	0xbf326edd	-0.69700414
241	0xbb9c8804	-0.0047769565
242	0xbf049bce	-0.5180024
243	0x3e41cb67	0.18925248
244	0xbe2f5fa8	-0.17126334
245	0xbef7dfc9	-0.48412922
246	0xbd94a208	-0.072574675
247	0x3cd1e181	0.025620224
248	0xbdddb8bd	-0.10826252
249	0x3e528eb9	0.20562257
250	0xbedd3722	-0.43206125
251	0xbf5a65ea	-0.8531176
252	0xbf48bc44	-0.7841227
253	0x3e8d85dd	0.27641192
254	0x3df7185c	0.12065193
255	0xbe067a87	-0.13132678

arith.constant4 f4 [64, 64]
0	0x3b9ac5b9	0.0047232774
1	0xbb526dc5	-0.0032108885
2	0xbe76f100	-0.24115372
3	0xbf2195a1	-0.6311894
4	0xbe3a89ce	-0.18216631
5	0x3d47d0ce	0.048783116
6	0xbec45a6c	-0.38350236
7	0x3c9af07e	0.018913504
8	0xbc6e0c50	-0.014529303
9	0xbdd97e0a	-0.10619743
10	0xbbf8d804	-0.0075941104
11	0xbe3bd151	-0.18341567
12	0xbf2ac80e	-0.6671151
13	0x3e2e4148	0.1701709
14	0xbeaffb7b	-0.34371552
15	0xbec3e7b3	-0.3826271
16	0xbd600c69	-0.054699335
17	0xbb03028f	-0.0019990539
18	0xbcac3642	-0.021021966
19	0xbe09f393	-0.13471822
20	0xbe3abb65	-0.18235548
21	0xbc847b4b	-0.016172072
22	0x3d957b08	0.07298857
23	0xbf12a177	-0.57277626
24	0xbcd6222d	-0.026139343
25	0x3e3e6890	0.18594575
26	0xbe96ae35	-0.29429784
27	0x3d33ca3a	0.04389403
28	0xbdaf9985	-0.085742034
29	0x3eff5e80	0.49876785
30	0xbdeeb609	-0.11655814
31	0x3bb8b946	0.0056373207
32	0x3c66ff57	0.014098964
33	0x3e8f6206	0.28004473
34	0xbd4c75e4	-0.049917117
35	0xbe094cff	-0.13408278
36	0x3f17fc15	0.5936902
37	0x3daa8b27	0.083273225
38	0x3cfa608f	0.03056362
39	0x3dadcad4	0.08485952
40	0x3ef7c3eb	0.4839166
41	0xbd9645ab	-0.07337507
42	0xbd9e5e7d	-0.07732866
43	0xbdbf068d	-0.09327421
44	0xbe83b7a7	-0.25726053
45	0x3e38c1af	0.18042634
46	0xbef90f21	-0.48644355
47	0xbf026c76	-0.5094675
48	0x3e0f9f18	0.14025533
49	0xbef8235d	-0.4846448
50	0x3c4a4ca1	0.012347371
51	0x3e318231	0.1733482
52	0x3c1b223a	0.0094686095
53	0x3f3b6f66	0.73216856
54	0xbcfdfd70	-0.031004637
55	0x3e1943b4	0.14967233
56	0x3d79c167	0.06097546
57	0x3c83cd33	0.016089058
58	0x3b863bfa	0.004096505
59	0x3c167c2d	0.009184879
60	0xbe7f6dda	-0.24944249
61	0xbf5697d1	-0.83825403
62	0xbcd67440	-0.02617848
63	0xbf0c51b6	-0.5481218
64	0xb8bb081c	-8.918365e-05
65	0xbda36d64	-0.07979849
66	0x3e378fe1	0.17925979
67	0xbd17a8cf	-0.037026223
68	0xbe4e9c32	-0.20176771
69	0xbd622581	-0.055211548
70	0x3da75a1a	0.081714824
71	0xbdcff638	-0.101543844
72	0x3dd50048	0.10400444
73	0xbea29376	-0.3175313
74	0x3d559380	0.05214262
75	0xbd401875	-0.046898324
76	0x3dc9c962	0.09852864
77	0x3e6dc537	0.23219763
78	0x3dc16c62	0.094445005
79	0xbd9c9c08	-0.07646948
80	0xbf1cd379	-0.6126018
81	0x3c0177f0	0.0079021305
82	0x3e353928	0.17697585
83	0xbe95515e	-0.2916364
84	0x3d668531	0.056279365
85	0x3da985f6	0.08277504
86	0xbcad5f2f	-0.021163551
87	0xbd8d5a15	-0.069019474
88	0xbe6f6e13	-0.23381834
89	0xbd822f4b	-0.06356677
90	0xbdd75c2a	-0.10515626
91	0x3d08968f	0.03334671
92	0x3f2c94dd	0.6741465
93	0x3e511065	0.2041641
94	0xbad07afc	-0.0015905793
95	0xbf45ce01	-0.7726746
96	0x3ddfc30c	0.10925874
97	0xbea7fecf	-0.3281159
98	0xbef982ff	-0.48732755
99	0xbdc214c8	-0.0947662
100	0xbdac8de2	-0.084254995
101	0x3dbbfd30	0.09179151
102	0xbecae994	-0.3963133
103	0xbe522b75	-0.2052439
104	0x3e5f36ab	0.21798198
105	0x3e3c9c48	0.18418992
106	0xbf1714c5	-0.59016067
107	0xbe716ae4	-0.23575932
108	0x3ea13a40	0.31489754
109	0xbed2e364	-0.4118911
110	0x3e8e4235	0.27784887
111	0x3dc39962	0.0955074
112	0xbdb96ccf	-0.09053957
113	0x3df71445	0.12064413
114	0xbe5a2fbd	-0.21307273
115	0xbdb13c53	-0.08654084
116	0x3ceac370	0.028657645
117	0x3e0cec74	0.13762075
118	0x3c9468aa	0.018116314
119	0x3c1a4595	0.009416004
120	0xbd3f3517	-0.04668149
121	0xbe9f3fa6	-0.31103247
122	0x3e255b20	0.16148043
123	0x3d1dc8f0	0.038521707
124	0xbda90f6b	-0.08254894
125	0xbd192b38	-0.037394732
126	0xbe545325	-0.20734842
127	0x3f1ee498	0.62067556
128	0xbd3e1851	-0.04640991
129	0xbefa49b9	-0.4888437
130	0x3defd911	0.11711324
131	0xbd0dee11	-0.034650866
132	0xbe617a0a	-0.2201921
133	0xbdb7c940	-0.08973932
134	0x3c386805	0.011255269
135	0xbd3ee53a	-0.046605326
136	0x3ea87d3c	0.32908046
137	0x3d88180a	0.0664521
138	0xbd4b9ef4	-0.049712136
139	0xbe468263	-0.19385676
140	0x3e4075e5	0.18794973
141	0x3e215751	0.15755965
142	0x3d99f23f	0.07516908
143	0x3ed538ce	0.416449
144	0xbe29c4da	-0.16578999
145	0xbdc959cd	-0.09831581
146	0x3ca6ef58	0.0203778
147	0xbeaf9469	-0.34292915
148	0xbdba2e68	-0.090908825
149	0xbdca387d	-0.098740555
150	0x3e064ae9	0.13114513
151	0x3d0a8e28	0.033826977
152	0x3c606ef6	0.01369833
153	0xbeff1d60	-0.498271
154	0x3e11dd86	0.1424466
155	0xbe09add4	-0.13445216
156	0x3f055db5	0.5209611
157	0xbe9404e9	-0.28909996
158	0xbb1ceb21	-0.0023943859
159	0x3ca80aa1	0.02051288
160	0x3c5b80ca	0.013397405
161	0x3e574bc1	0.21024992
162	0xbf05d288	-0.5227437
163	0x3e248e87	0.16069995
164	0x3c3bc298	0.011459969
165	0x3d29339a	0.041308977
166	0x3ccdba9a	0.025113393
167	0xbe42b2fd	-0.19013591
168	0xbefad2ee	-0.48989052
169	0x3e424c13	0.18974333
170	0x3ded85a8	0.115977585
171	0xbe098eb9	-0.1343335
172	0x3f0361ee	0.51321304
173	0xbea95cab	-0.33078513
174	0x3e732fbe	0.23748681
175	0x3ec1ebe2	0.37875277
176	0xbd809035	-0.06277505
177	0x3e1a3930	0.15060878
178	0xbd762430	-0.060093105
179	0xbe4b2d28	-0.19841444
180	0xbe4f418d	-0.2023985
181	0x3f3cddd6	0.73775995
182	0x3e035633	0.12825851
183	0xbedb3b39	-0.4281862
184	0xbb572331	-0.0032827372
185	0x3e5a44f1	0.21315362
186	0x3bbe8229	0.005813856
187	0xbbcd4a85	-0.006264987
188	0x3e227bf6	0.158676
189	0xbe082ba4	-0.13297898
190	0x3d20b698	0.039236635
191	0x3e795b4a	0.2435123
192	0x3df8a8aa	0.12141545
193	0x3cc4364a	0.023951668
194	0x3d3247af	0.043525394
195	0xbd330921	-0.043709878
196	0xbd3c3400	-0.04594803
197	0xbb9c9858	-0.004778903
198	0xbc38ab66	-0.011271333
199	0xbccc5e66	-0.024947356
200	0x3decebea	0.115684345
201	0xbd12c0fd	-0.03582858
202	0xbc466b4c	-0.0121105425
203	0xbcddd8a1	-0.027080836
204	0xbe18c250	-0.14917874
205	0x3b45ac33	0.0030162453
206	0xbbfea47e	-0.007771074
207	0xbe4637b0	-0.1935718
208	0xbd80fe20	-0.062984705
209	0xbba04fba	-0.0048923166
210	0x3eae3d2f	0.34031054
211	0x3e9d1fa0	0.3068819
212	0xbe2417d1	-0.1602471
213	0xbe9f9f1c	-0.31176078
214	0x3f279523	0.6546194
215	0xbd002b45	-0.031291265
216	0xbe242c49	-0.16032518
217	0xbdf41e8c	-0.11919889
218	0x3eee72fb	0.46572098
219	0xbbc85808	-0.00611401
220	0xbea2f515	-0.31827608
221	0xbdfa8cca	-0.12233885
222	0xbe4e427f	-0.20142554
223	0xbe2036b9	-0.15645875
224	0x3bab71b6	0.0052320613
225	0xbe2d0fe6	-0.16900596
226	0xbb6fcf13	-0.0036591932
227	0x3dbcfa16	0.092273876
228	0xbcdbc1ee	-0.026825871
229	0x3f5340b4	0.82520604
230	0x3c3dd2d8	0.011585914
231	0xbc6af233	-0.014339971
232	0x3d100414	0.03516014
233	0xbdf5f7bc	-0.12010142
234	0x3bfa1934	0.007632399
235	0x3ea2125d	0.31654635
236	0xbe8f9683	-0.2804452
237	0xbe68690d	-0.22696324
238	0xbc763a02	-0.015028479
239	0xbe25ce63	-0.16192012
240	0xbca49a1f	-0.020093022
241	0xbba60b65	-0.0050672763
242	0xbd2924f2	-0.041295
243	0xbd0510fe	-0.03248691
244	0xbe08ca5a	-0.13358441
245	0xbe0fd52c	-0.14046162
246	0x3ef342d1	0.47511914
247	0xbb219925	-0.0024657932
248	0x3d6cb84d	0.05779295
249	0xbe670610	-0.22560906
250	0xbd5564c7	-0.052098062
251	0x3f8b10e0	1.0864525
252	0x3e6d0353	0.231458
253	0x3de7947c	0.11307618
254	0x3ec43bc8	0.3832686
255	0xbe02a5b0	-0.12758517

arith.constant5 f4 [40]
0	0xbf0c6eb7	-0.5485644
1	0xbe95fee6	-0.29296035
2	0xbee86ed1	-0.45397046
3	0x3ef72c51	0.48275998
4	0xbf33c9bc	-0.702297
5	0xbe0a2751	-0.1349156
6	0xbed52152	-0.41626984
7	0xbd640eac	-0.055678055
8	0x3f2de203	0.6792299
9	0x3f00352d	0.5008114
10	0x3f1c0fa7	0.60961384
11	0xbe30f273	-0.17279987
12	0xbe641d68	-0.22276843
13	0xbea0138f	-0.31264922
14	0x3d9cc954	0.07655588
15	0xbf62ec54	-0.8864186
16	0xbe95c06e	-0.29248375
17	0xbcd107f0	-0.02551648
18	0x3e8d524e	0.27601856
19	0x3f3789e2	0.7169477
20	0x3f212d96	0.62960184
21	0x3e1977fb	0.14987175
22	0xbf314e41	-0.6926003
23	0x3d9435c0	0.072368145
24	0xbdb8fa1c	-0.090320796
25	0xbe06f333	-0.1317871
26	0xbf43e60a	-0.76522887
27	0x3e6140f6	0.21997437
28	0x3e942de8	0.28941274
29	0xbec0d09b	-0.37659153
30	0x3e877615	0.26457277
31	0x3e18d719	0.14925803
32	0x3ea3c5a3	0.31986722
33	0x3c5bcfda	0.013416255
34	0xbe66f115	-0.22552903
35	0xbee22c29	-0.44174317
36	0x3eb2ae1d	0.34898463
37	0x3f912b6d	1.1341377
38	0xbf2b21b0	-0.6684828
39	0xbf223cff	-0.6337432

arith.constant6 f4 [64]
0	0x3eb18cb0	0.3467765
1	0x3dcbaa9f	0.09944653
2	0x3db0cf79	0.08633322
3	0x3cd830cd	0.026390458
4	0xbe020d8e	-0.12700483
5	0x3efe327d	0.49647895
6	0xbe108902	-0.14114764
7	0x3e2c9ef4	0.16857511
8	0x3d8f1a72	0.06987466
9	0xbe8af27f	-0.27138135
10	0x3ea3ae4e	0.3196892
11	0x3eaa0c06	0.33212298
12	0xbe503e38	-0.20336235
13	0x3dfef47f	0.12448978
14	0x3e12a23f	0.14319704
15	0x3e5ac4ed	0.21364184
16	0xbe2b2006	-0.16711435
17	0x3ea03fca	0.31298667
18	0xbe5d36ee	-0.21602985
19	0xbbfe721a	-0.007765067
20	0x3d86c3f1	0.065803416
21	0x3e00790d	0.12546177
22	0x3e8227f1	0.25421098
23	0x3d00e2c7	0.03146627
24	0xbe943bf4	-0.2895199
25	0xbc814473	-0.01577971
26	0xbd24a602	-0.04019738
27	0x3e4437e3	0.19161944
28	0xbeabcef8	-0.33556342
29	0xbcd6faef	-0.026242701
30	0x3ec6671c	0.3875054
31	0x3ea8bf3d	0.32958403
32	0x3e82fb39	0.25582293
33	0xbdcc25a1	-0.09968115
34	0x3ecc4598	0.39896846
35	0x3e4eec7a	0.20207396
36	0x3f3ff192	0.7497798
37	0x3e82917c	0.2550162
38	0x3de23fcf	0.11047327
39	0x3eb94693	0.36186656
40	0xbe5835d6	-0.21114287
41	0xbe171b2d	-0.1475646
42	0xbeb330ba	-0.34998113
43	0xbecfbbdd	-0.40573016
44	0xbe197679	-0.149866
45	0x3daffb45	0.08592848
46	0x3e954361	0.2915297
47	0xbeaaebcc	-0.33383024
48	0x3f2af7f1	0.6678458
49	0x3da248d2	0.079240456
50	0x3ec39adf	0.38204095
51	0x3dd67cf0	0.10473049
52	0xbefd689e	-0.4949388
53	0x3eae7f0b	0.340813
54	0x3d358cf6	0.044323884
55	0x3e7378ef	0.23776601
56	0xbd4e59d6	-0.050378643
57	0x3c77912a	0.015110293
58	0xbe2ca904	-0.1686135
59	0x3df8ee68	0.121548474
60	0x3f3503a1	0.7070866
61	0x3e72f497	0.23726116
62	0xbe9393ef	-0.28823802
63	0xbbceefa6	-0.0063151894

arith.constant19 f4 [256, 126]
0	0xbe0cbb39	-0.13743295
1	0xbd71dee4	-0.059050456
2	0x3c9c573c	0.019084565
3	0xbdbea959	-0.09309644
4	0xbd536f91	-0.05162007
5	0xbf98319b	-1.1890138
6	0x3c34b6e9	0.011029937
7	0x3e159c75	0.14610465
8	0xbf3bbf12	-0.73338425
9	0xbda55ee5	-0.0807474
10	0x3d7a1318	0.061053365
11	0xbe7a60c3	-0.24450974
12	0xbd9e5fbb	-0.07733103
13	0x3bfdf075	0.007749612
14	0xbe2ab5cd	-0.16670914
15	0x3d0f037d	0.034915436
16	0x3d86fafc	0.0659084
17	0xbc23fd7f	-0.010009169
18	0xbd770d7b	-0.06031559
19	0x3c137280	0.008999467
20	0x3eb7b8b6	0.3588311
21	0x3ca3977b	0.019969692
22	0x3e60521e	0.21906325
23	0x3ea1001b	0.31445393
24	0x3e1ca466	0.15297088
25	0x3ccd7ffa	0.025085438
26	0x3e7faad3	0.24967508
27	0x3d711d85	0.058866043
28	0x3de44675	0.11146251
29	0x3f0d2b38	0.5514407
30	0x3bce3d13	0.0062939017
31	0x3dfc9f94	0.123351246
32	0x3f011be6	0.50433195
33	0x3e0b1a38	0.1358422
34	0x3e5b3aec	0.21409196
35	0x3f00305b	0.50073785
36	0xbda362dc	-0.0797784
37	0x3e65ca43	0.22440438
38	0x3f0d42fa	0.55180323
39	0xbdc0d122	-0.09414889
40	0x3e1af4ae	0.151324
41	0x3f49ca95	0.7882474
42	0xbdbeabc5	-0.09310106
43	0x3e2ce720	0.16885042
44	0x3f1e2a01	0.6178284
45	0x3d68e873	0.056862306
46	0x3e258ff3	0.16168194
47	0x3f3036d8	0.68833685
48	0x3c0599a8	0.00815431
49	0x3d5eea05	0.054422397
50	0x3f2751ff	0.6535949
51	0xbd03bffa	-0.032165505
52	0x3df934a9	0.12168247
53	0x3f892311	1.0713826
54	0xbe212ad8	-0.15739
55	0xbd85de1f	-0.06536507
56	0x3f95bfcd	1.1699158
57	0xbda7b2fa	-0.08188434
58	0x3dcff15f	0.1015346
59	0x3f6f5fa7	0.9350533
60	0xbbcdc880	-0.006280005
61	0x3e3b092d	0.18265219
62	0x3f542c5f	0.82880205
63	0xbc495a7f	-0.012289642
64	0xbe128d09	-0.14311613
65	0x3e096864	0.13418728
66	0xbd11e491	-0.03561837
67	0xbe52d34a	-0.20588413
68	0x3ed182a6	0.4091999
69	0x3dc59927	0.09648352
70	0xbda349fe	-0.07973097
71	0x3e9d9b61	0.30782607
72	0x3df9bd1c	0.12194273
73	0xbe4afa76	-0.19822106
74	0x3e4fc7db	0.20291083
75	0x3cfa0495	0.030519763
76	0xbe254909	-0.16141142
77	0x3e998151	0.29981473
78	0xbd1f31fc	-0.03886603
79	0xbbf9af70	-0.0076197907
80	0x3ef1b854	0.47210944
81	0x3de67ae5	0.11253909
82	0xbe21875b	-0.1577429
83	0xbdf4f387	-0.11960512
84	0xbcb13115	-0.02162985
85	0xbdafc610	-0.08582699
86	0x3f149e13	0.580537
87	0xbba881e5	-0.0051424378
88	0xbb9cc327	-0.004784006
89	0xbd95876a	-0.07301219
90	0x3dec3e5f	0.11535334
91	0xb9e7ed04	-0.00044236344
92	0x3e9b7a42	0.30366713
93	0x3d29a7d0	0.041419804
94	0xbe456486	-0.19276628
95	0x3f0d1b29	0.5511957
96	0x3e0c7e72	0.1372011
97	0xbe1eb88d	-0.15500088
98	0x3ec92d7f	0.39292523
99	0x3d66a5c7	0.05631044
100	0xbde388eb	-0.111100994
101	0x3a86c865	0.0010283111
102	0x3cc2f36e	0.023797717
103	0xbdfead20	-0.12435365
104	0x3dfe57fb	0.12419125
105	0x3e2dbc83	0.16966443
106	0xbe203547	-0.15645324
107	0x3ee83c7c	0.45358646
108	0x3d7cf0f9	0.061753247
109	0xbe706be4	-0.23478657
110	0x3ef686b6	0.4814965
111	0xbcbd2dde	-0.02309316
112	0xbddd5349	-0.10806901
113	0x3ca28094	0.019836701
114	0xbc8f4243	-0.01748765
115	0xbe6e486b	-0.23269813
116	0x3f61b30a	0.88163817
117	0x3d90b32a	0.07065423
118	0xbe2569f7	-0.16153704
119	0x3cbb9057	0.022895975
120	0x3e1d408b	0.15356652
121	0xbe2fdc1b	-0.17173807
122	0x3e8fbdf8	0.28074622
123	0x3de0e27d	0.10980699
124	0xbcc25dc7	-0.023726357
125	0x3dbf51ea	0.09341796
126	0x3da29aac	0.079396576
127	0x3dfa12cb	0.12210616
128	0xbf0ec75d	-0.55772954
129	0xbd781fa6	-0.060577057
130	0x3dc39101	0.09549142
131	0x3e4851fb	0.19562523
132	0x3d00c3bd	0.03143667
133	0x3db83bc3	0.08995774
134	0x3e99ea72	0.3006168
135	0xbd879161	-0.06619526
136	0x3e3c54ae	0.18391678
137	0x3f263499	0.6492401
138	0x3d9eb932	0.07750167
139	0x3e114aa0	0.14188623
140	0x3f4813f9	0.78155476
141	0xbdf0e816	-0.11763017
142	0x3e24def6	0.16100678
143	0x3f9d981b	1.2312044
144	0xbd880b0c	-0.06642732
145	0x3dc8514a	0.0978113
146	0x3f3e6282	0.7436906
147	0x3c93eebd	0.018058175
148	0x3e1cba66	0.1530548
149	0x3eaa4139	0.33252886
150	0x3cdc30fb	0.026878824
151	0x3e0c6041	0.13708593
152	0x3dde1df5	0.108455576
153	0x3c5e01ef	0.013550266
154	0x3d8d84dc	0.069101065
155	0x3f8b14ec	1.086576
156	0x3d550b92	0.052012987
157	0xbdc1ae29	-0.094570465
158	0x3f34873f	0.7051887
159	0xbe09d97d	-0.13461871
160	0x3bfe91d9	0.0077688512
161	0x3d9b2196	0.075747654
162	0x3d5ca6dd	0.05387007
163	0x3a51b249	0.0007999284
164	0xbe1cfe6b	-0.15331428
165	0xbbe262be	-0.0069087436
166	0x3e09cf15	0.13457902
167	0x3f1d506f	0.61450857
168	0xbd3a4b23	-0.045481812
169	0xbce8a2dd	-0.028397972
170	0x3f15c4d0	0.5850344
171	0xbcc878f8	-0.024471745
172	0xbd76a9a4	-0.060220376
173	0x3cf6033b	0.030030837
174	0xbdafb1d8	-0.08578843
175	0xbe76099b	-0.24027102
176	0xbeb99db0	-0.3625312
177	0x3d3d8dd0	0.04627782
178	0x3d0b0a85	0.03394558
179	0x3eedac3a	0.4642046
180	0xbded0209	-0.11572654
181	0xbe073939	-0.13205422
182	0x3e5fbda0	0.2184968
183	0xbca7bf3e	-0.020476934
184	0xbd7ed72c	-0.062216923
185	0xbd93c433	-0.072151564
186	0x3d0f5a0b	0.03499798
187	0xbe40d088	-0.18829548
188	0xbe0f2431	-0.1397865
189	0x3d2f87e5	0.04285421
190	0x3db38485	0.087655105
191	0x3ea988cb	0.33112177
192	0xbdaf505f	-0.085602514
193	0x3e87fce0	0.26560116
194	0x3df3edb2	0.11910571
195	0x3d9134a4	0.070901185
196	0x3ddf2e65	0.10897521
197	0xbce421a2	-0.027848069
198	0x3d973163	0.07382467
199	0x3d8aba2f	0.06773793
200	0xbe5c7310	-0.21528268
201	0xbe1749d1	-0.14774252
202	0x3e22e1a9	0.15906395
203	0x3cf6ce5c	0.030127697
204	0xbdf2abe6	-0.11849193
205	0x3dab925a	0.08377524
206	0x3e928732	0.2861877
207	0x3d91a199	0.071109004
208	0x3e87c19c	0.265149
209	0xbcc0b2eb	-0.023522815
210	0x3c3f6de4	0.011683915
211	0x3e8a3333	0.26992187
212	0xbdc28133	-0.09497299
213	0x3c8de967	0.017323209
214	0x3e43b729	0.19112839
215	0xbe8b47c4	-0.2720319
216	0xba749018	-0.0009329333
217	0x3de3ecac	0.11129126
218	0x3e56b9d7	0.2096933
219	0x3c161cc0	0.009162128
220	0x3dbe2755	0.09284846
221	0xbebadb45	-0.36495414
222	0x3d03d393	0.032184195
223	0x3e0bb8ec	0.13644761
224	0xbd8c3661	-0.068463095
225	0x3a915d62	0.0011090452
226	0x3d12ab8f	0.035808142
227	0xbde774f8	-0.11301607
228	0xbe19e76d	-0.15029688
229	0x3d9561b9	0.0729403
230	0xbdc0443b	-0.09388014
231	0xbde259cf	-0.11052286
232	0x3d73c57f	0.05951452
233	0x3e2addb1	0.16686131
234	0xbe04f6ff	-0.12984847
235	0x3d1a8090	0.037720263
236	0x3e281191	0.16412951
237	0x3ccf9be1	0.025342884
238	0x3e392a2c	0.18082494
239	0xbe8357f2	-0.25653034
240	0xbe016008	-0.1263429
241	0x3dc30002	0.09521486
242	0xbe16d501	-0.14729692
243	0xbe06db75	-0.13169654
244	0x3e54439d	0.20728917
245	0x3c8e96df	0.017405925
246	0x3c0114a8	0.00787846
247	0x3d6ed374	0.058307126
248	0x3dbff60a	0.093731
249	0x3b354a26	0.0027662604
250	0x3e12b112	0.1432536
251	0xbec1d91e	-0.3786096
252	0x3e2232e3	0.15839724
253	0xbde6a499	-0.11261863
254	0xbef6c3dd	-0.48196307
255	0xbdcdab58	-0.10042447

arith.constant20 f4 [256, 64]
0	0xbcc67620	-0.024226248
1	0xbd0046fc	-0.031317696
2	0x3d514d7d	0.05109929
3	0xbe350bd3	-0.17680292
4	0xbdeddb96	-0.11614148
5	0x3da36197	0.07977598
6	0xbdea3fe1	-0.11437965
7	0x3d431727	0.0476295
8	0xbe71a7b3	-0.23599128
9	0xbe1a5fab	-0.15075557
10	0x3da22df3	0.0791892
11	0xbe6e3b31	-0.23264767
12	0xbe1671f8	-0.14691913
13	0xbe7228c7	-0.23648368
14	0xbedbd5c1	-0.4293652
15	0xbe2d1eee	-0.1690633
16	0x3e745f90	0.23864579
17	0x3d8a50df	0.06753706
18	0x3e902877	0.28155872
19	0xbe31a327	-0.17347394
20	0xbe405cab	-0.1878535
21	0xbe9218af	-0.28534457
22	0x3d4d7c20	0.050167203
23	0xbdc1f064	-0.09469679
24	0xbeefde13	-0.46849117
25	0xbdf7e19a	-0.12103577
26	0xbd10be9c	-0.03533803
27	0xbd3d93cc	-0.04628353
28	0x3de7d43b	0.113197766
29	0xbd7b50ea	-0.061356463
30	0x3e3e9fd6	0.1861566
31	0xbe07499e	-0.13211676
32	0xbe2280a8	-0.15869391
33	0xbec5e0c2	-0.3864804
34	0x3d7b82f0	0.06140417
35	0xbeaa8346	-0.3330328
36	0xbe3424c9	-0.17592157
37	0xbdefa6bb	-0.11701723
38	0x3c49bbec	0.0123128705
39	0xbe2da511	-0.16957499
40	0xbd3aa45e	-0.04556691
41	0x3ce9d964	0.028546043
42	0xbd555961	-0.05208719
43	0xbd1933ed	-0.037403036
44	0xbd972462	-0.07379986
45	0x3e3be4f5	0.18349059
46	0x3e92c848	0.28668427
47	0xbebc663c	-0.3679675
48	0xbd44bc12	-0.04803092
49	0x3e18e050	0.14929318
50	0x3db9d21a	0.09073277
51	0x3d9bc9a6	0.07606821
52	0x3e872653	0.26396427
53	0x3e37bbb7	0.17942701
54	0xbedacc7a	-0.42734128
55	0x3d11665e	0.035498016
56	0xbf32ff28	-0.6992059
57	0x3d0befd6	0.034164272
58	0x3deb4c1b	0.11489125
59	0xbd50c04a	-0.05096463
60	0xbe588841	-0.21145727
61	0xbdde985a	-0.108689025
62	0x3dadf2c6	0.08493571
63	0xbbda7938	-0.0066672824
64	0xbc5711d6	-0.013126811
65	0xbe30a905	-0.17251976
66	0xbdd4e896	-0.10395925
67	0x3e308374	0.17237645
68	0xbe207283	-0.15668683
69	0x3e375b12	0.17905834
70	0xbe63ba92	-0.2223914
71	0x3dd45a1a	0.10368748
72	0xbdec8d77	-0.1155042
73	0xbc4a40e7	-0.0123445755
74	0x3d3272a8	0.043566376
75	0x3dae65ae	0.085154876
76	0x3eac1cd7	0.33615753
77	0x3ddd7090	0.10812485
78	0xbddcac25	-0.107750215
79	0xbdf9c2ab	-0.12195333
80	0x3ee04ba1	0.438077
81	0x3e2fe355	0.17176564
82	0x3e7122c9	0.23548426
83	0x3dba4e61	0.09096981
84	0xbdc42878	-0.09578031
85	0x3d357cba	0.0443084
86	0x3dda192e	0.10649334
87	0x3daccb64	0.08437231
88	0xbe57cb74	-0.21073705
89	0x3ebbed86	0.36704654
90	0xbe0d21c5	-0.13782413
91	0x3da733b8	0.081641614
92	0xbd84c197	-0.06482237
93	0x3e275860	0.16342306
94	0x3e17e5f5	0.14833815
95	0xbd8f59a5	-0.0699952
96	0x3e017310	0.12641549
97	0xbea3edc5	-0.3201734
98	0xbcf1e3d9	-0.029527592
99	0x3e46da8a	0.19419304
100	0x3ca18924	0.019718714
101	0x3e929132	0.286264
102	0xbea81e67	-0.32835695
103	0x3be0f962	0.0068656662
104	0x3e4ca4bd	0.19984718
105	0x3dd93b74	0.10607043
106	0x3e237def	0.15966009
107	0xbde0d011	-0.109771855
108	0xbd98c21b	-0.07458898
109	0x3d0bf795	0.03417166
110	0x3d824a1f	0.06361794
111	0xbe25e577	-0.16200815
112	0x3d16f275	0.03685232
113	0xbdcacf56	-0.099028274
114	0x3e077773	0.1322916
115	0x3e49de5b	0.19713728
116	0x3d299db3	0.04141016
117	0x3da97f50	0.08276236
118	0x3c1d070e	0.0095842015
119	0x3d934095	0.071900524
120	0x3e5fd695	0.218592
121	0x3d935001	0.07192994
122	0x3e6eb940	0.23312855
123	0x3e6674f3	0.2250555
124	0x3d7254ae	0.059162788
125	0x3d7e49a5	0.06208195
126	0x3d8269d1	0.06367839
127	0x3aff8ea3	0.0019497465
128	0x3c6ade58	0.014335237
129	0xbe328360	-0.17432928
130	0xbd8f85c0	-0.07007933
131	0x3da7efc3	0.08200028
132	0xbcbe7ee6	-0.02325387
133	0xbd84b329	-0.064794846
134	0xbdcc07d5	-0.09962431
135	0x3dbb6e92	0.09151949
136	0x3dcb5deb	0.09930023
137	0xbdcf49fc	-0.10121533
138	0x3d6131bd	0.054979075
139	0xbd8e2d8e	-0.069422826
140	0xbd65bab4	-0.056086257
141	0x3e434089	0.19067587
142	0x3da7a2c3	0.08185341
143	0x3e94bed5	0.29051843
144	0x3df09704	0.11747554
145	0xbd4c53bf	-0.049884554
146	0x3e73c64b	0.23806112
147	0xbe50da22	-0.20395711
148	0xbe8d2737	-0.2756898
149	0xbcd93472	-0.026514266
150	0xbe191403	-0.1494904
151	0x3e1cd68f	0.15316223
152	0xbeb84b43	-0.3599492
153	0x3d3768eb	0.044777792
154	0x3c8f3f84	0.017486341
155	0x3d823cfc	0.06359288
156	0xbe8c2bb9	-0.27377108
157	0x3e382fa9	0.17986931
158	0x3e969dfc	0.29417408
159	0xbe18db50	-0.14927411
160	0xbd0f0465	-0.0349163
161	0x3d85f562	0.06540944
162	0x3d332a67	0.04374161
163	0xbeac89fc	-0.33699024
164	0xbdde575e	-0.10856508
165	0x3dc7afcf	0.0975033
166	0xbd80fd2b	-0.06298288
167	0xbe02c2d3	-0.12769632
168	0xbe38d9c5	-0.18051822
169	0xbcddef2d	-0.027091587
170	0x3d124c92	0.035717554
171	0x3e06118a	0.13092628
172	0x3d63bcb8	0.055599898
173	0xbe29587e	-0.16537663
174	0x3d5a3649	0.053274427
175	0x3c19e26b	0.009392361
176	0xbf0ca73a	-0.5494267
177	0x3daa46bd	0.083142735
178	0x3dc137a8	0.09434444
179	0x3d274ca4	0.040844575
180	0xbe0e0446	-0.13868818
181	0xbe1d8180	-0.15381432
182	0xbd46f15c	-0.048570022
183	0xbe98237a	-0.29714566
184	0xbf15375e	-0.5828761
185	0xbe842ad3	-0.25813922
186	0x3d001389	0.03126863
187	0xbec3ff89	-0.38280895
188	0x3e1f87fc	0.15579218
189	0x3d1c2590	0.03812176
190	0x3ec0d86a	0.3766511
191	0x3e57fb24	0.21091896
192	0xbd8b7837	-0.068100385
193	0xbe90d027	-0.28283808
194	0x3dc9e3de	0.09857915
195	0xbe582ef7	-0.21111666
196	0xbe06da85	-0.13169296
197	0x3e4d8066	0.20068511
198	0xbbbf3eda	-0.00583635
199	0x3da8e2fd	0.082464196
200	0xbd8fd7fe	-0.07023619
201	0xbd7c0fbd	-0.061538447
202	0xbe1228e5	-0.14273413
203	0x3d005405	0.031330127
204	0x3e539434	0.20662004
205	0xbe59180a	-0.21200576
206	0x3d7b57d3	0.061363053
207	0x3e30499a	0.17215577
208	0x3e842c36	0.2581498
209	0xbd526438	-0.051365107
210	0x3c64dd49	0.013968774
211	0xbe140e6d	-0.14458628
212	0xbe3bb3f9	-0.18330373
213	0xbc93285c	-0.01796358
214	0xbe321620	-0.17391253
215	0xbc665025	-0.014057194
216	0xbd537687	-0.05162671
217	0xbdf3a871	-0.11897362
218	0x3e113095	0.14178689
219	0x3e60183a	0.21884242
220	0x3d48ce85	0.049025077
221	0x3e53b274	0.20673543
222	0x3d141bbd	0.036159266
223	0x3c95d963	0.018292135
224	0xbde04401	-0.10950471
225	0xbe042945	-0.12906368
226	0x3dc3e9c5	0.095660724
227	0x3c918309	0.017762678
228	0xbdefe43c	-0.11713454
229	0x3e4cc05e	0.19995257
230	0xbd9119f3	-0.070850275
231	0x3d18c413	0.037296366
232	0x3da7c7b5	0.08192388
233	0xbda32c70	-0.0796746
234	0x3d374d2a	0.044751324
235	0x3e99b38d	0.300198
236	0x3de5036a	0.11182292
237	0x3e40bcb6	0.18821988
238	0xbdd74c91	-0.10512651
239	0x3e950e54	0.29112494
240	0xbea5e2a1	-0.32399467
241	0xbefd8b8f	-0.49520537
242	0xbdf741af	-0.12073075
243	0xbdb9ec8c	-0.09078321
244	0x3e009bfc	0.12559503
245	0x3e1c2eec	0.15252274
246	0xbe59343e	-0.21211335
247	0xbe05d4a6	-0.130694
248	0x3d177bac	0.036983177
249	0xbdd938cc	-0.10606536
250	0xbdfe1ca7	-0.12407809
251	0x3e81b66c	0.2533449
252	0x3dbbc856	0.091690704
253	0x3e9a61ee	0.3015284
254	0x3e0b5de0	0.13610029
255	0x3dd84410	0.10559857

sequential_1_1/lstm_1_1/while/lstm_cell_1/add_1/ReadVariableOp f4 [256]
0	0xbdd3c73d	-0.10340736
1	0x3d53a7ec	0.051673815
2	0xbdb5765f	-0.08860468
3	0xbb384305	-0.0028116119
4	0x3e00de59	0.12584819
5	0xbd75547b	-0.05989502
6	0xbd48fcc9	-0.0490692
7	0x3dfbb2bd	0.12289951
8	0x3a8a36a5	0.001054485
9	0xbe38846a	-0.18019262
10	0xbe09bc9b	-0.13450854
11	0x3daf5a8f	0.085621946
12	0xbd961178	-0.07327551
13	0xbcb4e41c	-0.022081427
14	0xbdd13745	-0.1021562
15	0xbd5afe77	-0.053465333
16	0x3df4c2b8	0.11951202
17	0x3da5badf	0.080922835
18	0x3d8d2101	0.068910606
19	0x3d6dd293	0.058062147
20	0x3d566172	0.052339025
21	0x3d6fe96b	0.058572214
22	0xbd8ea455	-0.069649376
23	0xbd327c17	-0.043575373
24	0x3d2caa89	0.042154822
25	0x3df77b2c	0.1208404
26	0xbc193485	-0.009350901
27	0xbd86ab78	-0.06575674
28	0xbda2ce36	-0.07949488
29	0x3d41f719	0.04735479
30	0x3d41a47c	0.047276005
31	0xbe1e3c5d	-0.15452714
32	0x3d74f2b6	0.05980178
33	0xbc7ccfe1	-0.015430422
34	0xbc058e59	-0.008151614
35	0xbd012a84	-0.031534687
36	0x3e054782	0.1301556
37	0x3def322e	0.11679493
38	0xbcd7ea74	-0.026356913
39	0xbddb620d	-0.10712061
40	0x3e13f4d9	0.1444887
41	0xbd288c7d	-0.041149605
42	0xbd86be70	-0.06579292
43	0x3d964896	0.073380634
44	0xbdaef3b5	-0.08542577
45	0xbc3aaef6	-0.011394253
46	0x3e16d7e0	0.14730787
47	0xbc27f8d0	-0.010252193
48	0xbd215546	-0.039387964
49	0xbd7c81f2	-0.061647363
50	0xbdb132b2	-0.086522475
51	0x3e0911c3	0.13385682
52	0x3dd149e1	0.102191694
53	0x3e1462ba	0.14490786
54	0x3dcac069	0.098999806
55	0x3ca6f0bb	0.020378461
56	0x3dce7158	0.10080212
57	0x3d3974ef	0.045277532
58	0x3de0c6aa	0.10975392
59	0x3d858b26	0.06520681
60	0x3d2b47c3	0.041816484
61	0x3d981c73	0.07427301
62	0xbdd124b7	-0.10212081
63	0x3c9e5cb7	0.01933132
64	0x3f67ee15	0.9059766
65	0x3f81ac95	1.0130793
66	0x3f7b2c48	0.9811444
67	0x3f7beddc	0.9840982
68	0x3f6600de	0.89845073
69	0x3f5e53e3	0.8684675
70	0x3f5f332e	0.8718747
71	0x3f8577f7	1.0427235
72	0x3f817dac	1.0116477
73	0x3f52a931	0.82289416
74	0x3f588e2f	0.84591955
75	0x3f79a5da	0.97518694
76	0x3f76631e	0.9624499
77	0x3f7bf1e9	0.98416
78	0x3f637873	0.88855666
79	0x3f80225d	1.0010487
80	0x3f9534b2	1.1656706
81	0x3f8a5d39	1.0809699
82	0x3f887d1f	1.0663184
83	0x3f7bf379	0.98418385
84	0x3f8f6bf4	1.120482
85	0x3f7bb7a3	0.9832708
86	0x3f786e4e	0.9704331
87	0x3f5618a9	0.8363138
88	0x3f92bb6a	1.1463444
89	0x3f95fa6b	1.1717046
90	0x3f8856d1	1.0651494
91	0x3f5bce94	0.8586209
92	0x3f6cd34a	0.925099
93	0x3f858302	1.0430605
94	0x3fae38a4	1.3611035
95	0x3f6492ef	0.892867
96	0x3f871fbe	1.0556562
97	0x3f6fef0d	0.9372414
98	0x3f799b81	0.97502905
99	0x3f838046	1.0273521
100	0x3f8c2576	1.0948932
101	0x3f82c950	1.0217686
102	0x3f63d05c	0.88989806
103	0x3f729ab0	0.94767284
104	0x3f97427c	1.1817164
105	0x3f7a9869	0.9788881
106	0x3f5582b2	0.8340255
107	0x3f96b427	1.1773728
108	0x3f5bd293	0.85868186
109	0x3f87c4de	1.0606954
110	0x3f822e2f	1.0170344
111	0x3f685ca4	0.9076636
112	0x3f78e526	0.9722465
113	0x3f90eec7	1.1322869
114	0x3f63fc40	0.8905678
115	0x3f8f9c75	1.1219622
116	0x3f8c1678	1.0944357
117	0x3f5a2ca4	0.85224366
118	0x3f871d0b	1.0555738
119	0x3f82be55	1.0214335
120	0x3f9a4201	1.2051393
121	0x3f80b641	1.005562
122	0x3f851852	1.0398047
123	0x3f88d362	1.0689509
124	0x3f7c8e4f	0.98654646
125	0x3f876689	1.0578166
126	0x3f4ef74e	0.80846107
127	0x3f740190	0.95314884
128	0xbe039aab	-0.1285197
129	0x3e1a374d	0.15060158
130	0xbd788b96	-0.060679995
131	0xbb7dc96f	-0.00387248
132	0xbd82d8d6	-0.063890144
133	0xbe37ec2a	-0.17961183
134	0xbde52aef	-0.111898296
135	0x3d92f638	0.07175869
136	0xbd7c6453	-0.061619114
137	0xbe412e96	-0.18865427
138	0xbe224094	-0.15844947
139	0x3c87d14e	0.016579296
140	0xbe238179	-0.15967359
141	0xbc02b298	-0.00797715
142	0xbe0ca388	-0.13734257
143	0x3c014fcc	0.00789256
144	0x3dc779a3	0.09739997
145	0xbc3e95da	-0.011632407
146	0x3d3c6f9c	0.046004876
147	0xbd9ca6d3	-0.07649007
148	0xbc920549	-0.017824786
149	0x3d24e17b	0.040254097
150	0xbdb68581	-0.089121826
151	0xbdc68c68	-0.09694749
152	0x3d370a71	0.044687692
153	0x3e3a42a3	0.18189482
154	0x3c98e4c7	0.018663777
155	0xbe5d5eb3	-0.21618156
156	0xbd384e88	-0.04499677
157	0xbb18001b	-0.0023193422
158	0xbcf5d446	-0.030008446
159	0xbe159836	-0.14608845
160	0x3e5b8ae7	0.21439706
161	0xbcbd086a	-0.023075301
162	0xbccc6ae3	-0.024953311
163	0xbd1fc76f	-0.039008554
164	0x3e0d7aee	0.13816425
165	0x3d00e8d3	0.03147204
166	0xbe33c2ba	-0.17554751
167	0xbd9e2720	-0.07722306
168	0x3e1c65dc	0.15273231
169	0xbd18ac53	-0.037273716
170	0xbe2ed42e	-0.17073128
171	0x3d9c6ba0	0.07637715
172	0xbe2e30cd	-0.17010804
173	0xba507812	-0.0007952462
174	0x3df158c5	0.117845096
175	0xbd1a3201	-0.037645344
176	0x3b9e8ec1	0.004838795
177	0x3d0574aa	0.032581963
178	0xbde0150e	-0.10941516
179	0x3d912bfe	0.07088469
180	0x3ddb8bdf	0.10720038
181	0x3e30cd1f	0.17265747
182	0x3e2e0e5d	0.16997667
183	0x3b05279a	0.0020317794
184	0x3de5cecf	0.11221086
185	0x3ddcaf8b	0.1077567
186	0x3d308c12	0.04310233
187	0x3d67c45b	0.056583744
188	0x3dad1007	0.084503226
189	0x3dff290f	0.12459003
190	0xbe89facb	-0.26949152
191	0xbb0ed938	-0.0021796953
192	0xbd4028a3	-0.046913754
193	0x3dedcb51	0.11611045
194	0x3d1d57f5	0.03841396
195	0x3e4ccea4	0.20000702
196	0x3c5b5747	0.013387508
197	0xbd60fae9	-0.054926787
198	0xbdc41945	-0.09575132
199	0xbd355717	-0.04427251
200	0x3d6032c7	0.054735925
201	0xbe4a635a	-0.19764462
202	0xbe3e781b	-0.18600504
203	0x3e0d4983	0.13797574
204	0xbdaa6922	-0.08320834
205	0xbd70e539	-0.058812354
206	0xbe118f35	-0.14214785
207	0x3ca6dd89	0.020369308
208	0x3dd4748e	0.103737935
209	0x3ddb08ca	0.10695036
210	0x3d80f7ef	0.062972896
211	0x3d7c2870	0.061562
212	0x3dbdc796	0.092665836
213	0xbc42464a	-0.0118575785
214	0x3bffe830	0.0078096613
215	0xbe421a9f	-0.18955468
216	0xbb55a338	-0.0032598507
217	0x3df136a9	0.11778004
218	0xbdf55477	-0.11979001
219	0xbe235a7c	-0.15952486
220	0x3d6c9702	0.0577612
221	0xbc14d065	-0.009082888
222	0x3d5e07d7	0.054206695
223	0xbe176574	-0.14784795
224	0x3b3631b6	0.0027800626
225	0xbcfedeec	-0.031112157
226	0x3d0aeb8d	0.033916045
227	0x3d515c30	0.051113307
228	0x3dd6828e	0.1047412
229	0x3de7dfe5	0.11322001
230	0xbd4c47a1	-0.049873
231	0x3d3fb404	0.046802536
232	0x3da16520	0.07880616
233	0xbd1d6db4	-0.0384347
234	0xbdf63521	-0.12021852
235	0x3d37bbcc	0.04485683
236	0xbe06f45a	-0.1317915
237	0xbcd0b279	-0.025475727
238	0x3d9f5e82	0.07781698
239	0xbdc6fa60	-0.09715724
240	0xbd851736	-0.06498568
241	0xbe0ced2c	-0.13762349
242	0xbd77c130	-0.060486972
243	0x3e132d14	0.14372665
244	0x3e1e6b91	0.15470721
245	0xbc9fa94f	-0.019489912
246	0x3d63aa6e	0.055582456
247	0x3d26c315	0.04071339
248	0x3d5194c1	0.051167253
249	0xbe0c3b4d	-0.13694496
250	0x3df41310	0.119176984
251	0x3c21e5bd	0.009881434
252	0x3d39c54f	0.045354184
253	0xbd716e28	-0.058942944
254	0x3c7853e5	0.015156721
255	0xbdf9b339	-0.12192387
