ai/sign_classifier.tflite (tflite, 277152 bytes, 6 tensors)

arith.constant f4 [26, 128]
0	0xbe3620dd	-0.17785974
1	0xbfa3774d	-1.2770783
2	0xbdbca77c	-0.092116326
3	0xbfb32bd5	-1.3997751
4	0xbedf27ab	-0.43584952
5	0xbe594e5f	-0.21221302
6	0xbf4dace1	-0.8034192
7	0xbf64fd97	-0.8944945
8	0xbfc478a0	-1.5349312
9	0xbfa525af	-1.2902125
10	0xbf039dd6	-0.51412714
11	0xc0068f69	-2.102503
12	0xbf8ea79d	-1.1144902
13	0xbca2e1dd	-0.01988309
14	0xbfcb39b2	-1.5876982
15	0xbe7d352e	-0.24727318
16	0xbf23985a	-0.63904345
17	0xbfa21047	-1.2661217
18	0xbfc440f9	-1.5332328
19	0xbec65d7e	-0.38743204
20	0xbf8bef22	-1.0932353
21	0xbff53731	-1.9157468
22	0xc01365f1	-2.303097
23	0xbec6331f	-0.38710877
24	0xbe0d845c	-0.13820022
25	0xbfaeba29	-1.3650562
26	0xbf0d0bec	-0.55096316
27	0xbe4dadf6	-0.20085892
28	0xbed520f6	-0.4162671
29	0xbf556b86	-0.8336719
30	0xbf8249ae	-1.0178735
31	0xc0012d56	-2.018392
32	0xc044139c	-3.0636969
33	0xbf7ebffd	-0.995117
34	0xbe6682c3	-0.22510819
35	0xbea3146d	-0.3185152
36	0xbeb3ee8a	-0.35142928
37	0xbfda8ce6	-1.7074249
38	0xbef81822	-0.48455912
39	0xbfebf8db	-1.843532
40	0xbfef69f1	-1.8704206
41	0xbfb79620	-1.434269
42	0xbfdc421b	-1.7207674
43	0xbefb454a	-0.490763
44	0xbe53b9ab	-0.20676295
45	0xbfab859a	-1.3400147
46	0xbf58d8f9	-0.84706074
47	0xbfad3dd4	-1.3534493
48	0xbf82d934	-1.0222535
49	0xbfb9146b	-1.4459356
50	0xbf681c5c	-0.9066827
51	0xbfd4401a	-1.6582062
52	0xbeb11cea	-0.34592372
53	0xbf8dc392	-1.1075308
54	0xbff2bcdd	-1.8963886
55	0xbe6fa0fb	-0.23401253
56	0xbed63db7	-0.4184396
57	0xbe5048e7	-0.2034031
58	0xbfbccc6f	-1.4749888
59	0xbfd24592	-1.6427481
60	0xbd66ff09	-0.056395564
61	0xbee71f2e	-0.45140976
62	0xbfe9df1d	-1.8271214
63	0xbfe89628	-1.8170824
64	0xbde174ef	-0.110086314
65	0xbca0b65a	-0.019618202
66	0xbeaf6df1	-0.34263566
67	0xc00878b6	-2.1323676
68	0xbfbd9750	-1.4811802
69	0xbfee7589	-1.8629619
70	0xbfb51f85	-1.4150244
71	0xbfd81dc7	-1.6884087
72	0xbfbbf8e0	-1.4685326
73	0xbf1ce660	-0.61289024
74	0xbedc49b4	-0.4302498
75	0xbd252a00	-0.040323257
76	0xbf9fad26	-1.2474716
77	0xbe0eca9e	-0.1394448
78	0xbf8dd0cc	-1.1079345
79	0xc018d5cf	-2.3880498
80	0xbf288f8f	-0.65844053
81	0xbf5353f4	-0.8254998
82	0xbf476d11	-0.779008
83	0xbf339762	-0.70152867
84	0xbfc9ed14	-1.5775476
85	0xbf08572a	-0.53258
86	0xbf5b3f3c	-0.85643363
87	0xbfffe307	-1.9991158
88	0xbf599541	-0.8499337
89	0xbf386cda	-0.72041094
90	0xbfdcd5ad	-1.7252709
91	0xbf0bdc10	-0.54632664
92	0xbfd40f3a	-1.6567147
93	0xbf004a00	-0.50112915
94	0xbf4dcdb0	-0.8039198
95	0xc00029e6	-2.0025573
96	0xbfbb7120	-1.4643898
97	0xbe2b85a9	-0.16750206
98	0xbf925d10	-1.143465
99	0xbf9534b6	-1.1656711
100	0xbebaff26	-0.36522788
101	0xbf4d1599	-0.8011108
102	0xbfca5b9d	-1.5809208
103	0xbe1a58a1	-0.15072872
104	0xbfc06c9d	-1.5033146
105	0xc0092489	-2.142855
106	0xbf5fe1d8	-0.87453985
107	0xbedcb504	-0.43106854
108	0xbf2d2d05	-0.6764682
109	0xbf8e33e8	-1.110959
110	0xbfc7d0a1	-1.5610543
111	0xbf84fe82	-1.039017
112	0xbe4a73f0	-0.19770789
113	0xbf6bb4e8	-0.92072916
114	0xbf4abd92	-0.7919551
115	0xbe589a61	-0.21152641
116	0xbf8aec27	-1.0853318
117	0xbfafbdab	-1.3729757
118	0xbe094654	-0.13405734
119	0xc0050cf7	-2.0789163
120	0xbe74d5d5	-0.23909695
121	0xbfe589bd	-1.7932659
122	0xbe6934ec	-0.22774094
123	0xbf292f42	-0.66087735
124	0xbeffebe6	-0.49984664
125	0xbf98eece	-1.1947877
126	0xbf01b7d8	-0.5067115
127	0xbf087e48	-0.5331769
128	0xbdd39c87	-0.103325896
129	0xbf3bd8f4	-0.7337792
130	0xbf8153f2	-1.0103743
131	0xbf3fd8d5	-0.74940234
132	0xbf17c7c2	-0.5928918
133	0xbec87087	-0.39148352
134	0xbfb567e9	-1.4172336
135	0xbf801655	-1.0006815
136	0xbfee753d	-1.8629528
137	0xbecf7622	-0.40519816
138	0xbf93d290	-1.1548634
139	0xbfbabc30	-1.458868
140	0xbeb362a3	-0.3503619
141	0xbcd84a0c	-0.026402496
142	0xbf47ecb2	-0.78095543
143	0xbe12c805	-0.14334114
144	0xbe1b2608	-0.15151227
145	0xbf3c65bb	-0.7359273
146	0xbed40cdd	-0.41416064
147	0xbf25584e	-0.6458787
148	0xbfb24bbd	-1.3929363
149	0xc018580f	-2.3803747
150	0xbf9ea887	-1.239518
151	0xbf780e6e	-0.9689702
152	0xbe7f73c6	-0.24946508
153	0xbed84f9b	-0.42248234
154	0xbf32908e	-0.6975182
155	0x3da1764b	0.07883891
156	0xbf30aaa0	-0.69010353
157	0xbe848961	-0.25886062
158	0xbe5aff5c	-0.21386474
159	0xbf854cf7	-1.0414113
160	0xbf5041bf	-0.8135032
161	0xbecba9fb	-0.39778122
162	0xbd5b3685	-0.05351879
163	0xbfaa8314	-1.3321252
164	0xbeb861b4	-0.36012042
165	0xbf52dd07	-0.8236851
166	0xbe9b6475	-0.3035008
167	0x3c92d921	0.0179258
168	0xbe22e5bb	-0.15907948
169	0xbe91ddf3	-0.28489646
170	0xbf84e922	-1.0383646
171	0xbf47a731	-0.7798949
172	0xbf99b3c0	-1.200798
173	0xbe60f11b	-0.21966974
174	0xbe73f3d4	-0.23823482
175	0xbf5ca34b	-0.86186665
176	0xbf59d4c2	-0.8509027
177	0xbf8d01bf	-1.1016158
178	0xbfa6fef2	-1.3046553
179	0xbde676ac	-0.112531036
180	0xbf8daa3a	-1.1067574
181	0xbe3c56da	-0.18392506
182	0xbf892e57	-1.0717267
183	0xbf214b0a	-0.63005126
184	0xbfe44a6a	-1.7835209
185	0xbf3bcb7d	-0.73357373
186	0xbf9ff68b	-1.2497114
187	0xbf2c0910	-0.6720133
188	0xbd90037f	-0.07031917
189	0xbfbad8b5	-1.4597384
190	0xbe9b4ea1	-0.30333427
191	0xc0258e79	-2.5868208
192	0xbf445bab	-0.76702374
193	0xbe122d19	-0.14275016
194	0xbefc12de	-0.49233145
195	0xbf87e325	-1.0616194
196	0xbf86e0b3	-1.0537323
197	0xc0425254	-3.036275
198	0xbf6a823c	-0.9160497
199	0xbf64baaa	-0.89347327
200	0xc00e62ec	-2.2247877
201	0xbef49d65	-0.47776332
202	0xbe556c71	-0.20842148
203	0xbf98cb07	-1.1936959
204	0xbf07fdb0	-0.5312147
205	0xbe9626ad	-0.29326382
206	0xbf1818e3	-0.59412974
207	0xbfbbc4e8	-1.4669466
208	0xbe8bc355	-0.27297464
209	0xbf8de261	-1.108471
210	0xbebe8960	-0.37214184
211	0xbda8d869	-0.08244402
212	0xbf83ae28	-1.0287523
213	0xbfd0840f	-1.6290301
214	0xbfbc1c76	-1.4696186
215	0xbe1ab2c2	-0.15107253
216	0xbe7268b8	-0.2367276
217	0xbfdb9336	-1.71543
218	0x3d817eae	0.0632299
219	0xbe970513	-0.2949606
220	0xbfb506d1	-1.4142705
221	0xbe9fbd95	-0.31199327
222	0xbe9ce932	-0.30646664
223	0xbf4692ad	-0.7756756
224	0xbf968f50	-1.1762486
225	0xbe0ffe3a	-0.14061823
226	0xbf0b6b45	-0.54460555
227	0xbfae6245	-1.362374
228	0xc01a9687	-2.4154375
229	0xbf33c419	-0.70221096
230	0xbf824f80	-1.0180511
231	0xbe80491a	-0.25055772
232	0xbea6c3d0	-0.32571268
233	0xbd4b4a9e	-0.049631707
234	0xbfcb5249	-1.5884486
235	0xc03f6b75	-2.9909337
236	0xbf96d0d1	-1.1782476
237	0xbf4fe96b	-0.8121554
238	0xbfd13091	-1.6342946
239	0xbfce057d	-1.6095425
240	0xbedb70e7	-0.42859575
241	0xbe928870	-0.2861972
242	0xbedc5475	-0.43033186
243	0xbfc1e059	-1.514659
244	0xbf7d3235	-0.98904735
245	0xbf9dd11f	-1.2329444
246	0xbe8c7258	-0.27430987
247	0xc074a119	-3.8223326
248	0xbe87214d	-0.26392594
249	0xbe5ed09a	-0.21759263
250	0xbf1cdf74	-0.6127846
251	0xbfa84b12	-1.314791
252	0xbfeae99a	-1.835254
253	0xbf9e258e	-1.2355211
254	0xbfc85d9a	-1.5653565
255	0xbf7bad97	-0.9831175

arith.constant1 f4 [128, 256]
0	0x3cd73f76	0.026275378
1	0x3e0c16d7	0.13680588
2	0xbf1257e5	-0.57165366
3	0x3dc83fe9	0.09777815
4	0x3df82f90	0.12118447
5	0x3ded806c	0.1159676
6	0x3de501ad	0.1118196
7	0xbf5ccbeb	-0.86248654
8	0x3e317be0	0.17332411
9	0xbd299b98	-0.04140815
10	0xbe0270df	-0.1273837
11	0x3ee4bf89	0.4467738
12	0xbd97802f	-0.07397496
13	0xbcdf5ac7	-0.027264966
14	0xbe8c25bc	-0.2737254
15	0x3e072200	0.13196564
16	0xbc8c56ed	-0.017131293
17	0x3eb0fdce	0.34568638
18	0xbe8b05ab	-0.27152762
19	0x3ed5cf98	0.41759944
20	0x3e505ab8	0.20347106
21	0xbd66f4d1	-0.05638582
22	0xbd09a81a	-0.03360758
23	0xbde7863a	-0.113048986
24	0x3e4d3a6a	0.20041814
25	0xbde70ba3	-0.112815164
26	0x3cb630f0	0.022240132
27	0x3c46e24f	0.012138917
28	0x3e3c7f9b	0.18408053
29	0x3e0c431a	0.13697472
30	0xbdd200a5	-0.10254029
31	0x3dc5b3e3	0.09653451
32	0x3e06961e	0.13143203
33	0x3e825e5a	0.2546261
34	0xba86f262	-0.0010295624
35	0x3c1cf116	0.009578964
36	0xbd2067b6	-0.039161406
37	0xbca4458c	-0.020052694
38	0x3f15c599	0.58504635
39	0x3d94870f	0.07252323
40	0xbb979542	-0.004625947
41	0xbd8ed5b0	-0.069743514
42	0xbeadf03b	-0.33972344
43	0x3c85079e	0.016238984
44	0x3e19bba6	0.15012988
45	0x3cba4c49	0.022741454
46	0x3b9e24bf	0.004826158
47	0xbd5e9070	-0.054336965
48	0xbdead86e	-0.11467062
49	0xb9dbb362	-0.00041904586
50	0xbf414fb1	-0.75512224
51	0xbe755b62	-0.23960641
52	0x3f229aa1	0.63517195
53	0xbf0ab355	-0.5417989
54	0xbc9cb5b7	-0.019129617
55	0x3f59f22e	0.8513516
56	0x3e174b19	0.14774741
57	0x3cd18b19	0.025579022
58	0x3d0b6e27	0.034040596
59	0x3c290658	0.010316454
60	0x3ec71602	0.38883978
61	0x3cf1982e	0.02949151
62	0x3de942a7	0.11389666
63	0xbc7590f6	-0.014988175
64	0xbc665dc0	-0.014060438
65	0xbd36f930	-0.044671237
66	0x3d35262e	0.044225864
67	0xbd9929ea	-0.074786976
68	0x3e08824c	0.13330954
69	0xbdd6be21	-0.10485483
70	0xbe8a0b53	-0.26961765
71	0x3d6d1b19	0.05788717
72	0x3e5386d7	0.20656906
73	0xbe0b84a3	-0.13624816
74	0x3ce336aa	0.027736027
75	0xbdfb54b0	-0.12272012
76	0xbe34edd2	-0.17668846
77	0xbe37449a	-0.17897263
78	0x3f134d5d	0.5753992
79	0x3dd719ae	0.10502945
80	0xbda548b7	-0.0807051
81	0x3f08eae0	0.5348339
82	0xbf21c094	-0.63184476
83	0xbefac517	-0.48978493
84	0x3e5a8a70	0.21341872
85	0xbc847a1e	-0.016171511
86	0x3d725595	0.05916365
87	0xbbc17755	-0.005904118
88	0xbdbc319c	-0.0918915
89	0xbd7e52bd	-0.062090624
90	0xbd9f43ca	-0.077766016
91	0x3c1b8aef	0.009493574
92	0x3de43a75	0.11143962
93	0x3c34b5bb	0.011029656
94	0x3deab8ca	0.11461027
95	0x3d591363	0.052997004
96	0xbdb7cc46	-0.08974509
97	0x3d2ea70f	0.04263979
98	0x3d223650	0.039602578
99	0x3d09b650	0.033621132
100	0xbd585679	-0.05281684
101	0xbe49318a	-0.19647804
102	0xbe558389	-0.20850958
103	0x3ab5f900	0.0013883412
104	0xbd62e72a	-0.055396236
105	0x3dd7e35a	0.10541411
106	0x3ca67e93	0.020324027
107	0x3ca56d6a	0.020193774
108	0x3cee2e50	0.029074818
109	0xbeac5c7a	-0.33664304
110	0x3d714444	0.058902994
111	0xbd8ca59b	-0.06867524
112	0xbe7af991	-0.24509265
113	0x3cf75a7b	0.030194512
114	0xbc005190	-0.007831946
115	0xbe22afc4	-0.15887362
116	0xbe127a83	-0.14304547
117	0xbe568754	-0.20950061
118	0xbdb97171	-0.0905484
119	0x3e62e009	0.22155775
120	0xbcfbcc6c	-0.030737124
121	0xbc29ece2	-0.010371419
122	0xbe7ebb22	-0.24876073
123	0xbf1c5189	-0.6106191
124	0xbd51efac	-0.05125396
125	0x3c69c8af	0.014269038
126	0x3b567400	0.003272295
127	0x3d5b5d28	0.053555638
128	0xbd9e656e	-0.0773419
129	0xbcff46b3	-0.031161642
130	0x3db33203	0.08749773
131	0xbe0eee6a	-0.13958135
132	0x3cce9d72	0.02522156
133	0xbdcaceef	-0.09902751
134	0xbd924c75	-0.07143489
135	0xbe01ecf0	-0.1268804
136	0xbe1e85e3	-0.15480761
137	0xbe22fba6	-0.15916309
138	0x3e9b113b	0.30286583
139	0xbe771ad8	-0.24131334
140	0x3de1149b	0.10990258
141	0x3d7fa008	0.062408477
142	0xbcfb9200	-0.030709267
143	0x3e05e977	0.13077341
144	0x3e0f175a	0.13973752
145	0xbe4f6794	-0.20254356
146	0xbd0a93b9	-0.033832286
147	0x3dbe27b5	0.09284917
148	0x3de4684c	0.111527056
149	0xbe81cdb9	-0.25352266
150	0xbda6ec95	-0.08150593
151	0x3d95e562	0.07319142
152	0xbf27230f	-0.6528787
153	0x3f959e8e	1.1689012
154	0xbce5e3fa	-0.02806281
155	0x3a4f8ebb	0.0007917692
156	0x3da88faa	0.08230527
157	0x3ad292ec	0.0016065515
158	0xbdf66d72	-0.12032594
159	0x3cf30555	0.029665628
160	0x3e0366ab	0.12832133
161	0xbd514a64	-0.051096335
162	0xbf5e79cb	-0.8690459
163	0xbdd60609	-0.1045037
164	0x3e134dbf	0.14385127
165	0xbdd5463a	-0.10413785
166	0xbd4b4c8f	-0.04963356
167	0xbcd2474c	-0.025668763
168	0x3dca59a2	0.09880377
169	0xbe1b6232	-0.15174177
170	0xbd798069	-0.060913477
171	0x3d1ab4a6	0.037769936
172	0xbdab9728	-0.0837844
173	0x3d399188	0.045304805
174	0x3fc7e23a	1.5615914
175	0xbd9b1424	-0.07572201
176	0xbef7c131	-0.4838958
177	0xbe7394a3	-0.23787169
178	0xbcbf29bf	-0.023335336
179	0xbac28642	-0.0014841037
180	0xbc63d602	-0.013906004
181	0xbd2dd51a	-0.042439558
182	0x3dfa8962	0.12233235
183	0xbdde01bc	-0.108401746
184	0xbf059000	-0.5217285
185	0x3e846dce	0.25865024
186	0xbe2d6947	-0.16934691
187	0xbc885871	-0.016643735
188	0x3dd087b4	0.10182133
189	0xbe2c5efa	-0.16833106
190	0x3e1bf356	0.15229544
191	0xbd13fb80	-0.03612852
192	0xbe2e2abc	-0.1700849
193	0x3e1ee4ed	0.15517016
194	0xba9027be	-0.0010998172
195	0xbcb138af	-0.021633474
196	0x3f087644	0.5330546
197	0x3f69c6b3	0.91318816
198	0xbdbcfdb5	-0.09228078
199	0xbe97b0b5	-0.29627004
200	0x3e2d3883	0.16916089
201	0xbea03e98	-0.31297755
202	0xbe084c45	-0.13310345
203	0xbed83339	-0.4222658
204	0x3db39544	0.087687045
205	0x3d2141fa	0.03936956
206	0xbd21e4af	-0.03952473
207	0xbe422ef7	-0.18963228
208	0xbdd4af9a	-0.10385056
209	0x3e805b3b	0.25069603
210	0xbe3fd3de	-0.18733165
211	0x3d3b7e24	0.045774594
212	0xbdf4b3dc	-0.11948368
213	0xbe9ff6fb	-0.3124312
214	0xbda032f8	-0.078222215
215	0x3d364592	0.04449994
216	0xbbe609bc	-0.0070202034
217	0x3dee3d7c	0.11632821
218	0xbb9d2484	-0.004795613
219	0xbe3c3e55	-0.18383153
220	0xbd9b4475	-0.075814165
221	0xbbfdfb85	-0.0077509307
222	0xbdf6bb27	-0.12047415
223	0x3d07adf4	0.03312488
224	0xbd2e7aa0	-0.042597413
225	0xbd84ac95	-0.0647823
226	0x3dda0298	0.10645026
227	0xbe062801	-0.13101198
228	0x3c057ce0	0.008147448
229	0x3cc688ac	0.024235092
230	0xbf27933c	-0.65459037
231	0x3a003706	0.00048910116
232	0x3d26c4fd	0.040715206
233	0xbddfd66a	-0.10929568
234	0xbce79fb1	-0.028274389
235	0x3e7021ac	0.23450345
236	0x3db7c4e4	0.08973101
237	0xbd927446	-0.07151084
238	0x3dd0f75c	0.1020343
239	0x3e7cc10c	0.24683017
240	0x3dc182b2	0.09448756
241	0xbaba9620	-0.0014235415
242	0x3b8a09df	0.0042126025
243	0x3e7886c6	0.24270162
244	0x3c8987cd	0.016788388
245	0xbe8b7f42	-0.27245528
246	0xbdf6de2b	-0.12054094
247	0xbeac9563	-0.33707723
248	0xbd545e11	-0.05184752
249	0xbd980044	-0.07421926
250	0xbdaf0e0b	-0.085476
251	0x3e8e1f42	0.27758223
252	0x3ccbcdc0	0.024878383
253	0x3efb68c9	0.49103382
254	0xbea05a34	-0.3131882
255	0xbe5949e5	-0.21219595

arith.constant2 f4 [26]
0	0x3f1b2b1d	0.6061266
1	0xbeadbdd7	-0.339339
2	0x3f7a6970	0.97817135
3	0x3f3d5d8f	0.73970884
4	0xbf163f48	-0.5869031
5	0xbeef0b82	-0.46688467
6	0xbe839ed2	-0.25707108
7	0xbf045edf	-0.5170726
8	0x3d2a463a	0.04157088
9	0xbe87f2ad	-0.26552334
10	0xbe9e20d6	-0.30884427
11	0xbf332063	-0.69971293
12	0xbfa007fb	-1.2502435
13	0xbf9d18c8	-1.2273188
14	0x3e80fe0f	0.2519383
15	0xbd445e1a	-0.047941305
16	0xbf2adfcf	-0.66747755
17	0x3f111ad4	0.5668156
18	0xbe4d15a4	-0.20027786
19	0x3eec323a	0.4613207
20	0x3f30bdb0	0.6903944
21	0x3e9d5c53	0.307345
22	0xbfc05034	-1.5024476
23	0x3f00379c	0.50084853
24	0xbc4981bd	-0.012298998
25	0x3f25f649	0.64828926

sequential_1/dense_1_2/BiasAdd/ReadVariableOp f4 [128]
0	0x3ea99267	0.3311951
1	0x3f0b56ce	0.5442933
2	0x3de5c8e2	0.11219956
3	0xbea79437	-0.32730266
4	0x3f6f0815	0.9337171
5	0x3eb85bf3	0.36007652
6	0x3e539713	0.20663099
7	0x3eae2de3	0.34019384
8	0x3ef9d841	0.487978
9	0x3f32103c	0.6955602
10	0x3f7040d2	0.9384891
11	0x3c105bf3	0.008810985
12	0x3f87ae31	1.0600034
13	0x3f0278e9	0.50965744
14	0x3f7ea753	0.99474066
15	0xbe039cac	-0.12852734
16	0x3f86e755	1.0539347
17	0x3f15803e	0.5839881
18	0xbe39c06c	-0.1813981
19	0xbeaeb14d	-0.34119645
20	0x3e89f15f	0.26941964
21	0xbbc4fa23	-0.006011264
22	0x3f87d331	1.0611326
23	0x3f3a8285	0.72855407
24	0xbe16c3d2	-0.14723137
25	0x3f271e7a	0.6528088
26	0xc01123f7	-2.2678201
27	0x3e8cdd13	0.27512416
28	0x3ec5775c	0.38567626
29	0x3f70a35d	0.9399927
30	0x3f333e8b	0.7001731
31	0x3e3c9110	0.18414712
32	0xbd678a37	-0.056528296
33	0x3f54da51	0.83145624
34	0x3e96662d	0.2937483
35	0xbf385a8b	-0.7201316
36	0x3d4a3004	0.049362198
37	0x3e39d00c	0.1814577
38	0xbe483b2b	-0.19553821
39	0xbc275b49	-0.010214635
40	0x3f629d86	0.8852161
41	0x3f351a13	0.7074291
42	0x3e613848	0.21994126
43	0xbd95711c	-0.072969645
44	0xbf1d5b5f	-0.61467546
45	0xbedc94ed	-0.4308237
46	0x3f8d161f	1.1022376
47	0x3ef5a1f6	0.4797513
48	0x3f80a1b5	1.0049349
49	0xbe446e00	-0.19182587
50	0x3f20d99d	0.6283205
51	0x3f2b2672	0.6685554
52	0x3fb6ba20	1.4275551
53	0xbf5a8575	-0.8535989
54	0x3f0154b3	0.50519866
55	0x3f0531f5	0.52029353
56	0x3eb5a3c9	0.3547652
57	0x3f2b0e54	0.6681874
58	0x3e74594f	0.23862194
59	0x3f60ed03	0.8786165
60	0xbe0c8bda	-0.13725224
61	0x3f8335f5	1.0250841
62	0xbf926f2e	-1.1440179
63	0x3ca15d52	0.019697819
64	0x3f00102e	0.5002469
65	0x3f804711	1.0021688
66	0xbf67cd14	-0.905473
67	0x3ec7bc0b	0.39010653
68	0x3f996b0b	1.1985792
69	0x3e7f00a6	0.24902591
70	0x3ef8b053	0.48572025
71	0x3db70b8e	0.08937751
72	0xbf5ae80a	-0.85510314
73	0x3e9ac451	0.30227903
74	0x3e7985ba	0.24367419
75	0x3f5c9b5f	0.8617458
76	0xbf229b20	-0.6351795
77	0x3ef621bd	0.48072615
78	0xc009ba09	-2.1519797
79	0xbd8d6d88	-0.06905657
80	0x3f085659	0.53256756
81	0x3e8c3517	0.27384254
82	0x3f375704	0.7161715
83	0x3e896f5a	0.26842767
84	0x3fa1d75b	1.2643846
85	0x3ee02778	0.43780112
86	0xbf883493	-1.0641044
87	0xbe41cef2	-0.189266
88	0x3ea58ead	0.32335415
89	0x3f278719	0.6544052
90	0x3f6f7189	0.93532616
91	0xbe150e71	-0.1455629
92	0xbe500b95	-0.20316918
93	0x3ea551bc	0.3228892
94	0xc00ab089	-2.1670249
95	0x3f1e94b8	0.61945677
96	0xbe920c54	-0.2852503
97	0x3f44b686	0.7684101
98	0xbd85fbea	-0.065421894
99	0x3e9290c9	0.28626087
100	0xbe729dee	-0.23693058
101	0xbf7c0f97	-0.9846129
102	0xbfea23ff	-1.8292235
103	0x3ea670c4	0.32507908
104	0x3d75bb28	0.05999294
105	0x3f52f24c	0.82400966
106	0x3d5cd27a	0.053911664
107	0x3e964aa0	0.2935381
108	0xbf69a059	-0.91260296
109	0x3e601c7b	0.21885864
110	0x3db93293	0.090428494
111	0xbf6cd3ae	-0.925105
112	0x3f4acd30	0.7921934
113	0x3ebc157d	0.36735144
114	0x3f03ed08	0.51533556
115	0x3eb56044	0.35425007
116	0x3f859e59	1.0438949
117	0x3eb02893	0.34405956
118	0x3f45bd40	0.772419
119	0x3dd17d7a	0.10229011
120	0x3e0db785	0.13839538
121	0x3f357781	0.70885473
122	0x3e4b90f1	0.1987951
123	0x3f07531b	0.52861184
124	0x3e3a690e	0.18204138
125	0x3eb2e31f	0.34938905
126	0x3f94cb57	1.1624554
127	0x3e4a3ae1	0.19749023

sequential_1/dense_1/BiasAdd/ReadVariableOp f4 [256]
0	0x3d5cffaa	0.053954758
1	0xbe95189f	-0.29120347
2	0xbb3f066a	-0.002914811
3	0xbccf7790	-0.025325567
4	0x00000000	0.0
5	0xbc838814	-0.016056098
6	0xbeb3ce72	-0.35118443
7	0xbf29ec0e	-0.66375816
8	0xbfb0d891	-1.3816091
9	0xbee715c2	-0.45133787
10	0xbf59ce17	-0.85080093
11	0xbe74aba1	-0.23893596
12	0xbe59d6c3	-0.21273331
13	0xc01158db	-2.2710483
14	0x3c6257e4	0.0138149
15	0x3f26b5a7	0.6512093
16	0x3dc58e86	0.09646325
17	0xbf629786	-0.88512456
18	0xbe57c89d	-0.21072622
19	0xbf84ee90	-1.0385303
20	0xbed16740	-0.40899086
21	0xbc58d5e0	-0.0132345855
22	0xbc6ff125	-0.014644896
23	0xbec46a93	-0.3836256
24	0xbfe4f282	-1.7886508
25	0x3e49d83a	0.1971139
26	0xbceea9ed	-0.029133761
27	0xbe6f3607	-0.23360454
28	0xbf3ebdea	-0.74508536
29	0xbeb8c337	-0.36086437
30	0x3ea5a85b	0.32355008
31	0xbdbdcae1	-0.09267212
32	0x3e784ad1	0.2424729
33	0xbf1717b1	-0.59020525
34	0xbe860391	-0.26174596
35	0xbc827eb3	-0.015929556
36	0x3e094067	0.13403474
37	0xbf4a98c4	-0.7913935
38	0xbebface2	-0.37436587
39	0xbdb87f59	-0.09008665
40	0x3e00575b	0.12533323
41	0xbc2499fb	-0.010046477
42	0x3eb30f44	0.34972584
43	0xbbe44c43	-0.006967099
44	0x3de5c31d	0.112188555
45	0xbfb67e8f	-1.4257373
46	0xbd0a4b8d	-0.033763457
47	0x3dfab64b	0.12241801
48	0xbdda4d1b	-0.10659238
49	0xbcb85b0e	-0.022504356
50	0x3fb0d11e	1.3813818
51	0xbeacf4fb	-0.33780655
52	0xbe699dc8	-0.22814095
53	0x3e7da871	0.24771287
54	0x3f4aefbd	0.7927206
55	0x3f718626	0.9434532
56	0xbc4004ed	-0.011719924
57	0xbba89e10	-0.0051457956
58	0xbca9f05b	-0.020744493
59	0x3edb5a32	0.4284225
60	0x3ea1fadc	0.31636703
61	0xc0067583	-2.1009223
62	0x3fbd8f41	1.4809343
63	0x3e0014dc	0.12507957
64	0x00000000	0.0
65	0x3d8e295c	0.069414824
66	0xbdf6a7d4	-0.120437294
67	0xbf974ab5	-1.1819674
68	0xbc53ff45	-0.012939279
69	0xbe8e4183	-0.27784356
70	0xbe05b9da	-0.13059178
71	0xbc5df534	-0.0135472305
72	0xbec686a7	-0.38774607
73	0xbce45a99	-0.027875232
74	0x3fad7973	1.3552688
75	0x3e47da1e	0.19516799
76	0xbf2911e6	-0.66042936
77	0xbc6bd01d	-0.01439288
78	0x3dd94202	0.10608293
79	0xbf676936	-0.90394914
80	0xbc4f8b35	-0.012667467
81	0x3e1ffea9	0.15624489
82	0xbe74e853	-0.2391675
83	0xbdb21f3a	-0.08697362
84	0xbf903de5	-1.1268889
85	0xbc68783a	-0.0141888205
86	0xbc6f8b8d	-0.014620674
87	0x3f4f4e8b	0.8097922
88	0xbbae1a0a	-0.0053131627
89	0x3efda7aa	0.4954198
90	0xbd3aaaa2	-0.045572884
91	0x3e6ae5c7	0.22939216
92	0xbc4b5688	-0.012410767
93	0xbf3e47df	-0.74328417
94	0xbc197ee4	-0.009368632
95	0xbec50efb	-0.38487992
96	0x3ec81b77	0.39083454
97	0x3efd9e7e	0.49534982
98	0x3dd5105c	0.10403511
99	0x3ed39b85	0.4132959
100	0xbd031d88	-0.032010585
101	0xbd76035c	-0.060061797
102	0x3e350238	0.17676628
103	0x00000000	0.0
104	0x3c334d0f	0.010943665
105	0xbfb79f52	-1.4345496
106	0xbfb24dd4	-1.3930001
107	0x3f91db64	1.1395078
108	0x3f36ee45	0.7145732
109	0x3ec41634	0.3829819
110	0xbe8a1d42	-0.26975447
111	0xbf1b3b82	-0.60637677
112	0xbeceec0c	-0.40414464
113	0xbc15ea7c	-0.009150144
114	0x3f377431	0.7166167
115	0x3e402ca0	0.18767023
116	0xbec34b3e	-0.38143343
117	0x3e05c7f4	0.13064557
118	0x3e8448d6	0.2583682
119	0x3ee9fa08	0.4569857
120	0xbc704857	-0.014665685
121	0xbdd7ffc2	-0.10546829
122	0x3e149a19	0.14511909
123	0xbbe7472b	-0.0070580444
124	0xbbc4aed7	-0.006002288
125	0xbe447f85	-0.1918927
126	0xbe8283a0	-0.25491047
127	0xbedc49b2	-0.43024975
128	0x3f2de5d9	0.67928845
129	0xbf1351ec	-0.5754688
130	0xbeb1b6d4	-0.347098
131	0x3df8254d	0.121164896
132	0xbead56ef	-0.33855388
133	0x3e8af3cb	0.27139124
134	0xbe7ccab5	-0.24686702
135	0x3ebad9e9	0.36494377
136	0xbe516895	-0.20450051
137	0x3e8bddc3	0.27317628
138	0xbf9195c6	-1.1373832
139	0x3f3054d0	0.68879414
140	0xbc9b8b8f	-0.018987445
141	0x3e2047d7	0.15652405
142	0xbbdad895	-0.0066786506
143	0x3f5a9e6d	0.8539799
144	0xbfbf94fc	-1.4967341
145	0xbef3fc86	-0.47653598
146	0x3e818751	0.2529855
147	0xbcb9fe06	-0.022704136
148	0xbc3d6494	-0.011559624
149	0xc001a14c	-2.0254698
150	0xbf5cb644	-0.86215615
151	0xbb229ed0	-0.0024813898
152	0xbfe94c83	-1.8226475
153	0xbe6b6963	-0.2298942
154	0xbce1ecbc	-0.027578704
155	0xbc527a59	-0.012846553
156	0xbbfc2805	-0.0076952004
157	0xbc6b36a6	-0.014356291
158	0xbf3b2603	-0.73104876
159	0xbe8bf60c	-0.27336156
160	0xbc547a1f	-0.012968569
161	0xbf23559b	-0.638025
162	0x3f7575d1	0.958829
163	0xbfbfa666	-1.4972656
164	0xbda31666	-0.079632565
165	0xbc88da7b	-0.016705742
166	0xbce9368b	-0.02846839
167	0xbf073392	-0.52813065
168	0xbc61c463	-0.013779732
169	0xbe5f20ed	-0.21789904
170	0xbdfed6ca	-0.124433115
171	0xbe1e6277	-0.15467249
172	0xbc90bb23	-0.017667359
173	0x00000000	0.0
174	0xbe4cbcc2	-0.1999388
175	0xbfb498c6	-1.4109123
176	0x3ebe800f	0.37207076
177	0xbc77e229	-0.015129604
178	0xbfc05395	-1.5025507
179	0xbcc4f3b4	-0.024041988
180	0x3f36c54a	0.7139479
181	0x3ed75fea	0.42065364
182	0xbf81fece	-1.0155885
183	0x00000000	0.0
184	0x3d023045	0.031784315
185	0xbedaf7d6	-0.4276721
186	0xbece6022	-0.4030772
187	0x3e639ecd	0.22228546
188	0x00000000	0.0
189	0x3ec89909	0.39179257
190	0x3e5ea839	0.2174386
191	0x00000000	0.0
192	0xbe8fbbf4	-0.28073084
193	0x3f18a65e	0.59628856
194	0xbf3aab42	-0.7291757
195	0xbc223469	-0.009900191
196	0xbedf49f3	-0.43611106
197	0xbec9abc4	-0.3938886
198	0xbe1e58a3	-0.154635
199	0xbf4edd7d	-0.80806714
200	0xbf8c2cef	-1.0951213
201	0x3c6be167	0.014397002
202	0xbf36753a	-0.71272624
203	0x3dd46375	0.103705324
204	0xbd0a2417	-0.033725824
205	0xbd0de29f	-0.03463995
206	0xbe51319c	-0.2042908
207	0xbed047e5	-0.4067985
208	0xbff149b6	-1.885062
209	0xbebfa861	-0.3743315
210	0xbfb4d117	-1.4126309
211	0xbc8dbc16	-0.0173016
212	0xbe1a17dd	-0.15048166
213	0xbfae7702	-1.3630068
214	0xbe63c76c	-0.22244042
215	0xbd44c233	-0.048036765
216	0xbcc199b3	-0.02363286
217	0xbbaef73a	-0.0053395303
218	0xbe4a1020	-0.19732714
219	0xbd994ef7	-0.074857645
220	0x3c1e085d	0.009645549
221	0xbd7a6f95	-0.06114157
222	0xbc3b47c3	-0.011430684
223	0xbca0cbc8	-0.01962842
224	0x3ed01aa3	0.40645322
225	0x3ed702aa	0.4199422
226	0xbbb2baa7	-0.0054543796
227	0xbd3ee458	-0.046604484
228	0x00000000	0.0
229	0xbe63b5c2	-0.22237304
230	0xbe55c904	-0.20877463
231	0xbc46ef4f	-0.012142017
232	0xbc11025a	-0.008850658
233	0xbe04c236	-0.1296471
234	0x3e4dadb8	0.200858
235	0xbf8e2a6a	-1.1106694
236	0xbf3bb560	-0.7332363
237	0xbf86b579	-1.0524131
238	0x00000000	0.0
239	0xbfba0116	-1.4531581
240	0xbc55a397	-0.013039491
241	0xbf0cec76	-0.5504831
242	0xbc322ead	-0.010875386
243	0xbe4e1110	-0.20123696
244	0x3e9d8748	0.30767274
245	0xbec85951	-0.39130643
246	0xbc8f4479	-0.017488705
247	0xbe3f5f80	-0.18688774
248	0xbcf2abc6	-0.029622924
249	0xbf7d371c	-0.98912215
250	0xbd0d73b9	-0.03453419
251	0xbe6f1c3b	-0.23350613
252	0xbcd9aebc	-0.026572578
253	0xbe060a4a	-0.13089862
254	0xbef7a263	-0.4836608
255	0x3e2ce05a	0.16882458

sequential_1/dense_1/MatMul f4 [256, 126]
0	0xbf139744	-0.5765269
1	0xbf2c39c8	-0.6727567
2	0xc00c84d2	-2.1956067
3	0xbc06b84e	-0.008222653
4	0x3ecd4779	0.40093592
5	0xbef57fd8	-0.479491
6	0xbbce9436	-0.006304289
7	0x3f0e140c	0.5549934
8	0xbf891670	-1.0709972
9	0xbd1bd865	-0.038048167
10	0x3f69f4a9	0.91388947
11	0xbfccf85e	-1.6013296
12	0x3d864796	0.06556623
13	0x3fad152b	1.3522085
14	0xc00260f3	-2.0371673
15	0x3e293adf	0.16526364
16	0x3f216618	0.6304641
17	0xbfd6b0a6	-1.6772659
18	0xbdd4a9ac	-0.10383925
19	0xbf05fcd7	-0.5233893
20	0xbf203f70	-0.625968
21	0xbd2d0f48	-0.0422509
22	0xbf4883ff	-0.7832641
23	0x3edb2f4f	0.4280953
24	0xbe5e5c57	-0.21714912
25	0xbfa0d085	-1.2563635
26	0x3f48fd04	0.7851107
27	0x3e439a1a	0.19101754
28	0x3c11791c	0.008878972
29	0xbf0f6361	-0.56011015
30	0xbd460881	-0.048347954
31	0x3ea6ee05	0.3260347
32	0xbf22c6a3	-0.63584346
33	0xbe2fd5c2	-0.17171386
34	0x3fc545c7	1.5411919
35	0x3f8d76a5	1.1051832
36	0xbe310402	-0.17286685
37	0x3fc2d888	1.522233
38	0x402f96e5	2.7435849
39	0x3cc50e2c	0.02405461
40	0xbed2815c	-0.41114318
41	0x3f008174	0.5019753
42	0x3d28df21	0.041228417
43	0xbe52a092	-0.20569065
44	0x3d94e8b3	0.07270946
45	0x3ec4adbc	0.384138
46	0x3edb26de	0.4280309
47	0x3f9dc5af	1.2325953
48	0x3e79bea4	0.2438913
49	0x3e5f3cc4	0.21800524
50	0x4022400a	2.5351586
51	0x3dd0a6d9	0.10188074
52	0xbf2cd597	-0.6751341
53	0x3f979835	1.1843325
54	0xbe1d599c	-0.15366215
55	0xbf34b830	-0.7059355
56	0x3f2efc0a	0.6835333
57	0x3d70ceae	0.058790855
58	0xbf817c68	-1.0116091
59	0xbd25be11	-0.040464465
60	0x3e444edc	0.19170707
61	0xbfcfada7	-1.622487
62	0xbf750e78	-0.957252
63	0xbf0ec327	-0.5576653
64	0xbfb9c697	-1.451373
65	0xc0054e9d	-2.0829232
66	0xbe9a0289	-0.3008006
67	0xbedcc6e8	-0.43120503
68	0x3e87aa4c	0.26497114
69	0xbcd47f0f	-0.025939493
70	0x3e36e83a	0.17862025
71	0xbed10f3a	-0.4083193
72	0x3d9587fd	0.07301328
73	0x3fa0a866	1.2551391
74	0xbf85952b	-1.0436147
75	0x3e5b3c16	0.2140964
76	0x401792d5	2.368337
77	0xbfbc7181	-1.4722139
78	0x3eeda3d1	0.46414044
79	0xbf09d645	-0.53842574
80	0x3e288c46	0.1645976
81	0x3db84606	0.08997731
82	0x3de8b227	0.11362105
83	0x3ed0cea6	0.4078266
84	0x3c9767be	0.018482085
85	0x3ec75dec	0.38938844
86	0x3e8c7f81	0.27441028
87	0xbed08866	-0.40729064
88	0x3e993205	0.29920974
89	0xbe1aee8e	-0.15130064
90	0x3f0769b4	0.52895665
91	0xbf9dd7a2	-1.2331431
92	0xbe602fd7	-0.2189325
93	0x3e5b95da	0.21443883
94	0x3f1b32fc	0.6062467
95	0xbf234a9a	-0.6378571
96	0xbe9cfba9	-0.3066075
97	0x3f891da5	1.0712172
98	0x3f8ecafe	1.1155698
99	0xbf193cc3	-0.5985834
100	0x3f4f9da8	0.8109994
101	0x40198b0a	2.3991113
102	0x3e83d427	0.25747797
103	0xbfbcaac3	-1.4739612
104	0xbf67b4c2	-0.9051019
105	0x3e9d0342	0.30666548
106	0xbd899ab8	-0.067189634
107	0xbf721a27	-0.94571155
108	0xbd36de88	-0.044645816
109	0x3df3f41f	0.11911797
110	0x3f7f11d2	0.99636567
111	0x3da0887f	0.078385346
112	0xbee90cb9	-0.4551752
113	0x4030d689	2.7630942
114	0x3ccf97c0	0.025340915
115	0xbfc11e00	-1.508728
116	0xbf96f6fa	-1.1794121
117	0x3e18070f	0.14846443
118	0xbed30c45	-0.41220298
119	0xbf87ce71	-1.0609876
120	0xbc1fd746	-0.009755915
121	0x3de677a2	0.11253287
122	0xbcb53d7a	-0.02212404
123	0x3e5d9d40	0.21642017
124	0xbd84a3c0	-0.06476545
125	0x3f1f989b	0.6234223
126	0xbf28ff74	-0.6601479
127	0xbf55720c	-0.83377147
128	0x3d1f65eb	0.038915556
129	0xbefb82f3	-0.49123344
130	0xbf5864f4	-0.8452904
131	0x3e90db08	0.28292108
132	0xbf0b11f5	-0.54324275
133	0xbf50d9e5	-0.8158248
134	0xbe68d82b	-0.22738712
135	0x3e193f71	0.14965607
136	0xbed9f6fd	-0.4257125
137	0x3e2782d5	0.16358502
138	0x400569b2	2.0845761
139	0x3eab768d	0.33488885
140	0xbd69ca3b	-0.057077628
141	0xbfe2c293	-1.7715629
142	0xbf823065	-1.0171019
143	0xbf1fd293	-0.62430686
144	0xbf905c77	-1.1278218
145	0x3e7b6c45	0.2455302
146	0x3e939f94	0.28832686
147	0xbf64f742	-0.89439785
148	0x3f6b1493	0.9182827
149	0x3e46f4d1	0.19429328
150	0xbf766164	-0.96242356
151	0x3f98576e	1.1901681
152	0x3e196a6e	0.14982006
153	0xbfd88688	-1.6916056
154	0xbf37c545	-0.71785384
155	0x3f11892b	0.56849927
156	0xbf96338d	-1.1734482
157	0xbf3b49cf	-0.731595
158	0x3f2d8c4d	0.67792207
159	0xbea60ab3	-0.32430038
160	0xbe006fd3	-0.12542658
161	0xbd43d7d2	-0.047813244
162	0xbd27a546	-0.0409291
163	0x3f4dbeb9	0.80369145
164	0xbf564d8b	-0.8371207
165	0xbfa615be	-1.2975385
166	0xbdc1a9df	-0.094562285
167	0x3fb7767c	1.4333034
168	0xbf20f854	-0.6287892
169	0xbf210c25	-0.62909156
170	0x3f977106	1.1831367
171	0xbd07b4af	-0.033131298
172	0xbe859d6b	-0.26096663
173	0x3f589d7f	0.8461532
174	0xbc560faa	-0.013065258
175	0x3e6460b7	0.22302519
176	0x3effc8c2	0.49957854
177	0xbf45f782	-0.7733079
178	0x3e516373	0.20448093
179	0x40083e1f	2.1287916
180	0xbeccedb5	-0.40025106
181	0xbe7e8491	-0.24855258
182	0x3fa761a1	1.3076669
183	0x3dda4916	0.10658471
184	0xbe76c9c5	-0.24100406
185	0x3e1bc404	0.15211493
186	0x3f12745c	0.572088
187	0xbcb72323	-0.022355622
188	0xbf5e6e2e	-0.8688687
189	0x3cc2e208	0.02378942
190	0xbf138ff6	-0.5764154
191	0x3f4e43b2	0.80572045
192	0x3ef6e944	0.48224843
193	0xbf32d968	-0.69862986
194	0x3fb9a2a3	1.4502758
195	0x3f6c88fb	0.92396516
196	0xbf2d64ce	-0.6773194
197	0x3faf6189	1.370164
198	0x3dc498ee	0.095994815
199	0xbe98118b	-0.29700884
200	0x3f9c2447	1.2198571
201	0xbffd395e	-1.9783132
202	0x3e6e2b5c	0.23258728
203	0x3f1c09e8	0.60952616
204	0x3fb34283	1.4004673
205	0x3e00f57a	0.12593642
206	0xbf9978d1	-1.1989995
207	0x3fb232dd	1.3921772
208	0x3ec3d8f1	0.3825145
209	0x3f15ea25	0.585604
210	0x3f7c7f6b	0.98631924
211	0x3ea722c6	0.32643718
212	0x3f3150c1	0.69263846
213	0x3f460f85	0.7736743
214	0x3efce441	0.49392894
215	0x3ee13908	0.43988824
216	0x3f715f27	0.94285816
217	0xbdd44171	-0.103640445
218	0xbf8c2cfa	-1.0951226
219	0x3f03afbf	0.5144004
220	0x3e307cbc	0.17235082
221	0x3dfede07	0.12444692
222	0x3f4990c5	0.78736526
223	0x3d368fc9	0.044570718
224	0xbdaaee63	-0.0834625
225	0x3fa29c36	1.2703922
226	0x3f25e767	0.64806217
227	0xbdc4c6bb	-0.09608217
228	0x3f201758	0.6253562
229	0x3da27d64	0.079340726
230	0xbeed4d65	-0.4634811
231	0x3e9e55fc	0.30924976
232	0x3e784eff	0.24248885
233	0x3f8384ce	1.0274904
234	0x3ed3400b	0.41259798
235	0x3e60084f	0.2187817
236	0x3f7db1c7	0.9909939
237	0x3f403741	0.7508431
238	0x3f3b4fa2	0.73168385
239	0x3f19fa13	0.6014721
240	0x3e635578	0.22200572
241	0x3e0a339e	0.13496253
242	0xbe52e650	-0.2059567
243	0xbe11ab21	-0.14225437
244	0x3e92689e	0.28595442
245	0x3ee3f487	0.44522497
246	0xbcd56511	-0.026049169
247	0x3e08bbc1	0.13352872
248	0x3d13293c	0.035927996
249	0xbdc4d0be	-0.09610127
250	0x3eb85ff0	0.36010695
251	0xbf416bb0	-0.75554943
252	0x3f0b7fdd	0.5449198
253	0xbefc3fa6	-0.4926731
254	0x4013552a	2.302073
255	0x3e983140	0.29725075
