ai/sign_classifier.tflite (tflite, 277172 bytes, 6 tensors)

arith.constant f4 [128]
000000 ac 19 1e c0 ef e2 99 bf 81 64 b0 be a8 43 50 bf
       -2.470317 -1.202238 -0.34451678 -0.81353235
000010 f9 66 0a bf 70 21 09 c0 95 b1 c8 bc a1 92 b4 be
       -0.54063374 -2.1426659 -0.02449874 -0.3526812
000020 53 29 1e 3f e0 01 1d bb db c8 a5 3d 17 3f 64 3e
       0.61781806 -0.0023957416 0.08094951 0.22289692
000030 08 55 06 be d9 08 01 3e a5 fd 19 bd 8b 5e 0b be
       -0.13118374 0.12601031 -0.03759541 -0.13610284
000040 a9 71 f8 be bd 85 90 3f 6d 6f 8f bf 21 61 05 3f
       -0.48524216 1.1290814 -1.120588 0.5210133
000050 ca cb 1f 3f bd 30 8a 3e 58 c3 0e 3e 12 8a b8 bf
       0.6242033 0.2699031 0.13941705 -1.4417136
000060 14 45 22 3f 5b b9 33 3f 95 67 ed bf 85 33 50 bf
       0.63386655 0.70204705 -1.8547236 -0.8132861
000070 23 aa 0e 3e aa cb a2 bf 44 9b b0 be df 54 24 bf
       0.1393209 -1.2718403 -0.34493458 -0.64192003
000080 b7 3c cb bd 51 18 44 bf 47 6a d0 3e 69 87 6d 3e
       -0.0992369 -0.76599604 0.40706083 0.23196186
000090 69 4f 17 be 92 2c d1 3d 90 6e eb 3c 66 32 dd be
       -0.14776386 0.10213579 0.028739244 -0.43202513
0000a0 06 38 fa 3d 5a d9 9e be 78 da 5d bf 8f 8b 1f bf
       0.12217717 -0.310252 -0.8666148 -0.62322325
0000b0 24 52 a0 3f 41 f4 3e be 8d 10 28 3e 10 c3 cc be
       1.2525067 -0.18647863 0.16412564 -0.3999257
0000c0 ce 52 2f bd 17 32 ec 3e 3d 73 81 3e 1a 34 0e 3e
       -0.042803578 0.46131966 0.25283232 0.13887063
0000d0 a0 82 5d 3f 8e 55 72 bf c3 a9 ff 3d 6a a1 bd bf
       0.8652744 -0.94661796 0.12483551 -1.4814885
0000e0 5e a3 5f 3e 9e 3d 42 bf 29 40 33 bd df 76 50 bf
       0.21839663 -0.7587527 -0.04376236 -0.8143138
0000f0 d3 59 05 3f c9 5a 5e bf f8 3c 08 3d ad c4 3a 3e
       0.52090186 -0.8685728 0.03326127 0.18239088
000100 d7 03 86 3e 23 0f 2e 3e fc 9f 6f bf b3 fc da be
       0.26174805 0.16997962 -0.9360349 -0.4277092
000110 28 3b c7 be ee 82 15 bf ea 93 e1 be 47 65 49 3e
       -0.3891232 -0.5840291 -0.44058162 0.1966754
000120 4e 2a bb be ed d5 b3 bf e3 aa 13 bf 71 79 0a bf
       -0.36555713 -1.404966 -0.5768263 -0.54091555
000130 7e ac 19 3e d1 43 93 3d 6c 08 8f bd 95 b7 1c 3c
       0.15007207 0.07190669 -0.06984028 0.009565254
000140 6b 3a 2f 3f 28 5f 64 bf ab 72 64 bf 90 8b c9 3e
       0.68448514 -0.89207697 -0.8923747 0.3936429
000150 73 26 c5 bd 62 3a 9e bf a2 b1 b5 be 2f 6e 4c be
       -0.09626474 -1.2361567 -0.35487086 -0.19963907
000160 b9 6e d8 3e a5 8e 0d bf b8 21 f9 bc 20 5e 01 3f
       0.42271975 -0.55295783 -0.030411586 0.5053425
000170 8c 30 96 bf d2 ae ff be f3 fc a8 bf ab 38 6d bf
       -1.1733565 -0.49938065 -1.3202194 -0.92664593
000180 87 f5 d7 be 55 ad 32 bc b5 dc 8c bf 96 4c 51 3e
       -0.4217951 -0.010905583 -1.1004854 0.20439371
000190 fd e1 4e bf 45 66 83 3f 4d c4 1a 3e ea ed 13 bf
       -0.8081358 1.0265585 0.15113945 -0.57784903
0001a0 5c 1f 0d bf 1b b1 89 3e 65 41 b8 3e b5 0c 12 3f
       -0.55125976 0.26892933 0.35987392 0.5705064
0001b0 b5 88 0f 3f aa 37 a3 bf a2 4c 0d 3f 5f e5 6d bf
       0.56067973 -1.2751362 0.5519506 -0.9292812
0001c0 ff 3f d0 bd 2e 61 1b 3f 6d be 81 bf ac 08 ee be
       -0.10168456 0.6069516 -1.0136238 -0.4649099
0001d0 78 84 03 bf 98 63 23 be 08 e8 87 bf 55 0b 2d 3c
       -0.51374006 -0.15955961 -1.0617685 0.010561784
0001e0 e7 31 06 bf a9 17 86 bf 91 ce 15 bd 23 2d 28 3f
       -0.52419895 -1.047597 -0.03657395 0.65693873
0001f0 91 ab b2 bf b2 df 70 3e 01 83 ce 3e 5b 47 86 3e
       -1.3958608 0.23522833 0.40334323 0.26226315

arith.constant1 f4 [26]
000000 19 a7 d5 be e7 d0 3f bf c5 ea e2 3f f1 42 a7 3f
       -0.41729048 -0.74928135 1.7727896 1.3067304
000010 04 b1 94 3e 4a 27 de be 3e 4b a3 3f 1a fb 3e bc
       0.29041302 -0.4338935 1.2757337 -0.011656547
000020 22 14 dc 3c 9c e5 99 bf 0f 66 69 bf a1 ff 9e 3e
       0.026865069 -1.2023196 -0.91171354 0.31054404
000030 bd b8 1d bf e2 7d ef be 4b 7c 15 bf ec 61 36 3e
       -0.61610013 -0.46775728 -0.5839278 0.17810792
000040 f8 c8 66 bf a0 04 02 40 a4 b8 e1 bf 81 9f d6 3d
       -0.90150404 2.0315323 -1.7634473 0.10479642
000050 a9 f3 b4 bf 73 9b 80 be 13 8e 73 bf cc 73 84 3f
       -1.4136859 -0.25118598 -0.95138663 1.0347838
000060 58 a2 9b be ab 21 87 3f
       -0.30397296 1.055715

arith.constant2 f4 [26, 128]
000000 e4 88 f9 3e 3e 00 07 bf cf 19 29 be d0 6e d9 be
       0.48737252 -0.52734745 -0.16513751 -0.42467356
000010 2f 77 79 bf 93 59 c0 3e 5d be 6a 3e c2 6a bb bf
       -0.97447485 0.3756834 0.2292418 -1.4641955
000020 3f 12 96 3e 17 3f 22 c0 81 5b 6c bf 5b c4 04 3f
       0.29310796 -2.5351007 -0.92327124 0.51862115
000030 81 2e 20 bf 5c f9 f3 bd 21 3e 4c bf 73 29 f8 3d
       -0.6257096 -0.11912796 -0.797823 0.12117281
000040 7e e1 9c bf 9d d0 98 be c5 fc 5d 3d 50 05 84 bf
       -1.2256315 -0.2984666 0.054196138 -1.0314121
000050 83 68 ad 3d 61 42 b7 3d c0 09 92 3d 79 c7 e9 bd
       0.084672 0.08948208 0.07130766 -0.114149995
000060 c8 d4 09 c0 e2 85 e4 be 68 c6 6e 3d 05 40 dc bf
       -2.1536121 -0.44633394 0.058294684 -1.7207037
000070 ea d4 a3 bf 09 da 10 3e 54 66 6d 3e 3c f0 0c be
       -1.2799351 0.14145674 0.23183566 -0.13763517
000080 81 7d 03 c0 c7 b6 a4 bf d8 76 cb bd 70 5c 45 3d
       -2.0545352 -1.2868279 -0.09934777 0.04818386
000090 27 60 77 3e b0 ac fc bf 9c f9 eb 3d 76 a7 7c bf
       0.24157773 -1.97402 0.115222186 -0.98693025
0000a0 6c 1b a1 3b 67 6e 96 3d 88 13 40 3e 68 9b 9e bf
       0.004916599 0.07345276 0.1875745 -1.2391176
0000b0 73 db 06 bf c2 9c 79 3e 7e ea a8 be 9c b5 12 3d
       -0.526786 0.24376205 -0.32991403 0.035817727
0000c0 d5 d0 a7 bf 6d a3 1c 3e f8 43 e4 bd 5a 67 10 be
       -1.3110605 0.15296717 -0.111457765 -0.14101925
0000d0 48 3f b0 bf 1e 6a 64 bf df 48 53 3d 78 3d e9 be
       -1.3769312 -0.8922442 0.051583167 -0.4555471
0000e0 04 97 60 3e 6c 13 8b 3e 78 21 61 3e 45 de 3f bf
       0.21932608 0.27163255 0.21985424 -0.7494853
0000f0 a1 d6 9c 3e 22 1c 22 c0 23 89 f0 bf 28 3d e7 bf
       0.306325 -2.532967 -1.8791851 -1.8065538
000100 46 72 55 3e 76 0e 56 3e 7b b2 07 c0 00 5c cc bf
       0.20844373 0.20903954 -2.1202686 -1.5965576
000110 6a 56 a3 3d 88 4e 04 be 0a bd 7a 3e 86 ef 73 3e
       0.079754665 -0.12920582 0.24486175 0.2382184
000120 4c d8 81 be c5 92 41 3e 71 5b 26 3e c6 ea 1b 3e
       -0.25360334 0.18903644 0.1624582 0.15226278
000130 a2 d5 89 bf 8e 1b 0b c0 76 e8 5e bf 00 c5 e1 bf
       -1.076832 -2.1735568 -0.8707346 -1.7638245
000140 01 0b 8c 3e 70 50 71 bf ab 8a ad bc 42 00 2e 3e
       0.27352145 -0.9426336 -0.021184286 0.16992286
000150 a0 b0 e9 bf db 8f 80 bf de b5 0b c0 6d 37 d5 3d
       -1.8257027 -1.0043901 -2.1829753 0.10410962
000160 af ea 00 bf e0 61 79 3e a4 49 06 3f 43 74 6a bf
       -0.503581 0.24353743 0.52456117 -0.9158365
000170 a3 16 c4 be 75 06 81 be 06 c3 ee 3d 31 03 03 c0
       -0.3829852 -0.2520024 0.116582915 -2.0470698
000180 8c 28 7b 3e ea d0 8b 3e 8c 33 51 3e 6e f8 4c 3d
       0.24527186 0.27307826 0.2042982 0.05004161
000190 c1 2b 5c bd a3 01 a3 bf d5 a7 4d 3e 5c 14 41 3e
       -0.053752664 -1.2734874 0.20083554 0.18855423
0001a0 62 11 39 bf 2c 71 fc 3c 3b dc 2b bf a2 f5 ba bf
       -0.7229215 0.030815683 -0.6713292 -1.4606211
0001b0 75 53 04 c0 2c 62 14 3e 7d d0 2a 3f af 33 fb 3d
       -2.0675938 0.14490575 0.6672438 0.12265717
0001c0 5a 19 94 3e d6 86 0d 3e 9f 57 9c bf b2 90 00 3e
       0.28925592 0.13820967 -1.221424 0.12555197
0001d0 ff 38 34 3d d2 bb f3 3d b8 3a 2f 3d 50 a9 72 3e
       0.04399967 0.11901058 0.042780608 0.236974
0001e0 73 41 e2 be 1d 62 d2 bf 04 32 55 bf bd 50 96 bf
       -0.4419056 -1.6436192 -0.8327944 -1.1743389
0001f0 d4 02 02 3e 7b 8f bc 3d 15 3f 60 bf d6 1c 71 3e
       0.12696391 0.09207054 -0.87596256 0.23546156
000200 25 66 e6 b9 ca 35 60 3e b8 26 32 3e 22 50 8e bf
       -0.00043945122 0.21895519 0.17397583 -1.1118205
000210 f4 cd 5a 3c 24 e2 a6 bf 9b a8 84 3e 7c 4c fa bc
       0.013354767 -1.3037763 0.25909886 -0.030554049
000220 99 35 26 3f 83 bf 5c 3e 1c e8 97 bf cc 1f c2 3d
       0.64925534 0.21557431 -1.1867709 0.09478721
000230 48 47 53 3e 54 de 2d 3e ee ff 17 bc 51 3c a1 be
       0.2063266 0.16979343 -0.009277327 -0.3149133
000240 9e 21 06 be 30 c5 80 bd 34 f5 ef 3d a5 ab 9a 3e
       -0.13098761 -0.062876105 0.11716691 0.3020908
000250 4f 11 91 3d 6a 1e aa 3d b7 36 17 bf 0e b5 ea 3d
       0.070833795 0.08306582 -0.59067863 0.11460315
000260 c9 6c ae 3e 60 11 a4 3d 1b 98 c8 bf ef 7c 8b 3e
       0.3406737 0.080111265 -1.5671419 0.27243754
000270 e2 4f 77 3e 14 c2 9c be 99 a5 a8 be e6 d7 8f be
       0.24151567 -0.3061682 -0.3293884 -0.28094405
000280 ea 7a 7a bf 9b 06 e5 3e 51 93 50 bf ff bb f2 3e
       -0.978438 0.44731602 -0.81474787 0.47409055
000290 67 6e 14 3e a5 be 37 3e 32 01 c3 bd 40 34 68 bf
       0.1449524 0.17943819 -0.09521712 -0.9070473
0002a0 6e 61 02 3e 6c a7 af bf aa bf 17 be 34 6c 21 bf
       0.12732479 -1.3722968 -0.14819208 -0.6305573
0002b0 9a 93 9d 3d a8 3a 02 3f 02 d7 2c 3e 1c 43 33 3e
       0.076941684 0.5087075 0.16878894 0.17506069
0002c0 a5 14 c8 3d 5c 29 7d be 4a e0 fe be 53 9c 08 bf
       0.09769563 -0.24722809 -0.49780494 -0.5336353
0002d0 48 7b 87 3c f4 7f b3 3d b1 be e4 bf 84 6b 75 3d
       0.016538277 0.087646395 -1.7870694 0.059916988
0002e0 11 21 47 bf ee 42 83 3d 61 e5 19 3d d9 f8 98 bf
       -0.7778483 0.0640925 0.03757227 -1.1950942
0002f0 59 9e f2 be 9f 42 20 3e 2d bc ba be ba c3 43 3f
       -0.47386435 0.15650414 -0.36471692 0.7647053
000300 da 97 03 c0 5e 50 a9 bd e0 d4 83 3e b4 77 9d 3e
       -2.0561433 -0.08267282 0.25748348 0.3075539
000310 c9 3c ce be 5b d1 78 bf f3 b5 7d bf 40 e7 80 3c
       -0.4028075 -0.9719445 -0.9910576 0.015735269
000320 04 b2 c8 bd 7f 5e e3 3d 2e a9 bb bf f9 4f ef bd
       -0.09799579 0.11102008 -1.4661005 -0.116851754
000330 c9 d8 48 3e 7d f3 ce bd bc 45 86 bf 76 8b e7 3d
       0.19613947 -0.101050355 -1.0490031 0.11305897
000340 5f fc 87 3d 54 09 fe bd b4 5c 89 3d b3 30 18 be
       0.06639933 -0.12404123 0.06707135 -0.14862327
000350 02 65 ee be 30 b5 91 bf df f5 91 be 28 3b 6b 3d
       -0.46561438 -1.1383419 -0.28507897 0.057429463
000360 53 9a fd 3e f3 48 7c 3d 78 37 a1 be 1e 36 2a 3b
       0.49531803 0.061593007 -0.31487632 0.0025972198
000370 5c 38 91 3e 11 23 80 be 50 cb 2a 3e b9 b7 26 3e
       0.2836331 -0.25026754 0.1667912 0.16281022
000380 9d 39 33 3e be e6 da bf 17 76 bf 3e 35 6d 06 be
       0.17502446 -1.7101667 0.37394783 -0.13127597
000390 d8 3f c9 be 28 63 32 be 98 3a 18 3d 1d 02 0b 3e
       -0.3930652 -0.17420638 0.037165254 0.13575025
0003a0 d8 00 b1 bf 9c 5d a3 3d 82 67 3b bf 77 58 cd be
       -1.3828382 0.07976839 -0.73204815 -0.40106556
0003b0 86 75 26 3f dd 4a 9e be 02 e3 83 be 9d 9a b7 bf
       0.65023077 -0.3091649 -0.2575913 -1.4344059
0003c0 3a de 91 be d8 ab 67 bd 75 de eb 3d dc 9c 02 3e
       -0.28489858 -0.056560367 0.1151704 0.1275515
0003d0 49 8b e5 be 2c 3a fa be 8a 44 49 3e 72 49 2c bf
       -0.4483283 -0.48872507 0.19655052 -0.6729957
0003e0 df 13 d8 3e 0c 06 a9 3e 66 b6 ed 3e 80 5d 99 bc
       0.4220266 0.33012426 0.4642822 -0.018721342
0003f0 08 2d a7 bd b5 8e 20 bf 39 b6 57 3e d1 ca 08 bd
       -0.08162886 -0.62717754 0.21065606 -0.033396546

arith.constant3 f4 [128, 256]
000000 43 46 81 3e e5 b5 68 39 80 df 9e bb 5d 1c 20 be
       0.25248918 0.00022193005 -0.0048484206 -0.1563582
000010 8f f6 ef 3d 81 3e bb bd d9 5f 9e 3e 1f e1 30 3e
       0.11716949 -0.09142781 0.309325 0.17273377
000020 16 5f 4b be 77 20 d2 3c bf b6 fe 3e 16 81 c1 3e
       -0.19860491 0.025650246 0.497488 0.37793797
000030 3a 1d 02 3e d4 89 f3 3e fc 86 f7 bd e4 2d ed bd
       0.12706462 0.47566092 -0.12086293 -0.115810186
000040 36 9b db 3e 61 6c 46 3d 6d 3f 84 3d 3b f6 6e 3e
       0.42891854 0.048443202 0.0645741 0.23336117
000050 20 a3 8c 3f b9 81 ae 3e 3e 3e 6f 3d 80 2c 18 3c
       1.0987282 0.34083346 0.05840897 0.009287953
000060 5e 40 48 bf 1d 07 9d 3b 80 08 e1 bd dc 4d f4 3e
       -0.78223217 0.0047921077 -0.10987949 0.47715652
000070 0f 05 91 3d 15 88 c9 3e d5 da f0 3e ea 15 90 be
       0.07081043 0.39361635 0.47041956 -0.2814172
000080 f7 af 6d 3e 09 ef 85 3f 8a ab 54 3f e7 f0 19 3e
       0.23211657 1.0463573 0.8307425 0.15033303
000090 6d 8b 8c 3f cc c3 37 be e5 4f 07 3d 5c 6b d6 3d
       1.0980049 -0.17945784 0.033035178 0.10469696
0000a0 97 b0 37 3e 66 d6 8d 3d c1 01 a2 3e 31 1d 22 3e
       0.17938457 0.06925659 0.31641963 0.15831448
0000b0 09 aa c5 3e e1 64 f0 bd d2 8b b8 3e 60 e7 cd be
       0.3860629 -0.11737991 0.36044174 -0.40215588
0000c0 e0 9f 28 3d cf 4b 1f 3d 2d 58 1c be 8b 22 96 3a
       0.041168094 0.038890656 -0.15268011 0.0011454386
0000d0 ee 5b fe 3e d3 77 ab bc 7f 9e 3e be 42 d8 96 3d
       0.49679512 -0.02093116 -0.18615149 0.07365467
0000e0 cb 18 3f 3e 11 3c fa bd 33 a0 2c 3e 45 12 58 3f
       0.18661802 -0.12218488 0.16857986 0.8440288
0000f0 95 99 ce bd b0 4f 5e 3e 9b 4a 51 3d 23 58 3f 3e
       -0.10087887 0.21710086 0.05109654 0.18685965
000100 a1 a9 38 3f 0e 78 e0 3d 90 cf ca bd 64 7a f5 3d
       0.72133833 0.109603986 -0.09902871 0.11986235
000110 be 91 b3 bd cb d5 8c bd ad f6 ac 3e 92 f2 e1 bd
       -0.087680325 -0.06876715 0.3378195 -0.11032595
000120 a4 e2 b0 bd 4c 13 d9 3d 80 01 18 bc 49 45 6c 3e
       -0.08636978 0.10599384 -0.009277701 0.23073305
000130 82 a5 68 bc f1 16 65 bf 1f 0b 40 3e ab 2b 86 be
       -0.014199616 -0.8948813 0.18754242 -0.2620519
000140 cf 75 31 bf b8 8b 0f 3e 04 8c 2d be 9a c9 e3 3d
       -0.69320387 0.14018142 -0.16947943 0.11122437
000150 d3 78 e5 bd c3 70 9f 3e 9b 83 dc bd 5a e9 22 bc
       -0.11204686 0.31140718 -0.10767289 -0.009943331
000160 11 89 af 3d e0 cf 05 be 0a 32 16 3f 40 46 10 bc
       0.08571065 -0.1306758 0.58670104 -0.008805811
000170 1c 35 ec be b2 1c 6d 3d 8c 91 3b 3e 50 73 1f 3e
       -0.4613427 0.057888694 0.1831724 0.15571332
000180 bd 26 96 3d 26 4d fb 3d 25 88 cb 3d 63 8c 1c 3e
       0.073316075 0.12270574 0.09938077 0.15287928
000190 46 11 d9 bd 4c c2 c7 be 70 ea 1f bd 20 a9 14 bd
       -0.10598998 -0.39015424 -0.039041936 -0.036294103
0001a0 fd 4c f5 be 70 95 a8 be 40 08 94 3c a9 88 aa 3d
       -0.479103 -0.32926512 0.01807034 0.08326847
0001b0 40 b1 0f bd a5 44 1e 3f e0 a7 3d 3d 2c 9f 9f bd
       -0.03508115 0.61823493 0.046302676 -0.077940315
0001c0 5c 21 05 be 33 34 97 3e 9b 3f 3f be 80 f8 9f bd
       -0.13001007 0.29532012 -0.18676607 -0.078110695
0001d0 a0 0c b8 bd 14 21 c2 bc 32 a3 ee bd d3 df 52 3e
       -0.08986783 -0.023697414 -0.11652221 0.20593195
0001e0 7c 9f f7 3d 52 05 05 be 20 32 af 3c 08 ad a3 3d
       0.12090966 -0.12990311 0.021386206 0.079919875
0001f0 8f 02 69 bc 0a 47 a7 bc 88 0c 7c 3d 21 17 88 3e
       -0.014221801 -0.020419616 0.06153539 0.26580146
000200 f4 e3 8a bd 98 2c 8f be 4f 0b 43 be e4 6b 61 be
       -0.0678176 -0.2796371 -0.19047283 -0.22013813
000210 b0 36 4a 3e 1a cc 4d be d0 2e 5d 3d 24 a7 9a bd
       0.19747424 -0.2009739 0.053999722 -0.07551411
000220 ce a5 e8 3d 34 b9 a3 3d 88 75 06 be 23 80 ec 3d
       0.1135975 0.07994309 -0.13130772 0.11547878
000230 52 d8 59 3e e4 6e 4c 3d 24 9d 40 be eb 92 68 3e
       0.21273926 0.04991044 -0.18809944 0.22712295
000240 1b 81 31 3f e1 5f cd 3e 7e 12 53 3d 55 bc 33 3f
       0.69337624 0.40112212 0.051531307 0.70209247
000250 28 dc 5c 3e 6c 7a 13 bd b5 b7 a8 bd c7 6e 28 be
       0.21568358 -0.036005422 -0.08238164 -0.16448508
000260 17 d4 5a 3f 9d 9a fb bd 0c fd 85 bd cb 84 82 be
       0.85479873 -0.122853495 -0.065424055 -0.25491938
000270 2d a5 41 3e cc 11 ea 3d 9f 6a e2 3e 77 75 c3 3e
       0.18910666 0.11429176 0.4422197 0.38175556
000280 90 52 d4 bd bc 3e 62 bf 64 47 ce 3e 7c 9d 72 be
       -0.1036731 -0.88376975 0.40288842 -0.23692888
000290 80 ed 7f bd 86 6b 25 3e 7c 01 a1 3d 7e c9 08 3e
       -0.062482357 0.16154298 0.07861611 0.13358113
0002a0 9c e9 ca bd e4 36 8d 3e d2 6a ce be 0c 4e 61 bc
       -0.09907839 0.2758094 -0.40315872 -0.013751518
0002b0 60 ac be 3e 54 46 d9 3c e6 93 64 bd a0 1c e3 3d
       0.37240887 0.026522793 -0.05580511 0.11089444
0002c0 1a 94 24 bf 11 8c 0d be 8c 64 0c 3e f4 a5 16 bf
       -0.64288485 -0.13822962 0.1371023 -0.58846974
0002d0 02 ce 49 3d c8 f2 a8 3d df 96 cc 3d a0 35 8e bd
       0.04926873 0.08249432 0.09989714 -0.06943822
0002e0 01 9a 9e 3e 31 11 05 3d b4 68 db bd bc b8 d2 bd
       0.3097687 0.032487098 -0.1071333 -0.102891415
0002f0 2d 9b ac bd dd c5 e4 3e 09 56 02 be 49 20 93 be
       -0.08428035 0.44682208 -0.12728132 -0.2873557
000300 28 e1 47 3e 43 e0 7c bc 78 4a bc 3e 70 2d 33 bd
       0.19519484 -0.015434328 0.36775565 -0.043744504
000310 f7 7e 15 be 35 1c 67 3e e5 29 b4 3d 7e 37 a6 3e
       -0.14599214 0.22569354 0.08797053 0.32464212
000320 b1 28 fc bc 60 2b 55 3c cb df dd bd 9f de cf 3e
       -0.030781122 0.01301083 -0.10833701 0.40599534
000330 6b e7 0e bf e8 4b 92 3e 2c 45 03 3f 6e 32 00 be
       -0.55821866 0.28573537 0.5127742 -0.12519237
000340 b9 55 85 bd 3f d3 d9 3e 03 5d d4 3d 9a cc 82 be
       -0.06510491 0.4254398 0.10369303 -0.25546724
000350 63 0e 3c bd 7d 17 6c 3e fd 09 47 3d 5f a6 1c be
       -0.045912158 0.23055835 0.04859351 -0.1529784
000360 95 9c 42 bf a9 24 ed be 7e 6f 37 be b3 09 d0 be
       -0.76020175 -0.46317032 -0.17913625 -0.406324
000370 06 ec ae bd 91 bd 23 3f bb 01 16 3e f7 3d 75 bd
       -0.08541112 0.6396113 0.14649098 -0.059873547
000380 b4 6a 02 bd 02 89 4d bd 16 d0 96 bf 2c 7c 1e 3e
       -0.03184004 -0.05017949 -1.1782253 0.15477055
000390 0f 3c 22 be b2 0f e7 bc 59 3d 79 bd fa 97 b8 3e
       -0.15843223 -0.028205726 -0.06084952 0.3605345
0003a0 2a d9 c2 bb 2c 31 0b 3d a9 f5 8b 3e ea dd 77 be
       -0.005946298 0.03398244 0.2733586 -0.24205747
0003b0 b2 77 37 3e 83 45 ef 3b 4c 09 a1 bd a0 0f ed bc
       0.17916754 0.0073019876 -0.07863101 -0.028938115
0003c0 5c 01 8c 3d 3e 2a 95 3f 52 b1 86 be a4 b7 a0 bd
       0.06836197 1.1653516 -0.2630716 -0.07847527
0003d0 df 9f 94 3d ad 88 33 3f c8 17 7d be ab 85 ff 3e
       0.072570555 0.70130426 -0.24716103 0.49906668
0003e0 f0 d0 8a 3d 9e 3e 3d be f0 b6 56 3d 6d 12 57 3f
       0.06778133 -0.18480918 0.052420557 0.8401249
0003f0 07 31 3e be d5 e9 60 bf 0d 6c 35 3e 2e 8e 6e bd
       -0.1857339 -0.878568 0.17717 -0.058241062

sequential_1_1/dense_5_1/MatMul f4 [256, 126]
000000 51 1f 32 3d e7 02 dd 3d 01 2b 96 bf 89 6b b3 bd
       0.043486897 0.10791569 -1.1731874 -0.08760745
000010 19 b8 57 3c 6a 43 f1 bf 01 41 96 3d cd d8 96 bc
       0.013166451 -1.8848698 0.07336617 -0.018413926
000020 1d db f1 bf 61 f8 12 3e f9 25 b9 3d 30 c8 e0 bf
       -1.8894993 0.14352562 0.09040446 -1.7561092
000030 61 5e 83 be c7 f2 3c 3e 6f ba d4 bf 8f b4 b8 3d
       -0.25657943 0.18451987 -1.6619395 0.09018814
000040 d5 41 13 bd 2c 06 ac bf b3 a7 68 be a8 a5 1a be
       -0.035951454 -1.3439384 -0.22720222 -0.15102255
000050 dd d3 a4 bf 50 dc 05 bd f6 c8 0a 3e f5 dd 8e bf
       -1.2877156 -0.03268081 0.13553223 -1.1161486
000060 ae 66 92 bc 19 70 1d 3f d7 6b 93 bf 83 b4 18 be
       -0.017871227 0.6149917 -1.1517285 -0.1491261
000070 78 26 06 3d f0 5a e5 be 87 16 69 3e 35 5d 74 be
       0.03275153 -0.44795942 0.227625 -0.2386368
000080 4d e4 26 3f b1 3a dd bb 51 10 80 be b8 c4 91 3f
       0.6519211 -0.0067513813 -0.25012448 1.1388159
000090 1a fa 5f bd 66 b4 8d be e3 d4 95 3f be c2 0b bd
       -0.054681875 -0.27676696 1.1705593 -0.034121267
0000a0 84 c5 5e 3d 96 7d 24 3e 9e 91 af 3e eb 71 65 be
       0.054387584 0.16063532 0.34290785 -0.22406738
0000b0 b0 42 4b 3f a6 f0 96 3e fa 08 6e 3d 81 97 b0 3f
       0.7939863 0.29480475 0.05811403 1.3796235
0000c0 75 f5 76 3d bf ad 05 3e 46 5e a9 3f 0a 70 38 be
       0.06029268 0.1305456 1.3231895 -0.1801149
0000d0 f1 71 10 be 21 e9 2d 3f 1e 27 71 3e e7 55 7f 3e
       -0.14105965 0.6793385 0.23550078 0.24935113
0000e0 32 15 8c 3f 5a b1 18 3d 3c bf 26 3f 60 19 91 3f
       1.0943968 0.03727851 0.6513555 1.1335869
0000f0 3d 47 6f be cf f5 72 3f a7 47 a4 3f 77 7d 48 3d
       -0.23367019 0.94906324 1.2834367 0.048947778
000100 b8 f1 01 3f 7a 33 49 3d 13 58 27 be 94 a2 09 3f
       0.5075946 0.049121358 -0.16342191 0.537637
000110 b7 05 50 c0 58 70 f0 bc f4 61 e8 3e 86 7f f7 bf
       -3.2503488 -0.029350445 0.45387232 -1.9335792
000120 09 d3 1f 3e b2 34 66 3e b0 14 b4 bf 57 89 00 3f
       0.15607847 0.22481039 -1.4068813 0.50209564
000130 1f 15 17 3f 6a f2 56 bf ce 5c 69 be 92 6f 72 3e
       0.59016603 -0.83963645 -0.22789308 0.23675373
000140 4e de 64 bf 23 37 7b be 3d 93 1d bf 32 7f 0d bf
       -0.8940171 -0.24532752 -0.6155279 -0.5527221
000150 9a cd 8e be 66 ea 82 bf f6 d4 9c be fc 93 75 be
       -0.27891237 -1.0227783 -0.30631226 -0.23982233
000160 f8 02 b1 bf 9e ea d7 be 6a 6a bf bd 47 cc 58 3e
       -1.3829031 -0.42171186 -0.09346469 0.21171676
000170 52 53 19 3f ed fb 85 be 07 ca 17 bf c1 c1 c7 3c
       0.5989276 -0.26168767 -0.59292644 0.024384381
000180 3c 29 62 be e1 74 13 bf dc 0e 5f 3c 8a 6b f7 be
       -0.22086042 -0.5760022 0.013614383 -0.48324233
000190 4e 65 89 be 74 81 63 3d 39 5d f5 3d c4 a4 a7 3e
       -0.26835102 0.055543378 0.119806714 0.32742894
0001a0 a1 b7 ba 3f 89 26 84 3c 77 c3 ac be 07 ab fa 3e
       1.4587289 0.016131656 -0.33742878 0.48958609
0001b0 fc 2c df 3c 60 c8 8b be 99 ce 18 3e 8e a5 48 3d
       0.02724313 -0.27301311 0.14922561 0.04898601
0001c0 20 d0 54 bc 07 8d a0 bc 3b 76 35 3e d1 b6 9a 3d
       -0.012989074 -0.019598497 0.17720883 0.07554401
0001d0 c5 c5 f7 3f 74 55 31 3e 61 67 b0 be 2f 4c 88 3f
       1.935723 0.17317754 -0.34453872 1.0648249
0001e0 b5 87 ed bd 62 64 e5 be 04 e4 0f 3f 19 55 b5 3d
       -0.1159815 -0.44803149 0.562073 0.08854122
0001f0 d0 20 45 be bf 32 02 3f e0 69 9c bc 53 c7 99 bd
       -0.19250798 0.5085868 -0.019093454 -0.07508721
000200 0c 7e b1 bd e8 15 89 bd db 0b 1c bd 81 f8 8f 3d
       -0.0866662 -0.066936314 -0.038097244 0.0702982
000210 a3 79 a0 3d 82 2a e5 3d 40 e5 9b 3c 33 81 01 be
       0.078357 0.11189748 0.019030213 -0.12646942
000220 85 e5 af bd d3 14 eb bb e7 76 08 be 3f a2 76 3c
       -0.08588699 -0.0071741133 -0.13326608 0.015053331
000230 e7 61 32 3d 39 a9 af bd b5 8b 30 bd 75 de fd 3d
       0.0435504 -0.085771985 -0.043101985 0.12395946
000240 5c 57 09 bd 17 8e 76 3d 59 16 b6 bd 8d 78 ca bd
       -0.033530578 0.0601941 -0.08890981 -0.098862745
000250 68 13 20 3d 3e 0d 23 bd ab f6 ae bd 8a 79 13 bd
       0.039081007 -0.03980755 -0.08543142 -0.03600458
000260 df 0f a1 bd 1b 72 e9 bd f1 37 db 3c c9 c7 f0 3d
       -0.07864355 -0.11398717 0.026760073 0.11756856
000270 70 89 0a 3d 9f 14 9b 3d ac bb 70 39 c4 aa 33 3d
       0.033822477 0.075722925 0.00022958097 0.043864027
000280 f2 f6 87 3d 44 e5 47 3c 8e b1 a6 3d fd 78 50 bd
       0.06638898 0.012200657 0.081393346 -0.050896633
000290 19 47 9a 3d 3e 31 dc 3d 0e 49 d5 3d 7c 1b 5a bd
       0.07533092 0.1075158 0.10414325 -0.053248867
0002a0 bc 41 a2 bd d4 ee 9d bd ac f4 16 3c cd e4 a5 3d
       -0.07922694 -0.077115685 0.009213608 0.08100281
0002b0 88 c7 96 bc f5 6d 99 bd 38 3e ab 3d 30 9f 6b 3d
       -0.01840569 -0.07491676 0.08361477 0.05752486
0002c0 69 f5 7a 3d 13 f8 c2 3d 0f 7f 92 bd 82 c1 b5 3d
       0.061269198 0.09519973 -0.07153141 0.08874799
0002d0 ee a3 a5 3c a6 3b c7 3d 21 a2 00 bc 8b 3a b7 bd
       0.02021977 0.09728174 -0.007851155 -0.08946713
0002e0 00 6f fd bc f4 60 a5 3c 60 01 c9 bd a7 17 d7 bd
       -0.030936718 0.020187832 -0.098147154 -0.10502558
0002f0 1e a2 8a bd 15 07 95 3d 55 9d c4 3c 14 af 3b 3d
       -0.06769203 0.072767414 0.024000803 0.045821264
000300 0e 88 45 3d 24 05 b6 bb 40 28 06 bc 5f a6 10 3d
       0.048225455 -0.005554812 -0.008188307 0.035314914
000310 18 6e 83 bd 27 db ca bc f0 72 b7 bd 31 68 7d 3d
       -0.06417483 -0.024762703 -0.089574695 0.061866943
000320 76 04 71 bd 1f 68 10 bd 88 0c 07 be aa 9c 44 3d
       -0.058842145 -0.035255548 -0.13188374 0.04800097
000330 bf 05 ef bd f4 74 fe bd 84 97 b6 3a 5c 2f b4 bd
       -0.11671018 -0.12424651 0.0013930653 -0.087980956
000340 6c 1b 85 bc a2 c0 dd 3d 48 bb c3 bb 38 32 e1 3d
       -0.016248427 0.108277574 -0.0059732534 0.109959066
000350 62 da c1 3d b7 92 fe bd 50 fd d9 bd 0e 4c ff 3d
       0.09465481 -0.124303274 -0.10644019 0.12465678
000360 be c1 a8 bd 73 77 df bd 36 f5 e4 3d 50 8b c5 bb
       -0.082400784 -0.10911455 0.11179583 -0.0060285702
000370 77 74 a9 3d b1 5a ca 3d 3e 23 07 b9 89 17 7a 3d
       0.08274167 0.09880579 -0.00012887732 0.0610576
000380 2e 0d 4b bc ba b7 b0 bd a9 10 61 bc a4 39 01 3e
       -0.012393279 -0.08628793 -0.013736882 0.12619644
000390 c7 b8 fd 3d 84 b1 63 3d 1c 4f 91 bd 37 67 49 3d
       0.12388759 0.055589214 -0.07095167 0.0491707
0003a0 43 c4 ea 3d 1d d0 b8 3d 13 a1 b2 3d 00 89 b0 3c
       0.11463215 0.090240695 0.08722129 0.021549702
0003b0 1d ad fd 3c 82 5e cb 3d 85 e5 14 bd df 05 86 3c
       0.030966336 0.09930135 -0.0363517 0.016360221
0003c0 c4 a5 f8 bd 24 f8 bd 3d ee 2c ef bd 59 ba 81 bd
       -0.12140992 0.09275845 -0.116784915 -0.06334371
0003d0 a4 ac 52 3d ce ad 11 3d 2a 28 3b 3d 73 d6 2f 3c
       0.051434174 0.035566144 0.0456926 0.010732281
0003e0 5f 8c d0 3d 45 a6 16 bd 10 8b 8e 3c 25 1c 91 3d
       0.10183024 -0.03677966 0.017400295 0.07085446
0003f0 9c c0 c3 bc c0 d7 7e 3c 5e 5c 37 bd 78 4c 48 bc
       -0.023895554 0.0155543685 -0.044765823 -0.012225263

sequential_1_1/dense_5_1/Relu;sequential_1_1/dense_5_1/BiasAdd f4 [256]
000000 a6 e2 83 bf 6a c1 19 bc 00 00 00 00 3e c5 81 be
       -1.0303543 -0.009384492 0.0 -0.25345796
000010 1e 4c 17 bf 88 f3 60 bc de f7 de be 00 1e 8f bf
       -0.5910052 -0.013729937 -0.43548483 -1.118103
000020 ca 9c 03 3f 29 ee 5b bc 0e 61 e3 be 05 21 66 bc
       0.51411116 -0.013423481 -0.44409984 -0.014045958
000030 57 0d 88 be 40 8c 77 bd 00 00 00 00 00 00 00 00
       -0.26572677 -0.060436487 0.0 0.0
000040 a6 61 29 bd c2 58 5e bf f3 7b 7c bf 0d d5 ad bf
       -0.04135289 -0.86854184 -0.9862663 -1.3580643
000050 97 85 33 be 5d de 65 bf 2b 93 c4 bb 00 00 00 00
       -0.17531429 -0.89792424 -0.005998989 0.0
000060 8a 40 5e 3e 81 3b 91 be 58 12 b6 bb 3a 0f 29 be
       0.21704307 -0.2836571 -0.005556386 -0.16509715
000070 80 4d 2c bd 24 a6 41 3e 07 c1 a0 3f 73 b9 e1 bd
       -0.042066097 0.18911034 1.2558907 -0.110217
000080 e3 33 f6 3e 90 10 9a 3e e0 89 6f 3c 6a e2 78 be
       0.4808646 0.3009076 0.014620274 -0.2430512
000090 fd 14 22 bf 15 c3 66 3e 0e 2b 85 bc 00 00 00 00
       -0.63313276 0.22535355 -0.016255882 0.0
0000a0 ff ff a8 be 83 cd fe bd 30 4a f7 3e 37 aa 9f bf
       -0.3300781 -0.12441542 0.48298788 -1.247382
0000b0 5b b6 8a be ae 0d a7 bb ae 37 3e bf 9c 2a 53 3e
       -0.2709225 -0.0050980663 -0.7430371 0.20621723
0000c0 69 11 00 bc 6a 0d 31 bc 35 0e 54 3f 78 4a 10 bc
       -0.007816651 -0.010806421 0.8283418 -0.008806817
0000d0 2c 8e 43 be 5d bc 8a bd f0 ef 5d bd 97 c4 d8 bb
       -0.19097203 -0.06774209 -0.0541839 -0.006615232
0000e0 2b 0f 3a 3f ad 00 e4 be 91 bc 2f be e9 0d d5 bf
       0.72679394 -0.44531766 -0.17161776 -1.664487
0000f0 d8 f2 3b bc fe 98 7f 3e dd 74 19 bf 9c 88 81 be
       -0.011471473 0.24960706 -0.59943944 -0.25299537
000100 ba ea a9 3e 6e 27 15 3f 68 76 28 bc f2 c1 a4 bf
       0.33186895 0.5826329 -0.0102821365 -1.2871687
000110 16 db 07 bc 80 6b 75 bc ef 43 bd bf 20 cd 8f bb
       -0.00829198 -0.014979243 -1.4786357 -0.0043884665
000120 00 00 00 00 cf 90 c4 bb ed a9 f0 bb 67 c1 0e 3f
       0.0 -0.005998708 -0.0073444755 0.5576386
000130 4c ee 0c 3f 57 b4 3c be db b7 d2 3e b0 40 3b 3f
       0.5505111 -0.18428169 0.41155896 0.7314558
000140 76 6e df be 26 3d 0e 3f b0 5a ff bd 00 eb 01 bf
       -0.43638963 0.55562055 -0.12468469 -0.50749207
000150 fa d6 11 bf cf 1a b0 bf e9 34 bf bb 38 58 d8 bf
       -0.56968653 -1.3758181 -0.005835165 -1.6901922
000160 a6 87 10 bc 05 20 f3 3e 55 2a 81 3e 00 00 00 00
       -0.008821404 0.47485366 0.2522761 0.0
000170 41 d3 f3 be 5e e9 7f bf 89 64 15 bf 4a 84 08 be
       -0.4762211 -0.99965465 -0.5835653 -0.13331714
000180 48 7f 92 bc e6 6d 83 bb f2 47 c5 3d c5 89 06 bf
       -0.017882958 -0.0040109036 0.09632863 -0.5255397
000190 45 00 ce 3e 55 6c 04 bf 77 04 c4 bb 00 00 00 00
       0.4023458 -0.517278 -0.0059819776 0.0
0001a0 46 1c 6b 3e 5a 0f 86 3d 38 ca 1a bc 2e f6 fb bb
       0.22960004 0.06545897 -0.009447627 -0.007689259
0001b0 00 00 00 00 9e 54 2f ba 00 00 00 00 00 00 00 00
       0.0 -0.0006688329 0.0 0.0
0001c0 78 6f 80 bf 61 b6 b5 be 23 55 9c bd 10 88 52 bc
       -1.0034018 -0.35490707 -0.07633426 -0.012849823
0001d0 86 c5 af bb d6 19 06 bc a7 ea ed be 64 8e 18 3f
       -0.005364123 -0.008184871 -0.46468088 0.5959227
0001e0 00 00 00 00 ee 46 db 3e 00 00 00 00 f9 3c 18 bc
       0.0 0.42827553 0.0 -0.009291881
0001f0 49 a9 8a be f0 3b d6 be 14 a0 c3 bb 25 7a 11 3e
       -0.2708228 -0.41842604 -0.0059700105 0.1420675
000200 00 00 00 00 98 72 33 bf e7 a3 1b bf 03 de 46 bf
       0.0 -0.7009673 -0.6079697 -0.77682513
000210 ec 27 17 bf 73 00 e1 be 00 00 00 00 00 00 00 00
       -0.5904529 -0.43945655 0.0 0.0
000220 8d 58 85 bc b6 3c e0 be c2 d5 11 3f 72 d6 3b 3f
       -0.016277576 -0.4379632 0.56966794 0.7337409
000230 62 c9 36 3e de 28 25 bc e7 f2 5b be e0 b3 86 3e
       0.17850259 -0.010080544 -0.21479379 0.2630911
000240 64 a9 df 3e 9b 9c bb bd 13 3e 1d 3f f4 bb 70 3f
       0.43683922 -0.091607295 0.6142284 0.94036794
000250 8f e2 87 bf b1 bc 46 bf 7c 64 49 bc c5 f4 68 bf
       -1.0616015 -0.7763167 -0.012292024 -0.9099849
000260 8e 13 8d 3e e2 f2 61 bc f5 2a 53 bb 89 c2 3b bf
       0.27553982 -0.013790818 -0.003222165 -0.7334371
000270 49 91 35 bf da 3b 23 bc 6d 6e 40 bf 88 c1 c0 be
       -0.7092481 -0.009963 -0.75168496 -0.37647653
000280 1f 77 e1 3e 43 2f a3 3d 26 11 5a 3e 3c 8c 99 be
       0.44036195 0.07967999 0.21295604 -0.29989803
000290 e8 03 0f bc e1 53 c9 bc 96 7b a7 bb 91 c8 a7 bd
       -0.008728959 -0.02457613 -0.005111168 -0.08192552
0002a0 36 58 62 bc c3 7c 99 3e e2 00 77 be 10 18 76 3e
       -0.013814976 0.29977998 -0.2412143 0.24032617
0002b0 86 ff 32 3f c6 be b6 bb f5 c9 22 bf 2b a6 c4 bb
       0.6992115 -0.005576941 -0.6358941 -0.006001254
0002c0 1d d1 de bd 30 7f b4 be 05 c1 84 bf 57 2e 1d 3f
       -0.10879729 -0.35253286 -1.0371405 0.61398834
0002d0 6c e1 49 bc d2 aa 04 bc dd fb 7f bf cb c3 a7 bb
       -0.012321811 -0.008097367 -0.9999369 -0.005119776
0002e0 9d 7a 84 bd 0c 59 ec bd 41 c5 4f be f3 e0 32 bc
       -0.06468699 -0.11540422 -0.2029009 -0.01091789
0002f0 3c 56 ba bb f1 f5 ac be 9f 75 79 bc 20 b6 86 3d
       -0.0056865495 -0.33781388 -0.015225797 0.06577706
000300 55 90 0f bc c6 e7 b0 3d 2e 70 80 bf 00 00 00 00
       -0.008762439 0.08637957 -1.0034235 0.0
000310 64 b3 8b 3d 6e 19 ac 3f 11 da eb bb ca 74 f1 bc
       0.068213254 1.344526 -0.0071976264 -0.029474635
000320 31 e8 a2 be 00 00 00 00 e5 9c 72 bc 3a e0 35 3e
       -0.31817773 0.0 -0.014807914 0.17761317
000330 0a bc 9e be 26 27 0b be 50 e9 4e 3e 2d c9 06 bf
       -0.31002837 -0.13589153 0.20206189 -0.5265072
000340 5c e8 24 bf 71 45 a6 3e 5c 9e ff bb 6f 48 b7 3e
       -0.6441705 0.32474855 -0.0078008603 0.3579745
000350 08 c5 e4 bc 54 83 2c bf 50 0c 9a bf 07 8a 16 3f
       -0.027925983 -0.6738789 -1.2035007 0.58804363
000360 cf 2d a4 3f 95 2b 3f be ca 10 02 bf 40 57 87 bd
       1.282648 -0.18668969 -0.5080687 -0.066084385
000370 3a 4b 02 be ca 31 42 bd 2e 2a 5b 3e 9b bc f5 bd
       -0.12724009 -0.047410764 0.21402809 -0.11998864
000380 f0 ac b2 bc d8 37 64 3f c0 c0 96 3f cb 0c 9f 3e
       -0.021810979 0.8914771 1.1777573 0.31064448
000390 f7 63 2d bf 96 35 93 be ce 83 cb 3d 9a a1 42 bf
       -0.6773066 -0.2875182 0.09937249 -0.76027834
0003a0 f4 e9 c1 3e 45 5d 75 bf 6c 77 10 3c ee 90 e2 bd
       0.37873805 -0.95845443 0.008817535 -0.110627994
0003b0 aa 32 98 bf d1 6d a1 bf c7 c7 2b 3f 00 00 00 00
       -1.1890461 -1.2611638 0.6710171 0.0
0003c0 4d 0b 07 bc 49 bd 16 be b1 08 56 be 00 00 00 00
       -0.00824244 -0.14720644 -0.20901753 0.0
0003d0 5d 46 4a 3e 43 97 f7 be 1b db 00 3f 43 1b 98 be
       0.19753404 -0.4835759 0.5033433 -0.297083
0003e0 55 9c c4 bb c3 5d 41 3e 00 00 00 00 bd 07 b3 bc
       -0.0060000815 0.18883424 0.0 -0.021854276
0003f0 7a e0 8d 3d 11 33 98 be d6 ba 6b bf c3 0f 13 3f
       0.06927581 -0.2972646 -0.92081964 0.57445925
